demo_out/run3/epoch3/params.npz (npz, 11215 bytes, 4 tensors)

pose f8 [5, 105]
00000000: 0000 00c0 0dd2 ee3f 0000 0060 7d71 f93f
00000010: 0000 0080 5e97 f5bf 0000 00c0 2585 64bf
00000020: 0000 0080 82b0 91bf 0000 0040 f78c c13f
00000030: 0000 0080 b728 a53f 0000 0080 58fd 64bf
00000040: 0000 00e0 2bf9 c6bf 0000 0000 562d c1bf
00000050: 0000 0000 528a c5bf 0000 0080 6f95 a5bf
00000060: 0000 00a0 f5b1 b7bf 0000 00a0 4890 ce3f
00000070: 0000 00c0 8d97 943f 0000 0000 18f1 563f
00000080: 0000 0080 e19c af3f 0000 0000 8167 89bf
00000090: 0000 00c0 15a7 a43f 0000 00a0 381b c33f
000000a0: 0000 0080 1d60 853f 0000 00e0 a412 e4bf
000000b0: 0000 00c0 1351 b3bf 0000 00c0 bbf0 9fbf
000000c0: 0000 0040 fb79 e03f 0000 0080 9861 c63f
000000d0: 0000 00a0 41c7 d73f 0000 00e0 ab21 d4bf
000000e0: 0000 00e0 f7dd e2bf 0000 00c0 2b57 d0bf
000000f0: 0000 00a0 e292 e43f 0000 0080 8559 d5bf
00000100: 0000 0000 a26e c9bf 0000 0000 2cad d93f
00000110: 0000 0080 33d7 c03f 0000 00c0 ba78 a73f
00000120: 0000 0000 61e9 d9bf 0000 00a0 906f a73f
00000130: 0000 00a0 0f15 a0bf 0000 0000 78cb 58bf
00000140: 0000 00e0 d6aa e5bf 0000 0080 a15e e63f
00000150: 0000 0060 9b7e e9bf 0000 0000 8ca9 e4bf
00000160: 0000 0000 973e d43f 0000 00e0 6a87 c53f
00000170: 0000 0080 bbfd d6bf 0000 0000 e001 933f
00000180: 0000 00c0 cad6 d33f 0000 0020 7c80 e0bf
00000190: 0000 00c0 20c6 ce3f 0000 0080 04f6 9ebf
000001a0: 0000 0080 cde4 ae3f 0000 0060 3fa6 d2bf
000001b0: 0000 0020 0bc4 bfbf 0000 0000 a7e3 cb3f
000001c0: 0000 00a0 8da3 ca3f 0000 0040 4b3d c93f
000001d0: 0000 00c0 8f03 e2bf 0000 0000 6cd0 c23f
000001e0: 0000 0000 e9d8 8cbf 0000 0020 10f1 e3bf
000001f0: 0000 0000 c7b5 c23f 0000 00c0 fc2c c33f
00000200: 0000 0080 257a de3f 0000 00e0 c34c c93f
00000210: 0000 0000 04c6 5a3f 0000 0040 12c2 b1bf
00000220: 0000 00c0 461a cebf 0000 0060 9694 c6bf
00000230: 0000 0000 17e9 c6bf 0000 00c0 6388 cabf
00000240: 0000 0060 201c d8bf 0000 0000 839e f0bf
00000250: 0000 0000 ab52 853f 0000 00c0 cc62 c4bf
00000260: 0000 0020 0033 c3bf 0000 0040 51a7 963f
00000270: 0000 00a0 ccaf d2bf 0000 0040 d012 d13f
00000280: 0000 0000 88ac a2bf 0000 00c0 2a1e a1bf
00000290: 0000 0000 f7ae 96bf 0000 00e0 39c3 b5bf
000002a0: 0000 0080 1e5c aabf 0000 00e0 1da7 b4bf
000002b0: 0000 00c0 46d8 b13f 0000 00c0 a8cd 96bf
000002c0: 0000 00a0 0d94 c63f 0000 00c0 fb4b a43f
000002d0: 0000 0000 1c03 ccbf 0000 0040 02e8 a23f
000002e0: 0000 0080 98d4 79bf 0000 00c0 55b6 cbbf
000002f0: 0000 00c0 eaa6 cabf 0000 0000 7245 5c3f
00000300: 0000 0080 68bf d4bf 0000 0000 1861 6abf
00000310: 0000 0000 70e4 8f3f 0000 0000 61c0 ecbf
00000320: 0000 0060 3314 ee3f 0000 0000 0258 e8bf
00000330: 0000 0060 6823 d63f 0000 0020 2db8 f63f
00000340: 0000 00a0 8892 f63f 0000 0040 74c2 fa3f
00000350: 0000 0000 e2d8 e33f 0000 0060 884c f0bf
00000360: 0000 0000 5d07 bc3f 0000 0000 a02d b23f
00000370: 0000 00c0 57a8 d2bf 0000 0060 16ed ccbf
00000380: 0000 0060 b714 9d3f 0000 00a0 bf96 ce3f
00000390: 0000 00c0 62fd c63f 0000 0000 349e c4bf
000003a0: 0000 0040 006c c53f 0000 00c0 0d10 c23f
000003b0: 0000 0000 a58b c43f 0000 0020 61ff cabf
000003c0: 0000 0080 88bc 9bbf 0000 00c0 ebea 963f
000003d0: 0000 0000 27a8 8d3f 0000 0080 44f3 703f
000003e0: 0000 0020 d694 c93f 0000 00c0 b91e b2bf
000003f0: 0000 0080 1c20 cfbf 0000 0060 1127 c43f
00000400: 0000 0080 26c0 a9bf 0000 00a0 4c1d e63f
00000410: 0000 00a0 e0c5 ddbf 0000 00c0 6ff7 cc3f
00000420: 0000 0000 6a51 c8bf 0000 00a0 c220 b2bf
00000430: 0000 0060 f0e7 d3bf 0000 00e0 6091 d03f
00000440: 0000 0000 f44a e43f 0000 00a0 ec7d d1bf
00000450: 0000 00e0 5d43 e43f 0000 0000 3a23 b8bf
00000460: 0000 0020 5eec c9bf 0000 0080 2e53 a23f
00000470: 0000 00c0 6e2d d23f 0000 0000 9444 babf
00000480: 0000 0080 3561 c83f 0000 00a0 f778 c23f
00000490: 0000 00c0 754c e73f 0000 00c0 533a e7bf
000004a0: 0000 0020 787e d8bf 0000 0020 a4bb c53f
000004b0: 0000 0020 9dc6 d8bf 0000 0040 2520 c5bf
000004c0: 0000 0060 1432 d13f 0000 0000 d501 d6bf
000004d0: 0000 0000 9df7 e4bf 0000 0040 628b c3bf
000004e0: 0000 00e0 e3ec d33f 0000 0000 ce6a d63f
000004f0: 0000 0040 02a4 ccbf 0000 0000 25be 9fbf
00000500: 0000 0000 b138 de3f 0000 0080 c454 a8bf
00000510: 0000 0040 cc17 c33f 0000 00c0 a169 e4bf
00000520: 0000 0000 6d10 c13f 0000 00c0 eebc ad3f
00000530: 0000 0000 2a31 e2bf 0000 00a0 7b9c babf
00000540: 0000 0040 8c09 ab3f 0000 0080 d699 adbf
00000550: 0000 0040 c7a8 c13f 0000 0040 caf0 db3f
00000560: 0000 00c0 47a6 e43f 0000 0080 db88 bdbf
00000570: 0000 00c0 68a3 c5bf 0000 0020 8b4d eabf
00000580: 0000 0000 4201 93bf 0000 0080 6965 b5bf
00000590: 0000 00c0 0de3 b9bf 0000 0000 80a5 403f
000005a0: 0000 00a0 12c1 c2bf 0000 00a0 8196 e1bf
000005b0: 0000 0020 506e d1bf 0000 0020 a053 d83f
000005c0: 0000 0040 2075 c23f 0000 0080 7554 e4bf
000005d0: 0000 0040 43f4 d13f 0000 0060 9c0e b6bf
000005e0: 0000 0080 e4df 9dbf 0000 0060 6095 5bbf
000005f0: 0000 0060 c546 d4bf 0000 00a0 3b10 c1bf
00000600: 0000 0060 ea0f a93f 0000 0040 189b bf3f
00000610: 0000 00c0 b4c1 d4bf 0000 0020 078b bdbf
00000620: 0000 0040 3759 b7bf 0000 0020 7603 c93f
00000630: 0000 00c0 8303 94bf 0000 0080 ee2d e5bf
00000640: 0000 00a0 3a19 dcbf 0000 0040 2f98 bb3f
00000650: 0000 0080 8726 ccbf 0000 0060 52b3 bb3f
00000660: 0000 00e0 5cf3 f9bf 0000 0020 09de f23f
00000670: 0000 00e0 3784 e8bf 0000 00a0 c430 db3f
00000680: 0000 00a0 8e4e fc3f 0000 00a0 5764 f03f
00000690: 0000 00e0 8c1d f73f 0000 0020 7dc8 f33f
000006a0: 0000 0000 4b5d f2bf 0000 0080 8ee7 a9bf
000006b0: 0000 0080 1f50 b43f 0000 0020 4126 cfbf
000006c0: 0000 0000 f5b2 babf 0000 0080 f424 65bf
000006d0: 0000 0060 daca b73f 0000 0060 a5f9 b53f
000006e0: 0000 0000 d356 c8bf 0000 00e0 50b8 9e3f
000006f0: 0000 00e0 1c57 b43f 0000 00c0 e5ac c43f
00000700: 0000 00c0 4c74 96bf 0000 0000 c00d 493f
00000710: 0000 0000 e000 3d3f 0000 0040 9332 a43f
00000720: 0000 00a0 8a16 b6bf 0000 0000 cd70 c53f
00000730: 0000 0020 54c5 ab3f 0000 00a0 929d d0bf
00000740: 0000 0020 54a7 c73f 0000 00a0 092a ce3f
00000750: 0000 0000 cafb dd3f 0000 0020 bbd2 a1bf
00000760: 0000 0060 e157 d13f 0000 0060 233a d0bf
00000770: 0000 0020 f91f e4bf 0000 0000 60ad ddbf
00000780: 0000 00c0 0e48 e03f 0000 0080 07f7 b3bf
00000790: 0000 0020 b6a4 d2bf 0000 0080 e478 d83f
000007a0: 0000 0060 a4c5 b03f 0000 00e0 8214 d0bf
000007b0: 0000 0040 dd80 dbbf 0000 0080 a1ab ca3f
000007c0: 0000 00c0 2d72 d4bf 0000 00c0 c579 d83f
000007d0: 0000 0020 257c e4bf 0000 0020 0822 db3f
000007e0: 0000 00e0 e60b e3bf 0000 0000 e1f6 c1bf
000007f0: 0000 0000 de7f d23f 0000 00a0 ed4c c3bf
0.9631413221359253 1.5902074575424194 -1.3494553565979004 -0.002504895906895399 -0.017274893820285797 0.13711443543434143 0.04132626950740814 -0.0025622108951210976
-0.17947910726070404 -0.13419604301452637 -0.16828370094299316 -0.04215572774410248 -0.09255919605493546 0.23877818882465363 0.020109381526708603 0.0014002546668052673
0.061743780970573425 -0.01240444928407669 0.04033725708723068 0.1492682248353958 0.01043723151087761 -0.6272758841514587 -0.07545588910579681 -0.031191762536764145
0.5148903131484985 0.1748533844947815 0.37153664231300354 -0.3145551383495331 -0.5895957350730896 -0.2553204894065857 0.6429303288459778 -0.33358895778656006
-0.19868874549865723 0.40119457244873047 0.13156741857528687 0.0458429679274559 -0.40486931800842285 0.04577304795384407 -0.03141068294644356 -0.001513354480266571
-0.6771044135093689 0.6990516185760498 -0.7967049479484558 -0.6456966400146484 0.31632018089294434 0.16819511353969574 -0.35923659801483154 0.018561840057373047
0.30998486280441284 -0.515684187412262 0.2404213845729828 -0.030235357582569122 0.06033937633037567 -0.29139694571495056 -0.12408513575792313 0.21788489818572998
0.20811624825000763 0.1971830427646637 -0.5629347562789917 0.14698553085327148 -0.014085598289966583 -0.623176634311676 0.1461724042892456 0.14981040358543396
0.4762052297592163 0.19765518605709076 0.0016341246664524078 -0.06936754286289215 -0.23517689108848572 -0.1764095276594162 -0.17898833751678467 -0.2072872817516327
-0.3767167031764984 -1.0386991500854492 0.010411582887172699 -0.15926513075828552 -0.1499939113855362 0.022122640162706375 -0.29197993874549866 0.2667732834815979
-0.03647255897521973 -0.033433280885219574 -0.02215181291103363 -0.08501016348600388 -0.051484063267707825 -0.08067499846220016 0.06970636546611786 -0.022268902510404587
0.17639322578907013 0.03964220732450485 -0.21884489059448242 0.03692633658647537 -0.0063062626868486404 -0.21650192141532898 -0.20821890234947205 0.001725541427731514
-0.3241826295852661 -0.0032201260328292847 0.015572428703308105 -0.8984837532043457 0.9399659037590027 -0.7607431411743164 0.3459111154079437 1.4199649095535278
1.410774827003479 1.6724741458892822 0.6202249526977539 -1.0186847448349 0.10948735475540161 0.07100868225097656 -0.29152482748031616 -0.2259853333234787
0.028399338945746422 0.23897548019886017 0.17960771918296814 -0.16107797622680664 0.1673584282398224 0.14111492037773132 0.16051161289215088 -0.21091856062412262
-0.02708638459444046 0.0223805271089077 0.01448088139295578 0.004138248041272163 0.19985462725162506 -0.07078133523464203 -0.2431674599647522 0.15744225680828094
-0.050294116139411926 0.6910765767097473 -0.4652024805545807 0.2263011634349823 -0.18998456001281738 -0.07081238180398941 -0.31103143095970154 0.25887319445610046
0.6341495513916016 -0.2733108103275299 0.6332234740257263 -0.09428751468658447 -0.20252586901187897 0.03579087555408478 0.2840229868888855 -0.10260891914367676
0.19046658277511597 0.144316628575325 0.7280834913253784 -0.7258700132369995 -0.3827190697193146 0.16978885233402252 -0.38712242245674133 -0.16504350304603577
0.2686816155910492 -0.34386181831359863 -0.6552262306213379 -0.15269115567207336 0.31133362650871277 0.3502688407897949 -0.2237551510334015 -0.030998781323432922
0.472210168838501 -0.04752172529697418 0.14916375279426575 -0.6378945112228394 0.13331377506256104 0.05808206647634506 -0.5685014724731445 -0.10395023971796036
0.052807219326496124 -0.05781431496143341 0.137963205575943 0.4365716576576233 0.6452978849411011 -0.1153695285320282 -0.16904935240745544 -0.821965754032135
-0.01855948567390442 -0.0835786759853363 -0.10112081468105316 0.0005080103874206543 -0.14651711285114288 -0.5496223568916321 -0.2723579704761505 0.38010409474372864
0.144199401140213 -0.6353099346160889 0.2805336117744446 -0.08616044372320175 -0.02917439490556717 -0.0016835633432492614 -0.31681951880455017 -0.13330788910388947
0.048949550837278366 0.1234603077173233 -0.3243228793144226 -0.11540264636278152 -0.09120507538318634 0.19541813433170319 -0.019544657319784164 -0.6618568897247314
-0.43903985619544983 0.10779090225696564 -0.21992582082748413 0.10820498317480087 -1.6219147443771362 1.1792079210281372 -0.7661399245262146 0.42485156655311584
1.7691789865493774 1.024497628211975 1.4447144269943237 1.2364474534988403 -1.1477766036987305 -0.050594761967659 0.07934758067131042 -0.243354931473732
-0.10429316759109497 -0.0025810981169342995 0.09293904155492783 0.08584054559469223 -0.19014966487884521 0.029999984428286552 0.07945423573255539 0.1615264117717743
-0.021928023546934128 0.0007645785808563232 0.00044255703687667847 0.03944835811853409 -0.08628145605325699 0.1675049066543579 0.054239872843027115 -0.25961747765541077
0.18479396402835846 0.23565788567066193 0.4684929847717285 -0.0348108746111393 0.270988792181015 -0.2535484731197357 -0.6289029717445374 -0.46370697021484375
0.5087960958480835 -0.07798811793327332 -0.29130318760871887 0.3823786973953247 0.06551577895879745 -0.2512519061565399 -0.4297402501106262 0.20836275815963745
-0.3194689154624939 0.38243240118026733 -0.6401544213294983 0.4239521324634552 -0.5952028632164001 -0.14034664630889893 0.28905439376831055 -0.1507851630449295

betas f8 [5, 41]
00000000: 0000 0060 6ead c1bf 0000 0040 6266 d43f
00000010: 0000 00c0 9cb5 bfbf 0000 00c0 4de6 e8bf
00000020: 0000 00c0 e676 debf 0000 0060 eca2 9a3f
00000030: 0000 0000 0591 d8bf 0000 00e0 3dc0 f43f
00000040: 0000 0020 f191 cfbf 0000 0000 92e8 f03f
00000050: 0000 0060 f5db f63f 0000 0080 8113 01c0
00000060: 0000 0000 f7a5 0440 0000 00e0 e849 e2bf
00000070: 0000 0020 2710 09c0 0000 0060 177b f03f
00000080: 0000 0040 c571 05c0 0000 0000 27ad 12c0
00000090: 0000 00e0 65fc e3bf 0000 0020 04a4 f13f
000000a0: 0000 0040 0fac e0bf 0000 0040 aacb e3bf
000000b0: 0000 0000 02e1 f0bf 0000 0080 62fc efbf
000000c0: 0000 0000 ace8 f3bf 0000 0000 bf5b d1bf
000000d0: 0000 0080 89b5 4d3f 0000 00c0 5dd2 503f
000000e0: 0000 0000 1e67 5dbf 0000 0020 9dcd 51bf
000000f0: 0000 00c0 30e3 423f 0000 0020 9542 62bf
00000100: 0000 0040 0e4d 63bf 0000 00a0 4f56 59bf
00000110: 0000 0020 4acf 5cbf 0000 0060 76ad 4f3f
00000120: 0000 0040 acbc 2dbf 0000 00a0 4282 663f
00000130: 0000 0020 4eba 663f 0000 0040 f3f4 303f
00000140: 0000 0000 bcd1 53bf 0000 0000 1a37 d3bf
00000150: 0000 00e0 0bc5 ec3f 0000 0020 552c f0bf
00000160: 0000 00e0 58a5 d63f 0000 0000 67b8 db3f
00000170: 0000 00c0 6a57 0ac0 0000 00e0 95b2 ff3f
00000180: 0000 0040 c5ad 783f 0000 00a0 9add 00c0
00000190: 0000 0000 30fc ce3f 0000 0020 e932 da3f
000001a0: 0000 0000 18c9 e7bf 0000 0000 95dd 1140
000001b0: 0000 0040 2951 dbbf 0000 0060 0790 05c0
000001c0: 0000 0020 c55e ee3f 0000 0060 75f0 fdbf
000001d0: 0000 0040 6133 1cc0 0000 00a0 7944 e4bf
000001e0: 0000 00c0 769c cc3f 0000 0000 9d8d e2bf
000001f0: 0000 0040 1ede d7bf 0000 0060 23a5 eabf
00000200: 0000 00c0 85d5 f0bf 0000 0000 a8de f4bf
00000210: 0000 0080 c587 dcbf 0000 00c0 8479 4f3f
00000220: 0000 0080 dcfc 573f 0000 0040 1267 60bf
00000230: 0000 0000 f3c2 42bf 0000 00c0 9902 3f3f
00000240: 0000 0000 c950 60bf 0000 0040 cd40 64bf
00000250: 0000 0000 07de 64bf 0000 0080 9808 61bf
00000260: 0000 0060 04f3 523f 0000 0000 9e01 f53e
00000270: 0000 0000 114b 693f 0000 00c0 d07b 643f
00000280: 0000 0080 3069 4d3f 0000 00e0 dded 5cbf
00000290: 0000 0040 9931 edbf 0000 00e0 4721 ef3f
000002a0: 0000 0000 1414 e63f 0000 0020 e3fa fabf
000002b0: 0000 0000 8683 d83f 0000 0000 f630 01c0
000002c0: 0000 00e0 61ca eb3f 0000 0020 c282 0140
000002d0: 0000 0000 7aac ef3f 0000 0060 a68a f1bf
000002e0: 0000 0040 3196 f23f 0000 0040 0ebe f0bf
000002f0: 0000 0040 0034 0140 0000 0040 56ca ab3f
00000300: 0000 00e0 9450 f5bf 0000 0040 87e4 d7bf
00000310: 0000 0000 94dc 09c0 0000 0040 bc14 14c0
00000320: 0000 00e0 9d8b d0bf 0000 0080 6880 e53f
00000330: 0000 00e0 35a0 e8bf 0000 0040 8702 e5bf
00000340: 0000 0060 c54a f1bf 0000 0000 654e f2bf
00000350: 0000 00e0 a799 f4bf 0000 0060 4d24 d6bf
00000360: 0000 00a0 71fd 4d3f 0000 0080 12b5 563f
00000370: 0000 0080 fd25 5dbf 0000 00e0 710b 49bf
00000380: 0000 00e0 07eb 433f 0000 0080 db4a 62bf
00000390: 0000 0080 1f28 63bf 0000 00c0 d9a8 5ebf
000003a0: 0000 00a0 8a74 5bbf 0000 00c0 928d 553f
000003b0: 0000 00c0 7594 21bf 0000 0080 b7e9 643f
000003c0: 0000 0040 900d 683f 0000 00c0 a5c6 3e3f
000003d0: 0000 00c0 d033 58bf 0000 00c0 f877 e3bf
000003e0: 0000 00a0 f92f c1bf 0000 0080 81ad edbf
000003f0: 0000 00a0 aff1 ef3f 0000 0060 00b6 93bf
00000400: 0000 0000 b3c4 eebf 0000 0080 41e1 e43f
00000410: 0000 00e0 55ed b43f 0000 0020 b3b1 fbbf
00000420: 0000 00a0 a7bf f83f 0000 00a0 ff57 f23f
00000430: 0000 0020 9363 eabf 0000 00e0 52d9 0340
00000440: 0000 0040 634a a7bf 0000 0080 81f9 0cc0
00000450: 0000 0080 88a9 f53f 0000 00e0 d6dd 03c0
00000460: 0000 0000 aef0 16c0 0000 0020 589b e9bf
00000470: 0000 0000 4985 f23f 0000 0020 a878 ddbf
00000480: 0000 0060 99aa d1bf 0000 0040 6792 e8bf
00000490: 0000 0060 0f04 f1bf 0000 0000 3f55 f5bf
000004a0: 0000 0000 08f6 d6bf 0000 0080 a684 4e3f
000004b0: 0000 00c0 8e25 5e3f 0000 0040 822f 5fbf
000004c0: 0000 0040 ff29 43bf 0000 00c0 be58 293f
000004d0: 0000 0020 740b 61bf 0000 0020 faa1 62bf
000004e0: 0000 00a0 a8bf 61bf 0000 00c0 9aaa 63bf
000004f0: 0000 0020 193f 573f 0000 0000 d882 ef3e
00000500: 0000 0020 a714 6b3f 0000 0020 020e 673f
00000510: 0000 0040 11cd 453f 0000 0060 c223 56bf
00000520: 0000 0020 5671 e1bf 0000 0080 7511 de3f
00000530: 0000 00e0 97a7 c73f 0000 00a0 3d9c e3bf
00000540: 0000 0020 191a c83f 0000 00e0 4783 ffbf
00000550: 0000 00a0 e519 ed3f 0000 00a0 7d5b 0240
00000560: 0000 0080 abe8 eebf 0000 0040 47c9 b53f
00000570: 0000 0080 fe20 f63f 0000 0020 50d5 f6bf
00000580: 0000 00c0 9d4e f33f 0000 0000 0e3a e03f
00000590: 0000 0080 5a9e febf 0000 0000 0c91 c1bf
000005a0: 0000 0000 8024 10c0 0000 00e0 fe89 13c0
000005b0: 0000 00e0 5760 e9bf 0000 0020 c633 f33f
000005c0: 0000 0040 e09d e5bf 0000 00c0 4608 e6bf
000005d0: 0000 0020 0a17 f2bf 0000 00e0 b2bf f0bf
000005e0: 0000 00c0 7f18 f4bf 0000 0020 43db d5bf
000005f0: 0000 0020 cf8d 553f 0000 0020 99f5 553f
00000600: 0000 00c0 1a23 5fbf 0000 00a0 e385 4abf
00000610: 0000 00c0 d313 523f 0000 0040 824e 62bf
00000620: 0000 0000 5942 64bf 0000 00a0 5925 56bf
00000630: 0000 0080 13f8 58bf 0000 0040 7c4b 563f
00000640: 0000 00c0 7ba0 22bf 0000 0040 228f 653f
00000650: 0000 00a0 3a50 663f 0000 0080 42b9 463f
00000660: 0000 00e0 aaa2 57bf
-0.13810519874095917 0.31874901056289673 -0.12386493384838104 -0.7781132459640503 -0.4760071635246277 0.026012128219008446 -0.3838512897491455 1.2969340085983276
-0.24664129316806793 1.0567798614501953 1.4287008047103882 -2.134524345397949 2.5810375213623047 -0.5715221762657166 -3.132887125015259 1.030051589012146
-2.6805520057678223 -4.669094085693359 -0.6245602965354919 1.1025429964065552 -0.5210033655166626 -0.6186114549636841 -1.0549335479736328 -0.999558687210083
-1.2443046569824219 -0.2712247371673584 0.0009066506754606962 0.0010267177131026983 -0.0017946045845746994 -0.0010866197990253568 0.0005763996159657836 -0.0022290146443992853
-0.002356078941375017 -0.0015464570606127381 -0.0017584060551598668 0.0009667232516221702 -0.0002268753305543214 0.0027476598042994738 0.002774384105578065 0.0002587407943792641
-0.0012096725404262543 -0.30023813247680664 0.8990535140037537 -1.010823369026184 0.35384199023246765 0.43313002586364746 -3.2926840782165527 1.9810999631881714
0.006025095470249653 -2.1082050800323486 0.24207115173339844 0.40935733914375305 -0.7432975769042969 4.466388702392578 -0.42682868242263794 -2.695326566696167
0.9490686058998108 -1.8712056875228882 -7.050175666809082 -0.6333587765693665 0.22352489829063416 -0.5797867774963379 -0.3729320168495178 -0.8326584696769714
-1.0521295070648193 -1.3043594360351562 -0.44578683376312256 0.0009605310624465346 0.0014640954323112965 -0.0020022732205688953 -0.0005725561641156673 0.00047317746793851256
-0.0019916463643312454 -0.0024723061360418797 -0.0025472771376371384 -0.0020792940631508827 0.0011565726017579436 2.0033185137435794e-05 0.0030875522643327713 0.0025004460476338863
0.0008975493256002665 -0.0017656962154433131 -0.9123045206069946 0.9728125929832458 0.6899509429931641 -1.6862517595291138 0.3830275535583496 -2.148906707763672
0.8684548735618591 2.1888468265533447 0.9898042678833008 -1.096350073814392 1.161668062210083 -1.0464003086090088 2.150391101837158 0.05427808314561844
-1.332173228263855 -0.3733232617378235 -3.2327041625976562 -5.020249366760254 -0.25852152705192566 0.6719248294830322 -0.7695569396018982 -0.656558632850647
-1.0807546377182007 -1.144139289855957 -1.2875136137008667 -0.345965713262558 0.000915222626645118 0.0013859444297850132 -0.0017790771089494228 -0.0007643037824891508
0.0006078518345020711 -0.0022329604253172874 -0.0023384680971503258 -0.001871311804279685 -0.0016757348785176873 0.0013154919724911451 -0.00013412415864877403 0.002552851103246212
0.002936155069619417 0.00046960398321971297 -0.0014771975111216307 -0.608394980430603 -0.1342765837907791 -0.9274299144744873 0.9982526898384094 -0.019248967990279198
-0.9615111351013184 0.6524970531463623 0.08174645155668259 -1.7308837175369263 1.5467907190322876 1.1464840173721313 -0.8246551156044006 2.4811151027679443
-0.04548940807580948 -3.621829032897949 1.3538899421691895 -2.4833199977874756 -5.735038757324219 -0.8002129197120667 1.1575403213500977 -0.46048930287361145
-0.2760375440120697 -0.7678714990615845 -1.0634912252426147 -1.3333120346069336 -0.3587665557861328 0.0009313405025750399 0.0018400091212242842 -0.001903416821733117
-0.0005848404252901673 0.00019337967387400568 -0.002080656820908189 -0.0022745023015886545 -0.002166585298255086 -0.0024006864987313747 0.0014188523637130857 1.5025667380541563e-05
0.0033057464752346277 0.002814296865835786 0.0006653150776401162 -0.0013512991135939956 -0.5450850129127502 0.46981561183929443 0.18480204045772552 -0.6128223538398743
0.18829645216464996 -1.9695509672164917 0.9094112515449524 2.294673204421997 -0.9659020900726318 0.08510251343250275 1.3830552101135254 -1.427078366279602
1.206693410873413 0.5070867538452148 -1.9136605262756348 -0.1372389793395996 -4.03564453125 -4.884761333465576 -0.7930106520652771 1.200140118598938
-0.675521969795227 -0.6885102987289429 -1.1306248903274536 -1.0468014478683472 -1.255981206893921 -0.3415077030658722 0.0013155482010915875 0.0013402934418991208
-0.0019004594068974257 -0.0008094178629107773 0.0011033599730581045 -0.002234701532870531 -0.002473043277859688 -0.0013516783947125077 -0.0015239897184073925 0.0013607705477625132
-0.00014211187954060733 0.002631728071719408 0.0027238030452281237 0.0006934714037925005 -0.0014425915433093905

camera f8 [5, 3]
00000000: 0000 0000 13c3 0cc0 0000 0000 0000 5c40
00000010: 0000 0000 0000 5c40 0000 00e0 9b30 0dc0
00000020: 0000 0000 0000 5c40 0000 0000 0000 5c40
00000030: 0000 0080 1924 0bc0 0000 0000 0000 5c40
00000040: 0000 0000 0000 5c40 0000 00a0 c019 0cc0
00000050: 0000 0000 0000 5c40 0000 0000 0000 5c40
00000060: 0000 0020 f10e 0cc0 0000 0000 0000 5c40
00000070: 0000 0000 0000 5c40
-3.5952510833740234 112.0 112.0 -3.6487348079681396 112.0 112.0 -3.3926267623901367 112.0
112.0 -3.5125744342803955 112.0 112.0 -3.507295846939087 112.0 112.0

joints3d f8 [5, 26, 3]
00000000: 0000 0000 201e cabf 0000 00a0 794a d0bf
00000010: 0000 00c0 e5c2 0740 0000 0000 64b0 d3bf
00000020: 0000 0040 9bc2 cebf 0000 0000 9ae1 0740
00000030: 0000 0000 1261 d1bf 0000 0040 6b8b c2bf
00000040: 0000 0040 4ae3 0640 0000 00c0 6fee c5bf
00000050: 0000 0080 dbaf d13f 0000 00c0 ce4c 0b40
00000060: 0000 0060 7318 c4bf 0000 0080 c599 d03f
00000070: 0000 0080 31c3 0b40 0000 0040 fe43 cb3f
00000080: 0000 00c0 e746 ce3f 0000 00c0 842f 1040
00000090: 0000 0000 f63e c33f 0000 0080 bf0b cb3f
000000a0: 0000 0020 1cc3 1040 0000 0080 3570 c93f
000000b0: 0000 00c0 517c bcbf 0000 00e0 1244 1040
000000c0: 0000 0000 0ea4 afbf 0000 0040 841a c33f
000000d0: 0000 0060 9525 0b40 0000 0060 2f46 cbbf
000000e0: 0000 00c0 a736 ba3f 0000 0000 aaef 0b40
000000f0: 0000 0080 003a cf3f 0000 00c0 4eb7 b43f
00000100: 0000 0040 5b02 1040 0000 0000 3890 bb3f
00000110: 0000 0000 68d4 aa3f 0000 0060 5a7c 1040
00000120: 0000 0000 c882 7cbf 0000 00c0 a2f6 9fbf
00000130: 0000 0020 c93f 0a40 0000 0000 6bb0 ccbf
00000140: 0000 00c0 ba92 b6bf 0000 0080 211a 0b40
00000150: 0000 0080 363c c0bf 0000 0080 0e34 d03f
00000160: 0000 0080 27a8 0b40 0000 0080 ffb6 c7bf
00000170: 0000 0000 7c2c ce3f 0000 0080 722c 0c40
00000180: 0000 0000 8bcd cb3f 0000 00c0 04df c53f
00000190: 0000 00c0 9c6a 1040 0000 00e0 6713 c73f
000001a0: 0000 00c0 3fce c13f 0000 00a0 18c1 1040
000001b0: 0000 0000 15ac cbbf 0000 0080 5830 c1bf
000001c0: 0000 0040 b5d7 0840 0000 00e0 000a d53f
000001d0: 0000 0040 beea bcbf 0000 00a0 2b51 1140
000001e0: 0000 00c0 182f c5bf 0000 00a0 b9ad d0bf
000001f0: 0000 00e0 a0a3 0840 0000 0080 b740 d3bf
00000200: 0000 0060 f717 cfbf 0000 0060 d5e2 0840
00000210: 0000 0000 4239 cdbf 0000 00c0 3570 bfbf
00000220: 0000 0080 fd86 0740 0000 00e0 d24f d2bf
00000230: 0000 0060 6676 bebf 0000 0020 e6a1 0740
00000240: 0000 00a0 f562 d1bf 0000 0080 509d ccbf
00000250: 0000 00c0 34cc 0640 0000 0000 3b54 d03f
00000260: 0000 0000 042e b5bf 0000 00c0 15cb 1040
00000270: 0000 00a0 ceed d03f 0000 00e0 6add c7bf
00000280: 0000 00a0 7615 1540 0000 0080 4430 c33f
00000290: 0000 00a0 a702 c9bf 0000 0000 00d0 1440
000002a0: 0000 0000 6fe9 d23f 0000 0080 3d59 aebf
000002b0: 0000 0000 ad68 1440 0000 0020 cafd d63f
000002c0: 0000 00c0 86a5 d33f 0000 00a0 7e01 1740
000002d0: 0000 0040 e9d5 cf3f 0000 00c0 7983 cd3f
000002e0: 0000 0040 80dc 1640 0000 0060 9337 b5bf
000002f0: 0000 0040 c063 b13f 0000 00e0 1222 1940
00000300: 0000 00a0 03b5 cabf 0000 0040 aaca c53f
00000310: 0000 0040 e575 1840 0000 00c0 0702 d0bf
00000320: 0000 0040 f8df b1bf 0000 0060 0f52 1840
00000330: 0000 00e0 7a8c c63f 0000 0040 e29e bb3f
00000340: 0000 00c0 66f5 1640 0000 0000 e81f 82bf
00000350: 0000 00e0 7c15 ce3f 0000 00c0 be7b 1640
00000360: 0000 0080 0d30 b5bf 0000 0000 de39 8fbf
00000370: 0000 0060 9dc8 1840 0000 00e0 66c8 d1bf
00000380: 0000 0000 491e bc3f 0000 0060 d127 1840
00000390: 0000 0080 b6a9 bd3f 0000 0080 109f a7bf
000003a0: 0000 0040 df5f 1640 0000 00c0 b9ba babf
000003b0: 0000 0080 5546 b23f 0000 00c0 cde0 1540
000003c0: 0000 00c0 512d d33f 0000 0080 76be cc3f
000003d0: 0000 00c0 ae13 1740 0000 00e0 4058 c63f
000003e0: 0000 0000 2e92 d03f 0000 00c0 93e6 1640
000003f0: 0000 0000 0ac4 c3bf 0000 0000 9b2f 903f
00000400: 0000 0080 433f 1940 0000 0080 03d8 d1bf
00000410: 0000 00c0 d3dc b93f 0000 0080 a4b2 1840
00000420: 0000 0080 3bd9 c13f 0000 0000 ad46 b0bf
00000430: 0000 0020 a139 1540 0000 0000 4277 c6bf
00000440: 0000 0040 aec0 a2bf 0000 0060 8f18 1940
00000450: 0000 00e0 c63d cb3f 0000 0060 6038 cabf
00000460: 0000 0060 7c7c 1540 0000 0060 dd0d b83f
00000470: 0000 0040 27fe cabf 0000 0060 f136 1540
00000480: 0000 0020 a23e cf3f 0000 00e0 ed05 a2bf
00000490: 0000 0060 dcd7 1440 0000 0060 5010 ca3f
000004a0: 0000 00a0 76e5 a2bf 0000 00c0 e1bc 1440
000004b0: 0000 00a0 d480 d23f 0000 00a0 dfa0 c0bf
000004c0: 0000 0060 a355 1440 0000 0020 2b8e cfbf
000004d0: 0000 0080 b703 8fbf 0000 0080 32c9 1840
000004e0: 0000 0080 aaac ae3f 0000 0060 0494 c5bf
000004f0: 0000 00c0 d6b2 0440 0000 00c0 b0f8 a4bf
00000500: 0000 00c0 f61e c6bf 0000 0040 f66d 0440
00000510: 0000 0000 834b a23f 0000 0000 db80 afbf
00000520: 0000 00a0 2ac0 0340 0000 0080 fbdf 983f
00000530: 0000 0000 c58a d03f 0000 0060 5109 0840
00000540: 0000 0000 a6c4 c1bf 0000 00c0 43f1 d03f
00000550: 0000 00e0 68f4 0740 0000 0080 d63b 9c3f
00000560: 0000 0040 4ecb a43f 0000 0080 606c 0c40
00000570: 0000 0080 3a6f b9bf 0000 0040 cf70 ac3f
00000580: 0000 0040 98ec 0b40 0000 0080 6eb5 a8bf
00000590: 0000 0040 53b3 c6bf 0000 00c0 79d2 0b40
000005a0: 0000 00c0 64b7 943f 0000 00e0 1308 c13f
000005b0: 0000 00c0 8d02 0840 0000 0060 6c8f c5bf
000005c0: 0000 0080 3481 c23f 0000 00c0 ffe1 0740
000005d0: 0000 0000 8449 9f3f 0000 0040 fafc b3bf
000005e0: 0000 00c0 b3fd 0b40 0000 0000 7b2c bebf
000005f0: 0000 0080 c767 afbf 0000 0000 0cd3 0b40
00000600: 0000 0000 30ad 6f3f 0000 0040 3a06 87bf
00000610: 0000 0020 7a40 0740 0000 0080 3dcb c6bf
00000620: 0000 0000 6c58 82bf 0000 00c0 b914 0740
00000630: 0000 00c0 c7bf a13f 0000 00a0 b079 cd3f
00000640: 0000 0000 b055 0840 0000 0020 f59d c3bf
00000650: 0000 0020 b8da ce3f 0000 0060 8742 0840
00000660: 0000 0000 3a28 8a3f 0000 0000 5290 98bf
00000670: 0000 0080 fc93 0c40 0000 00c0 d1f8 b6bf
00000680: 0000 0000 4017 3ebf 0000 00c0 4b51 0c40
00000690: 0000 00c0 b053 a3bf 0000 0080 941e aabf
000006a0: 0000 0020 0a7e 0540 0000 0040 364c 9e3f
000006b0: 0000 0080 37d1 c9bf 0000 0060 c7f7 0c40
000006c0: 0000 00e0 f7c9 a73f 0000 00c0 6795 c4bf
000006d0: 0000 0000 df8f 0540 0000 0060 58a2 b6bf
000006e0: 0000 0040 6c37 c5bf 0000 00e0 c33a 0540
000006f0: 0000 0040 17dd a43f 0000 0080 9a5a a4bf
00000700: 0000 0000 636e 0440 0000 0000 2a93 94bf
00000710: 0000 0080 7728 a6bf 0000 0040 f745 0440
00000720: 0000 0020 8ecf a83f 0000 0020 53f7 c4bf
00000730: 0000 00c0 4192 0340 0000 0040 96df 9abf
00000740: 0000 0060 9dd6 c6bf 0000 00e0 7b9a 0c40
00000750: 0000 0020 b409 d53f 0000 0060 b742 d0bf
00000760: 0000 00c0 e763 1740 0000 00a0 0ace ce3f
00000770: 0000 00c0 8008 d3bf 0000 00a0 6836 1740
00000780: 0000 00c0 f514 d63f 0000 0080 3bac cbbf
00000790: 0000 0020 cdc2 1640 0000 00e0 84a2 c43f
000007a0: 0000 0000 670b d33f 0000 0040 ff96 1840
000007b0: 0000 0080 bebd bd3f 0000 0060 2844 d63f
000007c0: 0000 0020 50f3 1740 0000 00c0 872a b3bf
000007d0: 0000 00a0 de36 cd3f 0000 00e0 7cd3 1a40
000007e0: 0000 00e0 0bc1 d0bf 0000 0040 c8f4 cf3f
000007f0: 0000 0080 a4dd 1940 0000 0020 2d93 c0bf
-0.20404434204101562 -0.2545455992221832 2.9701647758483887 -0.30764102935791016 -0.24031391739845276 2.985157012939453 -0.27154970169067383 -0.14487972855567932
2.8609814643859863 -0.1713390052318573 0.2763584852218628 3.412503719329834 -0.15699617564678192 0.25938546657562256 3.470309257507324 0.2130124866962433
0.2365388572216034 4.046404838562012 0.1503589153289795 0.21129602193832397 4.190536975860596 0.19873684644699097 -0.11127196252346039 4.066478252410889
-0.06179851293563843 0.1492467224597931 3.3933513164520264 -0.21307937800884247 0.10239647328853607 3.492023468017578 0.24395757913589478 0.08092205226421356
4.002301216125488 0.10766935348510742 0.05240178108215332 4.121438503265381 -0.006960660219192505 -0.03121427819132805 3.2811453342437744 -0.22413384914398193
-0.0881764143705368 3.387759208679199 -0.12683755159378052 0.253177285194397 3.457106590270996 -0.18527215719223022 0.2357325553894043 3.521702766418457
0.21721017360687256 0.17086848616600037 4.104113578796387 0.1802797168493271 0.13910672068595886 4.188570499420166 -0.21618902683258057 -0.13428789377212524
3.1053261756896973 0.3287355601787567 -0.11295689642429352 4.329267978668213 -0.16549977660179138 -0.2606033384799957 3.0798966884613037 -0.30082499980926514
-0.24291889369487762 3.1107585430145264 -0.22830986976623535 -0.12280593812465668 2.940913200378418 -0.28612205386161804 -0.11899413913488388 2.954052209854126
-0.2716650068759918 -0.22355085611343384 2.849709987640381 0.255141019821167 -0.0827333927154541 4.198325157165527 0.26451459527015686 -0.18644462525844574
5.270960330963135 0.14991050958633423 -0.19539351761341095 5.203125 0.2954976558685303 -0.05927459895610809 5.102222442626953 0.3592400848865509
0.30697792768478394 5.75145959854126 0.24871554970741272 0.2305748164653778 5.715332984924316 -0.08287926763296127 0.06792832911014557 6.283275127410889
-0.20864911377429962 0.17024734616279602 6.1151323318481445 -0.25012391805648804 -0.06982375681400299 6.080136775970459 0.17616210877895355 0.10789312422275543
5.739649772644043 -0.008849918842315674 0.23503075540065765 5.620844841003418 -0.08276447653770447 -0.01524709165096283 6.195912837982178 -0.2778565585613251
0.1098371148109436 6.03888463973999 0.11587086319923401 -0.04613544046878815 5.593625068664551 -0.10441170632839203 0.0713857114315033 5.469534873962402
0.29964107275009155 0.22456246614456177 5.769221305847168 0.1745682805776596 0.25892210006713867 5.725172996520996 -0.1544201374053955 0.01580660045146942
6.31178092956543 -0.27880942821502686 0.10102580487728119 6.174455642700195 0.13944190740585327 -0.06357842683792114 5.306278705596924 -0.17551445960998535
-0.036626286804676056 6.273984432220459 0.2128227800130844 -0.20484547317028046 5.371568202972412 0.09396155923604965 -0.21088114380836487 5.30365514755249
0.24409891664981842 -0.03520148620009422 5.210801601409912 0.20362286269664764 -0.03690691664814949 5.184454917907715 0.28911319375038147 -0.1299094706773758
5.0836310386657715 -0.24652613699436188 -0.015143807977437973 6.196481704711914 0.0599110871553421 -0.16857962310314178 2.5873236656188965 -0.040959857404232025
-0.17281994223594666 2.55369234085083 0.03573235869407654 -0.061529964208602905 2.4688313007354736 0.024291925132274628 0.258469820022583 3.004549741744995
-0.13881373405456543 0.26472562551498413 2.994340658187866 0.027572013437747955 0.04061359912157059 3.5529184341430664 -0.09935346245765686 0.05554816871881485
3.4905247688293457 -0.04825921356678009 -0.1773475706577301 3.477771282196045 0.020230840891599655 0.13305900990962982 3.001246929168701 -0.16843943297863007
0.14456802606582642 2.985351085662842 0.030553877353668213 -0.07807888090610504 3.498878002166748 -0.11786621809005737 -0.061338648200035095 3.4780502319335938
0.0038667619228363037 -0.011242346838116646 2.9064829349517822 -0.17807739973068237 -0.008957713842391968 2.885119915008545 0.03466629236936569 0.2302761822938919
3.041839599609375 -0.15325798094272614 0.24104978144168854 3.032484769821167 0.012772038578987122 -0.023988038301467896 3.572258949279785 -0.08973418176174164
-0.00045914947986602783 3.5396952629089355 -0.037747882306575775 -0.05101455748081207 2.6865427494049072 0.029587600380182266 -0.20169728994369507 3.620985746383667
0.0464627705514431 -0.1608094871044159 2.695249557495117 -0.08841469138860703 -0.16575387120246887 2.653693914413452 0.040749289095401764 -0.0397537499666214
2.5538997650146484 -0.020092636346817017 -0.04327748715877533 2.534162998199463 0.0484585203230381 -0.1637977510690689 2.4464144706726074 -0.02624354138970375
-0.17842452228069305 3.5754315853118896 0.32871726155281067 -0.25407204031944275 5.847563743591309 0.24066288769245148 -0.2973939776420593 5.803133487701416
0.3450292944908142 -0.21619361639022827 5.690235614776611 0.16120968759059906 0.29757094383239746 6.147458076477051 0.11617651581764221 0.3479100167751312
5.987610340118408 -0.07486771047115326 0.22823698818683624 6.706531047821045 -0.26178261637687683 0.24965766072273254 6.466447830200195 -0.12949146330356598
