demo_out/run3/epoch1/params.npz (npz, 11215 bytes, 4 tensors)

pose f8 [5, 105]
00000000: 0000 0080 e709 ee3f 0000 0080 18b6 fa3f
00000010: 0000 00a0 0a4f f6bf 0000 0040 dd21 953f
00000020: 0000 0000 10e1 3e3f 0000 0060 7483 c33f
00000030: 0000 0000 2503 993f 0000 0080 5ff9 a0bf
00000040: 0000 00e0 ab82 c9bf 0000 00a0 3ad3 b8bf
00000050: 0000 0020 dea6 c4bf 0000 00e0 0964 a4bf
00000060: 0000 0000 aaf6 b4bf 0000 00e0 bb6c d03f
00000070: 0000 0000 8d9b 9b3f 0000 0000 2ade 8abf
00000080: 0000 00c0 7707 a33f 0000 0000 8159 8abf
00000090: 0000 0080 cc3f aa3f 0000 0020 05c3 b83f
000000a0: 0000 00a0 b617 a33f 0000 00c0 5d3f e2bf
000000b0: 0000 0040 30eb c3bf 0000 0040 8998 91bf
000000c0: 0000 0020 d393 e23f 0000 0080 563d c43f
000000d0: 0000 00e0 8ce6 da3f 0000 0080 60c9 cdbf
000000e0: 0000 0080 d034 debf 0000 0000 5f6c cfbf
000000f0: 0000 0080 3281 e33f 0000 00c0 2d20 cdbf
00000100: 0000 0080 c75c ccbf 0000 0020 982e d73f
00000110: 0000 00c0 2a06 c03f 0000 0040 1286 833f
00000120: 0000 00c0 8057 dabf 0000 0020 dd10 af3f
00000130: 0000 0000 de32 6c3f 0000 0020 c58b b8bf
00000140: 0000 00c0 9e7f e6bf 0000 0020 798f e53f
00000150: 0000 0060 757f eabf 0000 0060 d792 e8bf
00000160: 0000 0080 4670 cf3f 0000 0080 ab71 c13f
00000170: 0000 0000 1a42 d9bf 0000 0080 3518 ab3f
00000180: 0000 0040 aceb ce3f 0000 00c0 65dc dcbf
00000190: 0000 0040 52c3 d33f 0000 0080 7b99 a0bf
000001a0: 0000 0000 8184 a23f 0000 00e0 00bf d2bf
000001b0: 0000 0000 941f c8bf 0000 0000 6588 d13f
000001c0: 0000 00c0 e111 ce3f 0000 0080 2ccf cf3f
000001d0: 0000 0000 c7dc e5bf 0000 0020 cd10 c13f
000001e0: 0000 0060 2fd4 ae3f 0000 0060 7c9f e9bf
000001f0: 0000 0060 58b5 c23f 0000 0080 c59e c13f
00000200: 0000 00a0 d187 e13f 0000 0080 c917 ce3f
00000210: 0000 0080 8dda a1bf 0000 00c0 08d6 b0bf
00000220: 0000 00c0 1602 bfbf 0000 0020 bc2b cabf
00000230: 0000 0040 56a4 c0bf 0000 0040 7ab4 cebf
00000240: 0000 0000 a44c d2bf 0000 0000 de82 f2bf
00000250: 0000 00a0 8ccb babf 0000 00e0 1e57 c7bf
00000260: 0000 0000 7fe8 c9bf 0000 0080 2345 b33f
00000270: 0000 0080 2b32 cbbf 0000 00e0 0ec2 cd3f
00000280: 0000 0000 0cb5 803f 0000 0080 c065 9b3f
00000290: 0000 0040 d872 adbf 0000 0080 5195 9bbf
000002a0: 0000 00a0 cf4c 7ebf 0000 0080 ccd2 b7bf
000002b0: 0000 0060 67af b83f 0000 0000 91d8 733f
000002c0: 0000 0040 50d8 bf3f 0000 0060 ee75 b73f
000002d0: 0000 0080 4231 d1bf 0000 0000 298c 8a3f
000002e0: 0000 00e0 4ff6 86bf 0000 00c0 2e7d cebf
000002f0: 0000 00e0 eb0a c2bf 0000 0080 cbd2 913f
00000300: 0000 00a0 9132 bfbf 0000 0040 2eaa 9a3f
00000310: 0000 00a0 f704 ab3f 0000 00a0 1642 f1bf
00000320: 0000 00e0 5688 f03f 0000 0040 ad00 e8bf
00000330: 0000 0000 dc33 df3f 0000 00c0 6ce0 f73f
00000340: 0000 00c0 6afd f73f 0000 0040 f9f6 fa3f
00000350: 0000 0000 c2e6 e03f 0000 00a0 e649 efbf
00000360: 0000 0000 a067 ba3f 0000 00e0 7be7 c03f
00000370: 0000 0000 3f03 d1bf 0000 0000 208f c9bf
00000380: 0000 00c0 e44b a53f 0000 00c0 45b1 cc3f
00000390: 0000 00c0 c62b c23f 0000 0080 4f82 c4bf
000003a0: 0000 0020 94bb c53f 0000 0040 ba50 c43f
000003b0: 0000 00c0 6062 c93f 0000 0000 0196 c9bf
000003c0: 0000 0000 5e01 8ebf 0000 0040 d765 a6bf
000003d0: 0000 0000 8efa 95bf 0000 0040 ffe7 96bf
000003e0: 0000 0020 fadf bb3f 0000 0080 e33c bbbf
000003f0: 0000 0040 9542 cbbf 0000 0040 5dc1 c93f
00000400: 0000 0080 84bb a6bf 0000 00e0 75e9 e53f
00000410: 0000 00c0 e02d ddbf 0000 0000 093d d03f
00000420: 0000 0020 b99e bbbf 0000 00e0 e9e4 ccbf
00000430: 0000 00e0 fad7 d3bf 0000 00a0 4996 da3f
00000440: 0000 0040 7c94 d13f 0000 00a0 0ad3 ccbf
00000450: 0000 00c0 557c e23f 0000 00a0 cdd9 ccbf
00000460: 0000 00c0 7f5f cabf 0000 0000 a0db 613f
00000470: 0000 00a0 c3e0 d03f 0000 0000 30d0 b0bf
00000480: 0000 0080 2710 c63f 0000 0060 9c21 d03f
00000490: 0000 0060 b8ff e73f 0000 0020 4641 e6bf
000004a0: 0000 0000 5fa9 d7bf 0000 0000 6613 ce3f
000004b0: 0000 0040 ef9d dabf 0000 00a0 2311 d0bf
000004c0: 0000 0020 822a d13f 0000 0020 2bb7 d0bf
000004d0: 0000 00c0 0257 e1bf 0000 0040 f6cb acbf
000004e0: 0000 0000 748e d33f 0000 0040 197e d83f
000004f0: 0000 00e0 1c25 cebf 0000 0080 222e a3bf
00000500: 0000 00c0 45f9 d93f 0000 0000 8f60 88bf
00000510: 0000 0020 ad09 c33f 0000 0040 f9f5 e2bf
00000520: 0000 0020 31ce bd3f 0000 0060 cd34 833f
00000530: 0000 0000 5ef0 e3bf 0000 0040 58f5 b2bf
00000540: 0000 0000 3b14 b23f 0000 0000 795e 9cbf
00000550: 0000 0040 59c4 c43f 0000 0000 df73 dc3f
00000560: 0000 00c0 09c1 e23f 0000 00a0 71b5 c3bf
00000570: 0000 0000 ea9c c7bf 0000 0040 6e91 edbf
00000580: 0000 0080 6b86 a7bf 0000 0040 6ee3 b8bf
00000590: 0000 00c0 b1dd d5bf 0000 0080 4b4c 9dbf
000005a0: 0000 0000 2b05 c6bf 0000 0080 a258 e2bf
000005b0: 0000 00c0 0330 c5bf 0000 00a0 eb0e d33f
000005c0: 0000 0040 606d be3f 0000 0080 9059 e2bf
000005d0: 0000 0020 b344 cb3f 0000 0040 d0e1 afbf
000005e0: 0000 0080 e5d9 ac3f 0000 0000 dc53 a6bf
000005f0: 0000 0000 9176 d1bf 0000 00e0 4ef9 bebf
00000600: 0000 0060 b086 a83f 0000 00c0 8d26 c83f
00000610: 0000 00e0 64b8 d5bf 0000 0060 9e8d c3bf
00000620: 0000 0000 12ce 9dbf 0000 00c0 1144 c63f
00000630: 0000 00c0 0250 9bbf 0000 0020 90d5 e4bf
00000640: 0000 0040 9dd5 dbbf 0000 0000 5f5c c1bf
00000650: 0000 00e0 2a3d c6bf 0000 00a0 2b24 b3bf
00000660: 0000 0060 c408 fabf 0000 00a0 21a6 f23f
00000670: 0000 0000 f739 e9bf 0000 0040 908e e13f
00000680: 0000 0060 db23 fe3f 0000 00c0 f2bd f03f
00000690: 0000 00e0 0fdf f63f 0000 00e0 7879 f23f
000006a0: 0000 0060 c7c4 f2bf 0000 00a0 015d abbf
000006b0: 0000 00c0 f4ca b63f 0000 0080 fad9 ccbf
000006c0: 0000 0060 499a b3bf 0000 0060 cac0 743f
000006d0: 0000 0080 7e0d b23f 0000 0040 4059 b73f
000006e0: 0000 0080 535a c7bf 0000 00e0 9bb5 9c3f
000006f0: 0000 0080 3aa6 b23f 0000 0080 dcbe c33f
00000700: 0000 0080 6baf 8b3f 0000 0000 49ce 923f
00000710: 0000 0000 7cf7 87bf 0000 0000 e8ed 6f3f
00000720: 0000 0060 7aae c0bf 0000 00c0 4702 c53f
00000730: 0000 0060 62d7 a43f 0000 0040 ea38 d1bf
00000740: 0000 0080 f7d8 ba3f 0000 0080 d859 ce3f
00000750: 0000 00e0 51e1 dc3f 0000 0080 8643 93bf
00000760: 0000 00a0 858b d03f 0000 00c0 0d55 c8bf
00000770: 0000 0060 04fe e3bf 0000 0020 6a52 dfbf
00000780: 0000 00a0 58c4 e13f 0000 0000 a1b6 cbbf
00000790: 0000 0080 aad9 d3bf 0000 0040 cde5 d73f
000007a0: 0000 00c0 9aaf ab3f 0000 0080 e1e9 cabf
000007b0: 0000 0080 3b89 dfbf 0000 0060 0e02 c03f
000007c0: 0000 0000 786c d4bf 0000 0020 7024 d63f
000007d0: 0000 0080 e2d8 e6bf 0000 0020 80b8 d73f
000007e0: 0000 00c0 1df2 e2bf 0000 00e0 9aaf c2bf
000007f0: 0000 00c0 c6f6 d33f 0000 00a0 d584 b8bf
0.938709020614624 1.669456958770752 -1.3942972421646118 0.020636994391679764 0.00047117844223976135 0.15244917571544647 0.024426057934761047 -0.033152565360069275
-0.19930027425289154 -0.09697309881448746 -0.16134239733219147 -0.03982573375105858 -0.08188879489898682 0.2566365897655487 0.026960566639900208 -0.013119056820869446
0.037166349589824677 -0.012866027653217316 0.051267996430397034 0.09672576934099197 0.0372902937233448 -0.5702351331710815 -0.15561488270759583 -0.017183441668748856
0.5805450081825256 0.15812188386917114 0.42032167315483093 -0.23270803689956665 -0.4719735383987427 -0.24549472332000732 0.6095211505889893 -0.22754451632499695
-0.22158139944076538 0.3622188866138458 0.1251882016658783 0.009533064439892769 -0.4115907549858093 0.06067553535103798 0.0034422241151332855 -0.09588272124528885
-0.7030786275863647 0.6737638115882874 -0.8280588984489441 -0.767924964427948 0.24561387300491333 0.13628143072128296 -0.39465951919555664 0.05291907489299774
0.24156716465950012 -0.4509519934654236 0.3087964653968811 -0.03242097795009613 0.03616717457771301 -0.2929079234600067 -0.18846368789672852 0.27394986152648926
0.2349207103252411 0.24850994348526 -0.6832003593444824 0.1333252340555191 0.06021259352564812 -0.8007184863090515 0.14615921676158905 0.13765782117843628
0.5478294491767883 0.23510092496871948 -0.03487055003643036 -0.06576590240001678 -0.12112562358379364 -0.20445968210697174 -0.13001516461372375 -0.23988273739814758
-0.28592777252197266 -1.1569499969482422 -0.10466841608285904 -0.18234620988368988 -0.20240771770477295 0.07527372241020203 -0.21246856451034546 0.23248468339443207
0.008157819509506226 0.02675534039735794 -0.05751682072877884 -0.026936791837215424 -0.007397471461445093 -0.09306028485298157 0.09642644971609116 0.004845205694437027
0.12439443171024323 0.09164323657751083 -0.26863157749176025 0.012962646782398224 -0.011211990378797054 -0.2381952702999115 -0.1409582942724228 0.017405681312084198
-0.12186536937952042 0.026039812713861465 0.05277227237820625 -1.0786348581314087 1.0332859754562378 -0.7500826120376587 0.48754024505615234 1.4922912120819092
1.4993693828582764 1.6852962970733643 0.5281686782836914 -0.9777711033821106 0.10314369201660156 0.1320643275976181 -0.2658231258392334 -0.19968032836914062
0.041594646871089935 0.22415992617607117 0.14196094870567322 -0.1602267622947693 0.1697869449853897 0.15871360898017883 0.19831475615501404 -0.19989025592803955
-0.014651045203208923 -0.0437457337975502 -0.021463602781295776 -0.022369373589754105 0.10888636857271194 -0.1063978374004364 -0.21296945214271545 0.2012135088443756
-0.04439939558506012 0.6847485899925232 -0.4559251666069031 0.2537252902984619 -0.10789067298173904 -0.2257358878850937 -0.3100573718547821 0.41542282700538635
0.27468782663345337 -0.22519047558307648 0.5776776075363159 -0.22539682686328888 -0.2060393989086151 0.0021799206733703613 0.26371851563453674 -0.06567668914794922
0.17236799001693726 0.252051442861557 0.7499658465385437 -0.695468008518219 -0.36971259117126465 0.23496699333190918 -0.41588956117630005 -0.2510460913181305
0.2682195007801056 -0.26117971539497375 -0.5418714284896851 -0.05624360591173172 0.3055696487426758 0.3826964497566223 -0.23550759255886078 -0.037461355328559875
0.40583938360214233 -0.01190292090177536 0.14873279631137848 -0.5925260782241821 0.11642748862504959 0.009378056041896343 -0.6230916976928711 -0.07405616343021393
0.07062119245529175 -0.027704134583473206 0.1622420847415924 0.44457221031188965 0.5860642194747925 -0.1539747267961502 -0.18447613716125488 -0.9240027666091919
-0.04594741761684418 -0.09722031652927399 -0.3416561484336853 -0.028611354529857635 -0.17203271389007568 -0.573319673538208 -0.16552779078483582 0.2977856695652008
0.11885644495487213 -0.5734331607818604 0.21303404867649078 -0.06226969510316849 0.056349918246269226 -0.04360854625701904 -0.2728617191314697 -0.12099163979291916
0.04790259525179863 0.18867656588554382 -0.33937951922416687 -0.1527593582868576 -0.02910640835762024 0.17395231127738953 -0.026672404259443283 -0.651069700717926
-0.4349129796028137 -0.13563144207000732 -0.1737416833639145 -0.07477066665887833 -1.6271404027938843 1.1655594110488892 -0.7883257865905762 0.5486527681350708
1.8837541341781616 1.0463740825653076 1.429458498954773 1.1546562910079956 -1.1730417013168335 -0.05344395712018013 0.08903436362743378 -0.22540217638015747
-0.0765729770064354 0.005066671874374151 0.07051840424537659 0.09120561182498932 -0.1824440360069275 0.028036532923579216 0.07284894585609436 0.15426212549209595
0.013518180698156357 0.0183650404214859 -0.011702507734298706 0.003897622227668762 -0.13032464683055878 0.16413208842277527 0.04070575162768364 -0.26909881830215454
0.10487315058708191 0.23711687326431274 0.45125243067741394 -0.018812276422977448 0.25851574540138245 -0.19009563326835632 -0.6247579455375671 -0.48940518498420715
0.5552180409431458 -0.21651089191436768 -0.3101602792739868 0.3734009861946106 0.054074130952358246 -0.2102624773979187 -0.49275100231170654 0.1250627487897873
-0.3191204071044922 0.34597399830818176 -0.713975191116333 0.3706360161304474 -0.5920552015304565 -0.14598403871059418 0.31193703413009644 -0.09577689319849014

betas f8 [5, 41]
00000000: 0000 0020 bbdc c2bf 0000 00e0 8204 dc3f
00000010: 0000 00a0 a95c 863f 0000 00e0 f823 f1bf
00000020: 0000 0020 f851 e7bf 0000 0000 2bcc cf3f
00000030: 0000 00a0 cd20 f0bf 0000 0020 2701 f03f
00000040: 0000 00a0 c0bd 933f 0000 0000 9a1c f33f
00000050: 0000 0040 78c9 fc3f 0000 0060 3bf4 00c0
00000060: 0000 0020 3a5d 0240 0000 0040 efa9 d2bf
00000070: 0000 0000 c312 fdbf 0000 00a0 f4a2 d23f
00000080: 0000 00e0 911a 01c0 0000 00a0 a6b3 0ac0
00000090: 0000 0080 139a e53f 0000 0000 5404 f63f
000000a0: 0000 0040 9e27 e2bf 0000 0000 572f dfbf
000000b0: 0000 00a0 701f ecbf 0000 0080 4f40 e8bf
000000c0: 0000 00a0 4367 eabf 0000 00e0 6880 d7bf
000000d0: 0000 0080 d925 4a3f 0000 0000 8c5b 4b3f
000000e0: 0000 0040 5b72 5cbf 0000 0020 0ca3 53bf
000000f0: 0000 0040 9b2b 3c3f 0000 0000 be65 61bf
00000100: 0000 0020 96dd 60bf 0000 0000 e4b5 5abf
00000110: 0000 00a0 d981 5cbf 0000 0000 6b68 503f
00000120: 0000 00c0 d5e2 37bf 0000 00a0 a1fe 643f
00000130: 0000 0000 06ff 653f 0000 00c0 ad38 1b3f
00000140: 0000 00a0 8b3b 53bf 0000 0040 f271 dabf
00000150: 0000 0020 7886 e83f 0000 00a0 1a20 eebf
00000160: 0000 0000 3dc4 e43f 0000 0020 59e6 cd3f
00000170: 0000 00e0 018a 0ac0 0000 00e0 9f44 f73f
00000180: 0000 0060 6841 e2bf 0000 00a0 bfd9 04c0
00000190: 0000 00e0 fa44 e13f 0000 0000 6788 e83f
000001a0: 0000 0020 35f3 f4bf 0000 00c0 7e9c 1140
000001b0: 0000 0080 50cf e63f 0000 0060 f9ab ffbf
000001c0: 0000 00c0 2615 e8bf 0000 00a0 4d26 00c0
000001d0: 0000 00c0 5c66 17c0 0000 0000 92f6 e03f
000001e0: 0000 0000 4643 e53f 0000 00a0 7180 e0bf
000001f0: 0000 00e0 441c dabf 0000 0020 a2c5 e9bf
00000200: 0000 00e0 b760 e8bf 0000 0020 6dc8 eabf
00000210: 0000 00e0 a89e dfbf 0000 0040 ac5c 493f
00000220: 0000 0020 c92e 543f 0000 0000 5990 60bf
00000230: 0000 00a0 ca99 41bf 0000 0080 1b77 333f
00000240: 0000 0080 5d1c 60bf 0000 0060 060d 62bf
00000250: 0000 0000 fe43 66bf 0000 00a0 90c8 60bf
00000260: 0000 00a0 e530 543f 0000 0000 1f79 39bf
00000270: 0000 0060 7fd2 683f 0000 00c0 30d9 643f
00000280: 0000 00c0 69f7 3f3f 0000 0040 bbae 5abf
00000290: 0000 00e0 71f9 f0bf 0000 0060 1e67 e33f
000002a0: 0000 0080 88ff f03f 0000 00e0 87da f2bf
000002b0: 0000 0000 0093 d53f 0000 00c0 a4d5 f9bf
000002c0: 0000 0020 832a d5bf 0000 0040 3e98 ff3f
000002d0: 0000 0000 44ea dbbf 0000 0020 59fe d7bf
000002e0: 0000 0040 9cb5 f83f 0000 0040 e51c f0bf
000002f0: 0000 0000 13cd f33f 0000 0000 1a4a db3f
00000300: 0000 0000 4bf3 ebbf 0000 00e0 1528 f0bf
00000310: 0000 00a0 4d3b 07c0 0000 0020 6547 09c0
00000320: 0000 0000 d97f e43f 0000 0000 4fa2 f03f
00000330: 0000 00e0 5ee6 e3bf 0000 0020 4dd7 dfbf
00000340: 0000 0040 b6be ecbf 0000 0020 4da4 e9bf
00000350: 0000 00a0 ecd7 eabf 0000 00a0 6ef1 d7bf
00000360: 0000 0020 5fa5 4a3f 0000 0000 d30c 523f
00000370: 0000 0000 41a3 5abf 0000 00e0 083e 4bbf
00000380: 0000 00c0 a61f 3b3f 0000 0000 42fe 61bf
00000390: 0000 0020 9fbc 60bf 0000 0000 61f4 5fbf
000003a0: 0000 0060 dfed 5bbf 0000 00e0 edb2 563f
000003b0: 0000 0040 7795 2ebf 0000 0060 09f7 633f
000003c0: 0000 0080 fec2 663f 0000 00e0 22eb 2f3f
000003d0: 0000 00e0 b9e7 55bf 0000 00c0 8cb6 e4bf
000003e0: 0000 0080 1255 c6bf 0000 0040 2f08 eabf
000003f0: 0000 0040 cc53 ea3f 0000 0060 5503 c9bf
00000400: 0000 00c0 ca83 ecbf 0000 0040 7356 a23f
00000410: 0000 0080 192f c83f 0000 0080 0714 f8bf
00000420: 0000 00c0 c690 f63f 0000 0040 c402 f13f
00000430: 0000 0060 dd57 f4bf 0000 0020 17f9 0240
00000440: 0000 00a0 6f6d e33f 0000 0060 1627 03c0
00000450: 0000 0040 0186 983f 0000 00e0 4eb0 ffbf
00000460: 0000 0020 e0ed 10c0 0000 0020 1ff1 d33f
00000470: 0000 0000 503d f33f 0000 0020 7d2d dfbf
00000480: 0000 0000 753a d9bf 0000 00e0 0967 eabf
00000490: 0000 00a0 e2a6 e8bf 0000 00a0 f04a ebbf
000004a0: 0000 0060 de74 dcbf 0000 0040 b52b 4f3f
000004b0: 0000 0060 109f 553f 0000 00c0 b41e 5dbf
000004c0: 0000 0000 3512 44bf 0000 0000 ba4c f03e
000004d0: 0000 00e0 9866 61bf 0000 00a0 d279 5ebf
000004e0: 0000 00c0 0032 61bf 0000 0040 3e28 62bf
000004f0: 0000 0060 e537 573f 0000 00c0 532b 2cbf
00000500: 0000 0020 35ea 693f 0000 0020 1114 663f
00000510: 0000 0080 c01c 373f 0000 0000 3675 54bf
00000520: 0000 00e0 9e96 e2bf 0000 00c0 6fde de3f
00000530: 0000 0080 025c e23f 0000 00c0 8f69 dfbf
00000540: 0000 00e0 c551 c63f 0000 00c0 85ab f7bf
00000550: 0000 00e0 c158 c4bf 0000 0020 d0c4 fe3f
00000560: 0000 0080 9ed8 f2bf 0000 0040 5f88 d23f
00000570: 0000 00a0 9287 f73f 0000 00a0 c168 ffbf
00000580: 0000 0000 3f0f ef3f 0000 0080 9041 ef3f
00000590: 0000 0000 5ad0 f2bf 0000 0080 a196 ebbf
000005a0: 0000 00c0 d123 0bc0 0000 00a0 287b 08c0
000005b0: 0000 00a0 a8cf d83f 0000 00c0 5196 f43f
000005c0: 0000 0040 2f09 e3bf 0000 0020 abfd dfbf
000005d0: 0000 00a0 ddfb ecbf 0000 0080 f6ab e8bf
000005e0: 0000 00e0 fd52 eabf 0000 00e0 a8c5 d6bf
000005f0: 0000 0060 2000 523f 0000 0080 c934 503f
00000600: 0000 0000 1f7b 5cbf 0000 0020 caae 4bbf
00000610: 0000 00e0 632b 4d3f 0000 00a0 268b 62bf
00000620: 0000 0040 c260 62bf 0000 0040 9839 57bf
00000630: 0000 0080 64d0 59bf 0000 0020 7198 553f
00000640: 0000 00c0 62ab 3dbf 0000 00e0 6c5b 633f
00000650: 0000 0060 6885 653f 0000 00c0 0008 383f
00000660: 0000 0020 76b6 57bf
-0.1473611742258072 0.4377753436565399 0.010918927378952503 -1.0712822675704956 -0.7287560105323792 0.24841821193695068 -1.008008599281311 1.0002814531326294
0.01927853561937809 1.1944828033447266 1.7991869449615479 -2.1192538738250732 2.2955210208892822 -0.29162198305130005 -1.8170804977416992 0.2911960184574127
-2.1379735469818115 -3.3377201557159424 0.675058126449585 1.3760566711425781 -0.5673362016677856 -0.48726439476013184 -0.8788378834724426 -0.7578504085540771
-0.8251054883003235 -0.3672125041484833 0.0007979690562933683 0.0008348878473043442 -0.0017362490762025118 -0.001198541489429772 0.00042984524043276906 -0.0021237097680568695
-0.002058785641565919 -0.0016302801668643951 -0.0017399430507794023 0.0010014576837420464 -0.0003644725657068193 0.002562823938205838 0.0026850812137126923 0.00010384140477981418
-0.0011738647008314729 -0.41320472955703735 0.7664147019386292 -0.9414189457893372 0.6489548683166504 0.2335921674966812 -3.3173863887786865 1.4542540311813354
-0.5704843401908875 -2.6063225269317627 0.5396704077720642 0.7666506767272949 -1.309376835823059 4.402827262878418 0.7128069400787354 -1.9794858694076538
-0.7525819540023804 -2.018702745437622 -5.849963188171387 0.5300989151000977 0.6644620895385742 -0.5156791806221008 -0.4079754054546356 -0.8053751587867737
-0.7618064284324646 -0.8369660973548889 -0.4940588176250458 0.0007739869179204106 0.0012318576918914914 -0.0020219553261995316 -0.0005371322040446103 0.00029701634775847197
-0.0019666505977511406 -0.002203476382419467 -0.002717968076467514 -0.0020487618166953325 0.001232361071743071 -0.00038868910633027554 0.0030300605576485395 0.002544970717281103
0.0004877694300375879 -0.0016285732854157686 -1.0608996152877808 0.6063377261161804 1.0623860359191895 -1.1783522367477417 0.33709716796875 -1.614659070968628
-0.3307197391986847 1.9746687412261963 -0.4361734390258789 -0.3748991787433624 1.5443384647369385 -1.0070545673370361 1.2375669479370117 0.42639780044555664
-0.8734488487243652 -1.0097864866256714 -2.903956651687622 -3.159860849380493 0.6406064033508301 1.039626121520996 -0.6218714118003845 -0.4975159466266632
-0.8982802629470825 -0.8013063073158264 -0.8388579487800598 -0.3741108477115631 0.0008131708600558341 0.0011016903445124626 -0.0016258368268609047 -0.0008313697180710733
0.0004138738731853664 -0.002196434885263443 -0.002043066779151559 -0.001950354315340519 -0.001704662456177175 0.0013854334829375148 -0.00023333626450039446 0.002437132177874446
0.0027785273268818855 0.0002435188362142071 -0.0013369860826060176 -0.6472839117050171 -0.1744711995124817 -0.8134990930557251 0.822729229927063 -0.1954142302274704
-0.8910878896713257 0.03581581264734268 0.18893736600875854 -1.504889965057373 1.4103457927703857 1.0631754398345947 -1.2714513540267944 2.371626138687134
0.6071088910102844 -2.394085645675659 0.023948688060045242 -1.9805439710617065 -4.232300281524658 0.31159189343452454 1.2024688720703125 -0.4871514141559601
-0.3941929340362549 -0.8250779509544373 -0.7703717350959778 -0.8528979420661926 -0.4446330964565277 0.0009512553224340081 0.0013196620857343078 -0.0017773404251784086
-0.0006125220097601414 1.5544617781415582e-05 -0.0021241174545139074 -0.0018600994953885674 -0.002099038567394018 -0.0022164550609886646 0.0014171352377161384 -0.0002149142965208739
0.003163436660543084 0.002695115515962243 0.0003526658983901143 -0.001248648390173912 -0.5808863043785095 0.4823264479637146 0.5737316608428955 -0.49081796407699585
0.17437051236629486 -1.4793756008148193 -0.15895865857601166 1.923050045967102 -1.1778855323791504 0.2895734906196594 1.470598816871643 -1.9630752801895142
0.9706110954284668 0.9767534732818604 -1.1758670806884766 -0.8621375560760498 -3.3924899101257324 -3.060136079788208 0.387674480676651 1.2866990566253662
-0.5948711633682251 -0.49985769391059875 -0.9057453274726868 -0.7709915637969971 -0.8226308226585388 -0.3558141887187958 0.0010986629640683532 0.0009891479276120663
-0.0017383387312293053 -0.000844811147544533 0.0008901822729967535 -0.0022636179346591234 -0.002243403811007738 -0.0014175402466207743 -0.0015755635686218739 0.0013180832611396909
-0.0004527202690951526 0.002362930914387107 0.0026270903181284666 0.00036668794928118587 -0.0014473107876256108

camera f8 [5, 3]
00000000: 0000 0040 e5f6 0bc0 0000 0000 0000 5c40
00000010: 0000 0000 0000 5c40 0000 00c0 864f 0cc0
00000020: 0000 0000 0000 5c40 0000 0000 0000 5c40
00000030: 0000 0080 99bd 0ac0 0000 0000 0000 5c40
00000040: 0000 0000 0000 5c40 0000 0040 d058 0bc0
00000050: 0000 0000 0000 5c40 0000 0000 0000 5c40
00000060: 0000 0020 087f 0bc0 0000 0000 0000 5c40
00000070: 0000 0000 0000 5c40
-3.4955544471740723 112.0 112.0 -3.5388312339782715 112.0 112.0 -3.3425779342651367 112.0
112.0 -3.418365955352783 112.0 112.0 -3.4370272159576416 112.0 112.0

joints3d f8 [5, 26, 3]
00000000: 0000 0040 7161 cebf 0000 0000 4066 d0bf
00000010: 0000 0000 02ed 0940 0000 0040 13f3 d5bf
00000020: 0000 00e0 59e1 cfbf 0000 0000 fa02 0a40
00000030: 0000 0000 2ff0 d2bf 0000 00e0 ac70 c4bf
00000040: 0000 0080 be15 0940 0000 0000 0af1 c8bf
00000050: 0000 0060 35ef d13f 0000 00c0 dae0 0c40
00000060: 0000 00c0 630b c9bf 0000 0000 75fb cd3f
00000070: 0000 0000 fc9d 0d40 0000 0060 5bcf cc3f
00000080: 0000 00c0 4ef3 c63f 0000 0020 6838 1140
00000090: 0000 0000 e1c2 c43f 0000 0020 b757 c43f
000000a0: 0000 0080 5deb 1140 0000 0080 51de cb3f
000000b0: 0000 0080 7bed c1bf 0000 0040 f852 1140
000000c0: 0000 0000 037e b9bf 0000 0000 d81e c13f
000000d0: 0000 0080 22f0 0c40 0000 00e0 4e90 d0bf
000000e0: 0000 0080 2047 b73f 0000 00c0 5edc 0d40
000000f0: 0000 00c0 4180 d03f 0000 0000 240d ad3f
00000100: 0000 00a0 dc02 1140 0000 0000 ed39 bd3f
00000110: 0000 0000 3600 9a3f 0000 0020 cd94 1140
00000120: 0000 00c0 b809 b0bf 0000 00c0 f33f a7bf
00000130: 0000 0040 473b 0c40 0000 00a0 1491 d1bf
00000140: 0000 0000 51f2 b6bf 0000 0000 981f 0d40
00000150: 0000 0040 765e c3bf 0000 00c0 6b1e d03f
00000160: 0000 0040 f447 0d40 0000 00c0 fc26 cdbf
00000170: 0000 00c0 0378 cc3f 0000 00e0 0909 0e40
00000180: 0000 00a0 30ad cd3f 0000 00e0 165a c03f
00000190: 0000 0040 2d75 1140 0000 0040 3084 c83f
000001a0: 0000 0020 5390 b83f 0000 0080 c2e2 1140
000001b0: 0000 0000 aff3 d0bf 0000 0020 7d29 c3bf
000001c0: 0000 0020 da02 0b40 0000 00e0 7888 d53f
000001d0: 0000 00a0 5001 c1bf 0000 00a0 f6ae 1240
000001e0: 0000 0000 34dd c9bf 0000 0040 1c4d d1bf
000001f0: 0000 0060 c3bd 0a40 0000 0040 9d4a d6bf
00000200: 0000 00c0 30d0 d0bf 0000 00c0 39f6 0a40
00000210: 0000 00c0 fd30 d1bf 0000 0040 b12d c2bf
00000220: 0000 0080 6ea4 0940 0000 00c0 2c37 d5bf
00000230: 0000 0000 9714 c2bf 0000 0020 6fbb 0940
00000240: 0000 00a0 3449 d3bf 0000 0060 e7a5 cdbf
00000250: 0000 00c0 89f6 0840 0000 0060 3ae3 d13f
00000260: 0000 0040 2a99 b9bf 0000 00c0 acf7 1140
00000270: 0000 0060 6eaf d03f 0000 0060 ca6a c8bf
00000280: 0000 0020 1b68 1640 0000 0000 ece7 c33f
00000290: 0000 0080 dfb8 c9bf 0000 00a0 c51b 1640
000002a0: 0000 0040 6396 d13f 0000 00c0 26d7 adbf
000002b0: 0000 0040 b6ac 1540 0000 00c0 334c d73f
000002c0: 0000 00c0 6a9a d23f 0000 0000 101c 1840
000002d0: 0000 0040 8b01 d23f 0000 0000 6fa2 d03f
000002e0: 0000 00c0 ffeb 1740 0000 00e0 287c b9bf
000002f0: 0000 0000 41d4 b53f 0000 00a0 c44b 1a40
00000300: 0000 00a0 cea0 cdbf 0000 00c0 0e38 c63f
00000310: 0000 0020 4279 1940 0000 0020 16cf d1bf
00000320: 0000 00c0 0fc8 b4bf 0000 00e0 d768 1940
00000330: 0000 0000 a784 c83f 0000 0080 f686 bc3f
00000340: 0000 0080 221d 1840 0000 0000 2e4e 903f
00000350: 0000 0080 57a8 ce3f 0000 0040 8e8a 1740
00000360: 0000 0080 bfc2 babf 0000 0000 16f8 76bf
00000370: 0000 0080 36f6 1940 0000 0080 3776 d2bf
00000380: 0000 0060 97f9 be3f 0000 00c0 4637 1940
00000390: 0000 00c0 6bf7 c03f 0000 0080 9840 a9bf
000003a0: 0000 0020 7a85 1740 0000 0000 c1eb b5bf
000003b0: 0000 0000 1792 ac3f 0000 0060 5003 1740
000003c0: 0000 0020 2cdb d33f 0000 00c0 327e cd3f
000003d0: 0000 0080 f348 1840 0000 0060 9065 ca3f
000003e0: 0000 0000 6587 d23f 0000 00c0 70e6 1740
000003f0: 0000 0000 8815 c6bf 0000 0000 e899 a23f
00000400: 0000 0000 ec5e 1a40 0000 00c0 f2bc d2bf
00000410: 0000 0040 ef1f bf3f 0000 0080 99b9 1940
00000420: 0000 00e0 3848 c23f 0000 00a0 1c7d b5bf
00000430: 0000 0040 9f78 1640 0000 0060 4d99 cebf
00000440: 0000 00a0 6387 85bf 0000 0040 cc36 1a40
00000450: 0000 0040 5de4 ca3f 0000 0060 3f0e ccbf
00000460: 0000 0000 f7c8 1640 0000 00c0 0095 b73f
00000470: 0000 0040 e045 cdbf 0000 0080 be73 1640
00000480: 0000 0060 442d d03f 0000 0080 ff45 afbf
00000490: 0000 0040 9f19 1640 0000 0060 bdbd cb3f
000004a0: 0000 00a0 6875 b0bf 0000 00a0 e0fd 1540
000004b0: 0000 00a0 b6a4 d33f 0000 0080 451a c2bf
000004c0: 0000 0040 5da8 1540 0000 0000 8c1d d2bf
000004d0: 0000 0000 72c1 85bf 0000 00c0 65cc 1940
000004e0: 0000 0040 5eb8 a73f 0000 00e0 6137 c3bf
000004f0: 0000 00c0 9a9e 0340 0000 00c0 bd48 a1bf
00000500: 0000 0000 5739 c2bf 0000 0020 6038 0340
00000510: 0000 0000 c83b b03f 0000 00c0 a46d b1bf
00000520: 0000 0040 3eb2 0240 0000 0000 f501 853f
00000530: 0000 0000 476c d03f 0000 0000 4747 0640
00000540: 0000 00c0 bd04 c3bf 0000 00c0 cda5 d03f
00000550: 0000 0060 9931 0640 0000 0040 8281 a23f
00000560: 0000 00c0 8587 b93f 0000 0040 a5d3 0a40
00000570: 0000 0020 7950 bebf 0000 00c0 6fdd b93f
00000580: 0000 0020 b830 0a40 0000 0000 5686 b1bf
00000590: 0000 0040 bdaa c4bf 0000 0080 43a2 0a40
000005a0: 0000 00c0 3c78 913f 0000 00e0 c799 c03f
000005b0: 0000 0060 5164 0640 0000 0060 b567 c6bf
000005c0: 0000 0000 8424 c23f 0000 00c0 6746 0640
000005d0: 0000 0000 29a2 a53f 0000 0000 2b93 99bf
000005e0: 0000 0020 57a8 0a40 0000 0080 9d8d c3bf
000005f0: 0000 0000 00dc 18bf 0000 0040 cb68 0a40
00000600: 0000 0000 c857 7e3f 0000 0040 adcd 9abf
00000610: 0000 00a0 bdd7 0540 0000 0020 5d3b c9bf
00000620: 0000 0040 2a27 92bf 0000 00c0 809e 0540
00000630: 0000 0080 fbbc 973f 0000 0080 670a ce3f
00000640: 0000 00a0 c39b 0640 0000 0000 17ff c4bf
00000650: 0000 00c0 91ef ce3f 0000 00c0 ab8a 0640
00000660: 0000 0000 3fd4 983f 0000 0040 4bae a23f
00000670: 0000 0000 9912 0b40 0000 0040 0337 bebf
00000680: 0000 00e0 4e2b b03f 0000 0000 54bb 0a40
00000690: 0000 0040 921e a9bf 0000 0000 8f60 aebf
000006a0: 0000 0000 6e3f 0440 0000 0020 5f80 8d3f
000006b0: 0000 00a0 f8dd c6bf 0000 0060 9ea4 0b40
000006c0: 0000 00c0 eae7 8a3f 0000 0080 da6c c5bf
000006d0: 0000 0020 1754 0440 0000 0060 7f7a b9bf
000006e0: 0000 0080 aff4 c3bf 0000 00c0 f3ca 0340
000006f0: 0000 0040 dd22 ad3f 0000 0040 9d6d a8bf
00000700: 0000 0040 8a3d 0340 0000 0060 42f4 6a3f
00000710: 0000 00e0 02c7 a6bf 0000 0060 f7ff 0240
00000720: 0000 00c0 7f9d b23f 0000 0000 bbb7 c2bf
00000730: 0000 0060 d791 0240 0000 00c0 e8e7 a7bf
00000740: 0000 00c0 bdbe c3bf 0000 0000 8a4c 0b40
00000750: 0000 00c0 445b d43f 0000 00e0 f8e2 d0bf
00000760: 0000 0000 faeb 1340 0000 0000 2bbc cd3f
00000770: 0000 0080 c4b9 d2bf 0000 00a0 79b8 1340
00000780: 0000 0060 f52a d43f 0000 0000 0775 cabf
00000790: 0000 0020 b24e 1340 0000 0040 8324 c43f
000007a0: 0000 0000 4f61 d13f 0000 0080 9213 1540
000007b0: 0000 0000 7c05 c13f 0000 0080 7497 d43f
000007c0: 0000 0080 4c69 1440 0000 0060 fdbe b6bf
000007d0: 0000 00e0 d31b cb3f 0000 0000 a27c 1740
000007e0: 0000 0020 bf3c cfbf 0000 0040 28be cd3f
000007f0: 0000 0040 678c 1640 0000 0000 2cdb c4bf
-0.23734870553016663 -0.2562408447265625 3.2407264709472656 -0.3429611325263977 -0.24906466901302338 3.251453399658203 -0.2959096431732178 -0.1596885770559311
3.135617256164551 -0.1948559284210205 0.28022512793540955 3.6097922325134277 -0.1956600844860077 0.23423635959625244 3.7021408081054688 0.2250780314207077
0.17930015921592712 4.305084705352783 0.16219723224639893 0.158926859498024 4.479848861694336 0.2177221179008484 -0.14005988836288452 4.331025123596191
-0.09957903623580933 0.13375377655029297 3.617253303527832 -0.25880786776542664 0.0909290611743927 3.732602596282959 0.2578281760215759 0.05674088001251221
4.2527947425842285 0.11416512727737427 0.025391429662704468 4.395313739776611 -0.06264834105968475 -0.04540979117155075 3.528944492340088 -0.27448001503944397
-0.0896349549293518 3.6404266357421875 -0.15132024884223938 0.2518567442893982 3.6601338386535645 -0.22775229811668396 0.22241255640983582 3.754413366317749
0.2318478375673294 0.12774930894374847 4.3644304275512695 0.19153407216072083 0.09595222026109695 4.471445083618164 -0.2648732662200928 -0.14970363676548004
3.3763926029205322 0.3364546000957489 -0.13285262882709503 4.670862674713135 -0.20206308364868164 -0.2703314423561096 3.3426578044891357 -0.3483040928840637
-0.2627069354057312 3.370227336883545 -0.268615186214447 -0.14201942086219788 3.205288887023926 -0.3314926028251648 -0.14125335216522217 3.2165205478668213
-0.3013431131839752 -0.2316254824399948 3.12037992477417 0.27949389815330505 -0.09999336302280426 4.491869926452637 0.26070746779441833 -0.19075898826122284
5.60166597366333 0.15551519393920898 -0.2009543776512146 5.527121067047119 0.27480393648147583 -0.05828209966421127 5.41866397857666 0.3640260100364685
0.2906748652458191 6.02740478515625 0.2813442349433899 0.2599141597747803 5.980467796325684 -0.0995507761836052 0.0852699875831604 6.5739922523498535
-0.23146994411945343 0.17358574271202087 6.3684163093566895 -0.2782645523548126 -0.08117769658565521 6.352385997772217 0.19154822826385498 0.11143437027931213
6.028451919555664 0.015923231840133667 0.2395123839378357 5.885308265686035 -0.10453411936759949 -0.005607686936855316 6.490442276000977 -0.28846538066864014
0.12099596112966537 6.303980827331543 0.1325506865978241 -0.049320951104164124 5.8803486824035645 -0.08562856912612915 0.05580207705497742 5.753236293792725
0.31025221943855286 0.2304137647151947 6.07124137878418 0.2062244862318039 0.28951382637023926 5.975039482116699 -0.1725320816040039 0.036330461502075195
6.5926971435546875 -0.2927824854850769 0.12158103287220001 6.431249618530273 0.1428290456533432 -0.0839403048157692 5.617794990539551 -0.239053413271904
-0.010512140579521656 6.553513526916504 0.2100941240787506 -0.21918480098247528 5.696254730224609 0.09211735427379608 -0.22869494557380676 5.613031387329102
0.25276288390159607 -0.061080917716026306 5.525021553039551 0.21672789752483368 -0.06429151445627213 5.497927188873291 0.3069283068180084 -0.14142674207687378
5.4144182205200195 -0.2830533981323242 -0.010622873902320862 6.449606895446777 0.04632849246263504 -0.15012763440608978 2.4524435997009277 -0.033758096396923065
-0.14237487316131592 2.402527093887329 0.06341218948364258 -0.06807927787303925 2.3370327949523926 0.010257638990879059 0.2566087245941162 2.7848033905029297
-0.14858219027519226 0.26011985540390015 2.7742183208465576 0.03614432364702225 0.09972415864467621 3.3533425331115723 -0.11841542273759842 0.10103510320186615
3.2737886905670166 -0.06845605373382568 -0.16146054863929749 3.329230308532715 0.017060231417417526 0.12969301640987396 2.798983335494995 -0.17503993213176727
0.1417393684387207 2.7843775749206543 0.042252808809280396 -0.02497546374797821 3.332197427749634 -0.15275925397872925 -9.483098983764648e-05 3.301168918609619
0.007407933473587036 -0.02617521956562996 2.730342149734497 -0.19712413847446442 -0.017727527767419815 2.7023940086364746 0.023181848227977753 0.2346925139427185
2.826056718826294 -0.16403472423553467 0.24168607592582703 2.8177103996276855 0.024247154593467712 0.036486007273197174 3.3840808868408203 -0.11802692711353302
0.06316082924604416 3.3414688110351562 -0.0490613654255867 -0.05933043360710144 2.5309715270996094 0.014405005611479282 -0.17864902317523956 3.4553802013397217
0.013137659057974815 -0.16738444566726685 2.541059732437134 -0.09952541440725327 -0.15590471029281616 2.474097728729248 0.05690661817789078 -0.047711290419101715
2.4050488471984863 0.0032903000246733427 -0.044487085193395615 2.374983549118042 0.07271574437618256 -0.146232008934021 2.321211576461792 -0.046691201627254486
-0.15425845980644226 3.412372589111328 0.31807059049606323 -0.2638532817363739 4.980445861816406 0.23230493068695068 -0.29258835315704346 4.930151462554932
0.31512197852134705 -0.20669639110565186 4.8268513679504395 0.15736427903175354 0.271564245223999 5.269113540649414 0.1329798698425293 0.32174408435821533
5.10283088684082 -0.08885177224874496 0.21178673207759857 5.871711730957031 -0.2440413385629654 0.23236563801765442 5.637112617492676 -0.16293859481811523
