demo_out/run2/params.npz (npz, 11215 bytes, 4 tensors)

pose f8 [5, 105]
1.2884904146194458 1.201887845993042 -0.7908680438995361 -0.13384771347045898 -0.08565683662891388 0.03885152190923691 -0.11265797913074493 0.07162964344024658
-0.08240308612585068 -0.06518207490444183 0.18046283721923828 -0.10347142070531845 -0.08960027992725372 0.161333829164505 -0.06518889963626862 -0.12060118466615677
0.14499413967132568 -0.058640483766794205 -0.02717370167374611 0.46573424339294434 -0.11254354566335678 -0.17198209464550018 0.5128189325332642 0.07239998131990433
0.2854847013950348 -0.04150228947401047 0.12322969734668732 0.034743521362543106 0.2529385983943939 0.04909197986125946 -0.0594000369310379 0.19745288789272308
-0.04166044667363167 0.3271031081676483 0.48604685068130493 -0.012763585895299911 -0.2577720284461975 0.008106786757707596 -0.12094376981258392 -0.03391276299953461
0.238149031996727 -0.060450226068496704 0.041727352887392044 0.14999674260616302 0.03343197703361511 0.06251998245716095 -0.6436859965324402 -0.006652152631431818
0.022997034713625908 -0.6686897873878479 -0.3726416230201721 -0.37208840250968933 0.7146319150924683 0.034988366067409515 0.4091184735298157 0.5117477774620056
0.03992268070578575 0.10016540437936783 0.3100458085536957 0.05941275507211685 -0.042795147746801376 0.1437457799911499 0.046636082231998444 0.45916783809661865
0.6167677044868469 -0.11686015129089355 -0.06330423057079315 0.5462586283683777 -0.0790787935256958 0.014717191457748413 0.2905269265174866 -0.025876987725496292
0.08427050709724426 0.1558532416820526 -0.04232978820800781 0.052740927785634995 -0.39599138498306274 -0.11268668621778488 0.004013599827885628 -0.05616629496216774
-0.09761981666088104 -0.005741847679018974 -0.006063531152904034 -0.05557949095964432 0.014453249983489513 0.08991704881191254 -0.003166390582919121 0.01377449557185173
0.07774171233177185 0.009370533749461174 -0.0013737594708800316 -0.008593432605266571 -0.007304436527192593 -0.018292667344212532 0.000187225901754573 -0.03446408361196518
-0.33509838581085205 0.4470963478088379 0.34882211685180664 0.6077077984809875 -0.32566991448402405 -0.5027263164520264 0.12058043479919434 0.5402528047561646
-1.2199748754501343 1.2946405410766602 1.2215461730957031 -0.7906017899513245 -0.1318742036819458 -0.061912354081869125 0.03791996091604233 -0.11181735247373581
0.09568480402231216 -0.08669456094503403 -0.0730649083852768 0.2004629373550415 -0.10657546669244766 -0.10091578960418701 0.1659615933895111 -0.06687627732753754
-0.13278265297412872 0.13313397765159607 -0.05849871039390564 -0.03881329670548439 0.4507846236228943 -0.12105490267276764 -0.16154681146144867 0.47814393043518066
0.055754952132701874 0.30105623602867126 -0.07889200001955032 0.11951372027397156 0.02526063844561577 0.25954562425613403 0.034870393574237823 -0.049272842705249786
0.19879820942878723 -0.03874249756336212 0.33703187108039856 0.45549100637435913 -0.014037508517503738 -0.24737368524074554 -0.03789709135890007 -0.07157929986715317
-0.027475975453853607 0.25053671002388 -0.07433019578456879 0.05528116598725319 0.1602264642715454 0.027125490829348564 0.06550785899162292 -0.6390401721000671
-0.007085808087140322 0.03892819955945015 -0.6961338520050049 -0.4136435389518738 -0.4255441129207611 0.7005347013473511 0.02944033034145832 0.3779368996620178
0.4937203824520111 0.03845500200986862 0.11242695897817612 0.3185616135597229 0.0669945776462555 -0.04488200321793556 0.1453038454055786 0.054541558027267456
0.4198864698410034 0.6133686304092407 -0.09615331888198853 -0.09346884489059448 0.533158540725708 -0.04828929901123047 0.04012005776166916 0.3026696741580963
-0.021851124241948128 0.06234355270862579 0.16257093846797943 -0.02711750939488411 0.020802168175578117 -0.3924410045146942 -0.08732835203409195 0.00698467344045639
-0.06958158314228058 -0.0747985988855362 0.0008861161768436432 -0.001241503283381462 -0.04455145448446274 0.0017960518598556519 0.0858670175075531 -0.019140100106596947
0.0012547066435217857 0.0675230398774147 -0.0008637895807623863 -0.008947059512138367 -0.026423417031764984 4.7499313950538635e-05 -0.007518601603806019 -0.06315142661333084
-0.005178740713745356 -0.3517623543739319 0.6110270619392395 0.35269293189048767 0.6659454703330994 -0.31749340891838074 -0.6237338781356812 0.2073531299829483
0.5008613467216492 -1.2435637712478638 1.2494032382965088 1.1994575262069702 -0.7981449365615845 -0.13645365834236145 -0.08698268234729767 -0.006594615522772074
-0.10391557216644287 0.12563738226890564 -0.11274141073226929 -0.053248342126607895 0.24566145241260529 -0.11234099417924881 -0.08024638891220093 0.18141619861125946
-0.050906140357255936 -0.12685570120811462 0.0935751274228096 -0.02292347513139248 -0.028575632721185684 0.46910521388053894 -0.09650237113237381 -0.19402159750461578
0.42775818705558777 0.04899292439222336 0.26414820551872253 -0.09606701135635376 0.0977334976196289 0.05305430665612221 0.30571508407592773 0.04174740985035896
-0.03162379935383797 0.21700897812843323 -0.015298884361982346 0.3107982575893402 0.4059857726097107 -0.03264773637056351 -0.24374277889728546 -0.05576961860060692
-0.06738073378801346 -0.03757241368293762 0.30732297897338867 -0.06156189367175102 0.039267636835575104 0.2009134292602539 0.00526437908411026 0.031585898250341415
00000000: 0000 0020 a89d f43f 0000 00c0 ee3a f33f
00000010: 0000 0080 ca4e e9bf 0000 0000 ec21 c1bf
00000020: 0000 0040 9bed b5bf 0000 00c0 58e4 a33f
00000030: 0000 0040 27d7 bcbf 0000 0000 5256 b23f
00000040: 0000 0060 5e18 b5bf 0000 00c0 c5af b0bf
00000050: 0000 0000 6819 c73f 0000 0060 1a7d babf
00000060: 0000 0040 0bf0 b6bf 0000 0040 96a6 c43f
00000070: 0000 0040 38b0 b0bf 0000 0020 b8df bebf
00000080: 0000 0000 2b8f c23f 0000 0020 2006 aebf
00000090: 0000 0040 6cd3 9bbf 0000 0000 97ce dd3f
000000a0: 0000 0060 a7cf bcbf 0000 0060 8203 c6bf
000000b0: 0000 0040 0369 e03f 0000 0020 ce88 b23f
000000c0: 0000 00a0 6145 d23f 0000 00c0 c93f a5bf
000000d0: 0000 0040 fb8b bf3f 0000 0020 e7c9 a13f
000000e0: 0000 0060 2530 d03f 0000 0080 9522 a93f
000000f0: 0000 0080 ae69 aebf 0000 00e0 2246 c93f
00000100: 0000 00a0 8454 a5bf 0000 00e0 41ef d43f
00000110: 0000 0040 641b df3f 0000 0080 cb23 8abf
00000120: 0000 0040 567f d0bf 0000 0080 4a9a 803f
00000130: 0000 00c0 2bf6 bebf 0000 0080 035d a1bf
00000140: 0000 00e0 aa7b ce3f 0000 0000 55f3 aebf
00000150: 0000 00a0 495d a53f 0000 00e0 1733 c33f
00000160: 0000 0000 ff1d a13f 0000 0040 4f01 b03f
00000170: 0000 0060 1399 e4bf 0000 00a0 493f 7bbf
00000180: 0000 00e0 888c 973f 0000 0020 e865 e5bf
00000190: 0000 0040 5cd9 d7bf 0000 00e0 4bd0 d7bf
000001a0: 0000 00c0 43de e63f 0000 00c0 fee9 a13f
000001b0: 0000 0040 ff2e da3f 0000 00e0 3c60 e03f
000001c0: 0000 00e0 be70 a43f 0000 00a0 70a4 b93f
000001d0: 0000 0060 cad7 d33f 0000 0040 596b ae3f
000001e0: 0000 00e0 3ee9 a5bf 0000 0000 4366 c23f
000001f0: 0000 0040 afe0 a73f 0000 0080 0163 dd3f
00000200: 0000 00a0 8fbc e33f 0000 0000 8cea bdbf
00000210: 0000 00c0 b434 b0bf 0000 0060 f37a e13f
00000220: 0000 0000 823e b4bf 0000 0000 0c24 8e3f
00000230: 0000 0040 fe97 d23f 0000 0040 7f7f 9abf
00000240: 0000 0080 c092 b53f 0000 00c0 fff2 c33f
00000250: 0000 0000 40ac a5bf 0000 00e0 db00 ab3f
00000260: 0000 0040 ec57 d9bf 0000 00e0 08d9 bcbf
00000270: 0000 0080 9070 703f 0000 0020 d4c1 acbf
00000280: 0000 00c0 9cfd b8bf 0000 0080 c384 77bf
00000290: 0000 00c0 12d6 78bf 0000 0040 ea74 acbf
000002a0: 0000 0060 aa99 8d3f 0000 00c0 cd04 b73f
000002b0: 0000 0000 67f0 69bf 0000 0080 cd35 8c3f
000002c0: 0000 0080 e1e6 b33f 0000 00c0 db30 833f
000002d0: 0000 0000 f781 56bf 0000 0000 6f99 81bf
000002e0: 0000 00c0 41eb 7dbf 0000 0020 50bb 92bf
000002f0: 0000 0040 428a 283f 0000 00c0 46a5 a1bf
00000300: 0000 0080 4072 d5bf 0000 0000 3a9d dc3f
00000310: 0000 0000 1a53 d63f 0000 00a0 5772 e33f
00000320: 0000 00a0 c6d7 d4bf 0000 0080 5516 e0bf
00000330: 0000 0000 5cde be3f 0000 0040 c049 e13f
00000340: 0000 0060 0485 f3bf 0000 0000 d9b6 f43f
00000350: 0000 0000 748b f33f 0000 0020 9c4c e9bf
00000360: 0000 0000 41e1 c0bf 0000 00e0 f9b2 afbf
00000370: 0000 00c0 3e6a a33f 0000 00e0 0fa0 bcbf
00000380: 0000 00a0 cc7e b83f 0000 0060 9d31 b6bf
00000390: 0000 00c0 61b4 b2bf 0000 0000 c5a8 c93f
000003a0: 0000 00a0 8748 bbbf 0000 0000 9ed5 b9bf
000003b0: 0000 00c0 3a3e c53f 0000 00c0 cd1e b1bf
000003c0: 0000 00a0 05ff c0bf 0000 00c0 880a c13f
000003d0: 0000 0000 8bf3 adbf 0000 0020 56df a3bf
000003e0: 0000 00c0 a7d9 dc3f 0000 0040 74fd bebf
000003f0: 0000 00e0 90ad c4bf 0000 0000 e999 de3f
00000400: 0000 00c0 e98b ac3f 0000 0060 8144 d33f
00000410: 0000 0020 4432 b4bf 0000 0080 7398 be3f
00000420: 0000 00c0 ecdd 993f 0000 0040 659c d03f
00000430: 0000 0040 88da a13f 0000 0040 4a3a a9bf
00000440: 0000 0040 3872 c93f 0000 0080 0ed6 a3bf
00000450: 0000 0020 ee91 d53f 0000 00c0 c326 dd3f
00000460: 0000 0080 b2bf 8cbf 0000 00e0 f0a9 cfbf
00000470: 0000 0060 3f67 a3bf 0000 0060 0553 b2bf
00000480: 0000 0080 a922 9cbf 0000 0020 cb08 d03f
00000490: 0000 00c0 4d07 b3bf 0000 0020 d04d ac3f
000004a0: 0000 0000 4d82 c43f 0000 00e0 c8c6 9b3f
000004b0: 0000 0080 1fc5 b03f 0000 0060 0473 e4bf
000004c0: 0000 0020 0206 7dbf 0000 00a0 65ee a33f
000004d0: 0000 0080 ba46 e6bf 0000 00c0 2279 dabf
000004e0: 0000 0060 1d3c dbbf 0000 00c0 c76a e63f
000004f0: 0000 0020 9b25 9e3f 0000 0040 1e30 d83f
00000500: 0000 0060 1d99 df3f 0000 00c0 5fb0 a33f
00000510: 0000 0060 03c8 bc3f 0000 0040 5063 d43f
00000520: 0000 0080 8e26 b13f 0000 0020 c6fa a6bf
00000530: 0000 0000 5199 c23f 0000 0000 dfec ab3f
00000540: 0000 0080 6bdf da3f 0000 0040 b7a0 e33f
00000550: 0000 0000 819d b8bf 0000 0000 93ed b7bf
00000560: 0000 0080 a20f e13f 0000 0000 60b9 a8bf
00000570: 0000 00c0 9d8a a43f 0000 00a0 f05e d33f
00000580: 0000 0020 2460 96bf 0000 0080 7eeb af3f
00000590: 0000 00e0 1fcf c43f 0000 0040 b1c4 9bbf
000005a0: 0000 00e0 294d 953f 0000 00e0 c01d d9bf
000005b0: 0000 00a0 265b b6bf 0000 0000 f69b 7c3f
000005c0: 0000 0040 19d0 b1bf 0000 0040 0026 b3bf
000005d0: 0000 0000 4809 4d3f 0000 0000 3e57 54bf
000005e0: 0000 00c0 72cf a6bf 0000 0000 306d 5d3f
000005f0: 0000 0080 61fb b53f 0000 0060 7699 93bf
00000600: 0000 0000 9f8e 543f 0000 00a0 3049 b13f
00000610: 0000 0000 fe4d 4cbf 0000 0000 d652 82bf
00000620: 0000 0080 bd0e 9bbf 0000 0000 40e7 083f
00000630: 0000 0040 d3cb 7ebf 0000 0020 b12a b0bf
00000640: 0000 00a0 4d36 75bf 0000 0040 4683 d6bf
00000650: 0000 00a0 888d e33f 0000 0060 8592 d63f
00000660: 0000 00e0 6c4f e53f 0000 00e0 cf51 d4bf
00000670: 0000 00c0 a0f5 e3bf 0000 0020 8c8a ca3f
00000680: 0000 0060 0e07 e03f 0000 0020 a3e5 f3bf
00000690: 0000 0040 8efd f33f 0000 0060 fa30 f33f
000006a0: 0000 0040 678a e9bf 0000 0040 5077 c1bf
000006b0: 0000 0040 7f44 b6bf 0000 00a0 f402 7bbf
000006c0: 0000 0000 369a babf 0000 00c0 e214 c03f
000006d0: 0000 0000 9fdc bcbf 0000 00e0 5d43 abbf
000006e0: 0000 00a0 d571 cf3f 0000 0020 61c2 bcbf
000006f0: 0000 0000 078b b4bf 0000 0060 a538 c73f
00000700: 0000 00a0 5e10 aabf 0000 00c0 ce3c c0bf
00000710: 0000 0020 8af4 b73f 0000 0060 4079 97bf
00000720: 0000 0040 ee42 9dbf 0000 00e0 d105 de3f
00000730: 0000 0020 61b4 b8bf 0000 0020 b3d5 c8bf
00000740: 0000 00e0 6360 db3f 0000 00c0 9915 a93f
00000750: 0000 00e0 cde7 d03f 0000 0000 d997 b8bf
00000760: 0000 0000 1005 b93f 0000 0020 ef29 ab3f
00000770: 0000 0000 d690 d33f 0000 00a0 ea5f a53f
00000780: 0000 00a0 fe30 a0bf 0000 0040 f3c6 cb3f
00000790: 0000 0080 0555 8fbf 0000 0060 1ee4 d33f
000007a0: 0000 00c0 abfb d93f 0000 0040 34b7 a0bf
000007b0: 0000 00a0 f632 cfbf 0000 00e0 d58d acbf
000007c0: 0000 0020 dd3f b1bf 0000 0000 b13c a3bf
000007d0: 0000 0000 2eab d33f 0000 0060 0a85 afbf
000007e0: 0000 0040 e31a a43f 0000 0000 88b7 c93f
000007f0: 0000 0000 1a90 753f 0000 00e0 062c a03f

betas f8 [5, 41]
-1.2774633169174194 -1.1117302179336548 -1.8724615573883057 -0.24910308420658112 0.7784221172332764 0.512040913105011 -1.8040683269500732 -0.5524072647094727
-1.6647593975067139 2.099006175994873 3.136106252670288 -2.3333637714385986 2.4829599857330322 -1.639606237411499 -6.2308855056762695 2.2462093830108643
3.1208066940307617 -0.5176488757133484 -0.6818363666534424 -0.5128099322319031 0.21359311044216156 -1.0029116868972778 -0.26169970631599426 0.06899872422218323
3.7980332374572754 5.452420234680176 0.20977923274040222 -0.05311303213238716 -0.27511560916900635 -0.19596652686595917 -0.027907006442546844 -0.2762008011341095
0.04773688688874245 -0.012492537498474121 -0.0865020826458931 -0.03867765888571739 0.05791616439819336 0.01066578645259142 -0.03488226607441902 -0.12954242527484894
0.9821751117706299 -1.1794474124908447 -1.205188274383545 -2.0631582736968994 -0.16991934180259705 0.8056925535202026 0.565420389175415 -1.8808915615081787
-0.7164710164070129 -1.7131986618041992 2.001612424850464 2.8709535598754883 -2.571509838104248 2.5511257648468018 -1.3171435594558716 -6.313851833343506
2.440556049346924 3.2151098251342773 -0.8205457329750061 -0.8062611818313599 -0.6141414642333984 0.1763656884431839 -0.8878725171089172 -0.2873378396034241
0.160044863820076 3.8297295570373535 5.691750526428223 0.10861660540103912 0.12439076602458954 -0.37339913845062256 -0.27753934264183044 0.0308795478194952
-0.315480500459671 0.04892602562904358 0.07019084692001343 -0.03138022869825363 -0.05781211331486702 0.011151698417961597 -0.0666128471493721 -0.11817215383052826
-0.0009440533467568457 0.9833273887634277 -1.4372631311416626 -1.117004156112671 -1.9848285913467407 -0.5282586216926575 0.38062432408332825 -0.009361570701003075
-1.0319690704345703 -0.4931792616844177 -1.3565562963485718 2.7774412631988525 3.9603347778320312 -1.609390139579773 1.561622142791748 -1.875457763671875
-5.778146743774414 1.748212218284607 1.6410390138626099 -0.5037727355957031 -0.46195554733276367 -0.458307683467865 0.3217278718948364 -0.8970386981964111
-0.21696464717388153 -0.20590898394584656 2.891632556915283 5.283398628234863 0.08748272061347961 0.04604945331811905 -0.11972721666097641 -0.11189410835504532
0.0017932179616764188 -0.10861100256443024 0.03547818586230278 0.03365802764892578 0.026389913633465767 0.029260974377393723 -0.043975066393613815 0.03570401668548584
-0.04624493047595024 -0.011860585771501064 0.983106255531311 -1.2249516248703003 -1.1773673295974731 -2.0858874320983887 -0.2247381955385208 0.7849905490875244
0.45130079984664917 -1.8974030017852783 -0.649200439453125 -1.6746878623962402 2.060098886489868 3.0098562240600586 -2.5602996349334717 2.5684170722961426
-1.5092930793762207 -6.240161895751953 2.3788766860961914 2.7256295680999756 -0.6973041892051697 -0.7386718392372131 -0.624720573425293 0.18241894245147705
-0.9122394919395447 -0.27714017033576965 0.018188146874308586 3.568707227706909 5.585644721984863 0.0817633867263794 0.035011183470487595 -0.1686534881591797
-0.13740280270576477 -0.0074743120931088924 -0.14345455169677734 0.03297039493918419 0.0230358075350523 0.017695769667625427 0.014552619308233261 -0.018902065232396126
0.0043321275152266026 -0.054875172674655914 -0.014902107417583466 0.9824317693710327 -1.347758173942566 -1.12520170211792 -1.8506377935409546 -0.3755549192428589
0.6877996921539307 0.3669147789478302 -1.8113073110580444 -0.30351054668426514 -1.519948959350586 2.3468198776245117 3.527918577194214 -2.2840118408203125
2.560023784637451 -2.0115694999694824 -6.606236934661865 2.117814302444458 2.6797327995300293 -0.3238050937652588 -0.24116720259189606 -0.5084109902381897
0.2978948950767517 -0.9427748322486877 -0.21359136700630188 0.06280006468296051 3.6790223121643066 5.547830104827881 0.06987257301807404 -0.009705348871648312
-0.23047295212745667 -0.1392248421907425 -0.013575432822108269 -0.19467207789421082 0.009166327305138111 0.017116902396082878 0.010889725759625435 0.02668946608901024
-0.0231753122061491 0.014801491983234882 -0.030144475400447845 -0.01368618756532669 0.9838468432426453
00000000: 0000 0060 7d70 f4bf 0000 00a0 a5c9 f1bf
00000010: 0000 0040 9af5 fdbf 0000 0020 9ce2 cfbf
00000020: 0000 0080 d5e8 e83f 0000 00a0 a362 e03f
00000030: 0000 00c0 76dd fcbf 0000 0000 52ad e1bf
00000040: 0000 00c0 daa2 fabf 0000 00c0 c3ca 0040
00000050: 0000 00e0 be16 0940 0000 00a0 baaa 02c0
00000060: 0000 0020 1add 0340 0000 00c0 d33b fabf
00000070: 0000 0040 6dec 18c0 0000 00a0 3cf8 0140
00000080: 0000 0080 69f7 0840 0000 0060 9490 e0bf
00000090: 0000 0080 9ad1 e5bf 0000 0060 f068 e0bf
000000a0: 0000 00e0 0457 cb3f 0000 0020 ed0b f0bf
000000b0: 0000 0020 b0bf d0bf 0000 0080 e6a9 b13f
000000c0: 0000 0040 5f62 0e40 0000 0040 47cf 1540
000000d0: 0000 00c0 0bda ca3f 0000 00a0 a131 abbf
000000e0: 0000 0080 7e9b d1bf 0000 0060 6e15 c9bf
000000f0: 0000 0080 a793 9cbf 0000 0020 46ad d1bf
00000100: 0000 0020 f870 a83f 0000 0000 b095 89bf
00000110: 0000 0020 0025 b6bf 0000 00e0 8ecd a3bf
00000120: 0000 0000 30a7 ad3f 0000 00a0 f1d7 853f
00000130: 0000 00a0 16dc a1bf 0000 00a0 d894 c0bf
00000140: 0000 0080 fa6d ef3f 0000 0040 04df f2bf
00000150: 0000 0080 7348 f3bf 0000 0020 5981 00c0
00000160: 0000 00c0 eabf c5bf 0000 00c0 3bc8 e93f
00000170: 0000 0080 ec17 e23f 0000 00c0 2118 febf
00000180: 0000 00a0 54ed e6bf 0000 0000 4369 fbbf
00000190: 0000 0060 4d03 0040 0000 0080 b6f7 0640
000001a0: 0000 00c0 7392 04c0 0000 00a0 b468 0440
000001b0: 0000 0020 0513 f5bf 0000 0060 6241 19c0
000001c0: 0000 0040 4286 0340 0000 0080 8bb8 0940
000001d0: 0000 0020 e941 eabf 0000 0040 e4cc e9bf
000001e0: 0000 0000 0ca7 e3bf 0000 00a0 2693 c63f
000001f0: 0000 00a0 7369 ecbf 0000 0040 be63 d2bf
00000200: 0000 00a0 597c c43f 0000 0040 49a3 0e40
00000210: 0000 0040 5ac4 1640 0000 0040 4cce bb3f
00000220: 0000 00c0 12d8 bf3f 0000 0080 c5e5 d7bf
00000230: 0000 0060 34c3 d1bf 0000 0060 e39e 9f3f
00000240: 0000 0020 d530 d4bf 0000 0000 d50c a93f
00000250: 0000 0000 07f8 b13f 0000 00c0 1111 a0bf
00000260: 0000 00a0 8c99 adbf 0000 00a0 b3d6 863f
00000270: 0000 0020 8a0d b1bf 0000 00c0 8740 bebf
00000280: 0000 0020 4bef 4ebf 0000 0000 6b77 ef3f
00000290: 0000 00a0 07ff f6bf 0000 00c0 3fdf f1bf
000002a0: 0000 00a0 dbc1 ffbf 0000 00a0 7ee7 e0bf
000002b0: 0000 0020 265c d83f 0000 00c0 282c 83bf
000002c0: 0000 0000 f282 f0bf 0000 00c0 3f90 dfbf
000002d0: 0000 0060 74b4 f5bf 0000 0020 3338 0640
000002e0: 0000 0000 c4ae 0f40 0000 00e0 0fc0 f9bf
000002f0: 0000 0080 67fc f83f 0000 0000 e001 febf
00000300: 0000 0080 d21c 17c0 0000 0060 adf8 fb3f
00000310: 0000 0020 b241 fa3f 0000 0000 e81e e0bf
00000320: 0000 0000 ae90 ddbf 0000 00c0 e954 ddbf
00000330: 0000 0080 3097 d43f 0000 0080 8ab4 ecbf
00000340: 0000 0060 7fc5 cbbf 0000 00c0 395b cabf
00000350: 0000 0040 1022 0740 0000 0040 3322 1540
00000360: 0000 0080 4465 b63f 0000 0040 cb93 a73f
00000370: 0000 0060 71a6 bebf 0000 00a0 17a5 bcbf
00000380: 0000 0020 4d61 5d3f 0000 0040 eecd bbbf
00000390: 0000 0060 322a a23f 0000 0000 a03b a13f
000003a0: 0000 0020 f505 9b3f 0000 00c0 96f6 9d3f
000003b0: 0000 0060 e683 a6bf 0000 0000 cc47 a23f
000003c0: 0000 0060 6aad a7bf 0000 00e0 5c4a 88bf
000003d0: 0000 0040 9b75 ef3f 0000 00e0 6699 f3bf
000003e0: 0000 0020 7fd6 f2bf 0000 00c0 e5af 00c0
000003f0: 0000 00a0 38c4 ccbf 0000 0080 a41e e93f
00000400: 0000 00c0 1ce2 dc3f 0000 0040 c35b febf
00000410: 0000 0000 40c6 e4bf 0000 0080 85cb fabf
00000420: 0000 0020 157b 0040 0000 0080 2f14 0840
00000430: 0000 0060 7e7b 04c0 0000 0040 1e8c 0440
00000440: 0000 0080 1026 f8bf 0000 0000 edf5 18c0
00000450: 0000 0080 f007 0340 0000 00e0 16ce 0540
00000460: 0000 00e0 5050 e6bf 0000 0020 33a3 e7bf
00000470: 0000 0000 b6fd e3bf 0000 0000 8159 c73f
00000480: 0000 00e0 1031 edbf 0000 0020 aabc d1bf
00000490: 0000 00e0 e99f 923f 0000 0060 b68c 0c40
000004a0: 0000 0040 b357 1640 0000 0000 72ee b43f
000004b0: 0000 0060 fcec a13f 0000 0000 7096 c5bf
000004c0: 0000 0040 6a96 c1bf 0000 0060 629d 7ebf
000004d0: 0000 0000 b85c c2bf 0000 00e0 7ee1 a03f
000004e0: 0000 00e0 b296 973f 0000 0000 d71e 923f
000004f0: 0000 0080 c3cd 8d3f 0000 0020 105b 93bf
00000500: 0000 00a0 90be 713f 0000 0040 9918 acbf
00000510: 0000 0000 ff84 8ebf 0000 00c0 1470 ef3f
00000520: 0000 00e0 6a90 f5bf 0000 0080 d300 f2bf
00000530: 0000 0060 369c fdbf 0000 0080 1709 d8bf
00000540: 0000 0080 7402 e63f 0000 0020 887b d73f
00000550: 0000 0060 1dfb fcbf 0000 0080 b76c d3bf
00000560: 0000 0000 b651 f8bf 0000 0080 49c6 0240
00000570: 0000 0060 2d39 0c40 0000 0000 a845 02c0
00000580: 0000 00c0 ed7a 0440 0000 00c0 b117 00c0
00000590: 0000 0060 c96c 1ac0 0000 00a0 48f1 0040
000005a0: 0000 00c0 1770 0540 0000 0000 39b9 d4bf
000005b0: 0000 0020 91de cebf 0000 0020 e744 e0bf
000005c0: 0000 00c0 b510 d33f 0000 0020 362b eebf
000005d0: 0000 0040 f656 cbbf 0000 0040 aa13 b03f
000005e0: 0000 0040 a36e 0d40 0000 0060 fa30 1640
000005f0: 0000 0040 2be3 b13f 0000 00e0 65e0 83bf
00000600: 0000 0040 2380 cdbf 0000 00a0 1ed2 c1bf
00000610: 0000 00c0 6fcd 8bbf 0000 00c0 03eb c8bf
00000620: 0000 00a0 cbc5 823f 0000 00e0 1787 913f
00000630: 0000 0040 5a4d 863f 0000 00c0 7b54 9b3f
00000640: 0000 00e0 44bb 97bf 0000 00a0 3e50 8e3f
00000650: 0000 0080 31de 9ebf 0000 0000 8107 8cbf
00000660: 0000 0060 ac7b ef3f

camera f8 [5, 3]
-0.2791883945465088 112.0 112.0 -0.26983389258384705 112.0 112.0 -0.2976258397102356 112.0
112.0 -0.2706807553768158 112.0 112.0 -0.27728670835494995 112.0 112.0
00000000: 0000 0000 39de d1bf 0000 0000 0000 5c40
00000010: 0000 0000 0000 5c40 0000 0060 f544 d1bf
00000020: 0000 0000 0000 5c40 0000 0000 0000 5c40
00000030: 0000 0040 4d0c d3bf 0000 0000 0000 5c40
00000040: 0000 0000 0000 5c40 0000 0060 d552 d1bf
00000050: 0000 0000 0000 5c40 0000 0000 0000 5c40
00000060: 0000 00c0 10bf d1bf 0000 0000 0000 5c40
00000070: 0000 0000 0000 5c40

joints3d f8 [5, 26, 3]
-1.2860602140426636 1.2029831409454346 0.8546954393386841 -1.3241983652114868 1.1715922355651855 0.8728435039520264 -1.3318895101547241 1.2060190439224243
0.7507098317146301 -1.3642717599868774 1.3283923864364624 1.6878187656402588 -1.396630048751831 1.2943447828292847 1.6797120571136475 -1.4033957719802856
1.303737759590149 2.0048880577087402 -1.3768444061279297 1.3069179058074951 1.99130117893219 -1.3552026748657227 1.1912925243377686 1.569663166999817
-1.3488130569458008 1.3111982345581055 1.290311574935913 -1.3944318294525146 1.2624053955078125 1.2820234298706055 -1.3511732816696167 1.2794818878173828
1.625648856163025 -1.3946932554244995 1.277909517288208 1.6066792011260986 -1.3166851997375488 1.3057619333267212 1.0810058116912842 -1.3831913471221924
1.2318787574768066 1.0772595405578613 -1.3680063486099243 1.321063756942749 1.5408368110656738 -1.3925625085830688 1.2918137311935425 1.5332577228546143
-1.3977802991867065 1.2865755558013916 1.8094964027404785 -1.3763242959976196 1.2863903045654297 1.7795987129211426 -1.323357105255127 1.2487064599990845
0.9482663869857788 -1.3967795372009277 1.2767088413238525 2.171325922012329 -0.6474388837814331 0.35414502024650574 2.10666823387146 -0.70494145154953
-0.2627776861190796 1.3692110776901245 -1.3494267463684082 1.2481104135513306 0.8121741414070129 -1.378190517425537 1.2210724353790283 0.8239442110061646
-1.3169466257095337 1.1984742879867554 0.8610860109329224 -1.387070894241333 1.259768009185791 1.8379366397857666 -1.2652719020843506 1.215099811553955
0.823354959487915 -1.3036978244781494 1.1798405647277832 0.8433294296264648 -1.3276803493499756 1.224538803100586 0.7125546336174011 -1.3563145399093628
1.324785828590393 1.673370599746704 -1.3871784210205078 1.2896215915679932 1.6624642610549927 -1.3846395015716553 1.2845406532287598 1.9925565719604492
-1.366236686706543 1.2884225845336914 1.9832608699798584 -1.315201759338379 1.1624153852462769 1.5577099323272705 -1.3282603025436401 1.304709792137146
1.2749203443527222 -1.3723020553588867 1.2512993812561035 1.263302206993103 -1.314049482345581 1.256545901298523 1.6133992671966553 -1.365969181060791
1.2554502487182617 1.5944766998291016 -1.295894742012024 1.3064652681350708 1.0606253147125244 -1.3577978610992432 1.229149341583252 1.0535061359405518
-1.3542819023132324 1.3144187927246094 1.5292316675186157 -1.377793788909912 1.2843968868255615 1.5188864469528198 -1.3719196319580078 1.2606483697891235
1.7980751991271973 -1.3564329147338867 1.262851595878601 1.7716355323791504 -1.30453622341156 1.2599575519561768 0.9218045473098755 -1.3794199228286743
1.2504525184631348 2.167086601257324 -0.5370603799819946 0.26299530267715454 2.2963762283325195 -0.5488048791885376 -0.42972350120544434 1.5105279684066772
-1.3357633352279663 1.2612017393112183 0.7844730615615845 -1.3635815382003784 1.2317771911621094 0.7966492772102356 -1.2992979288101196 1.2090944051742554
0.8290553092956543 -1.358644962310791 1.2312723398208618 1.8287969827651978 -1.3466486930847168 1.2838568687438965 0.9838984608650208 -1.3714218139648438
1.2589287757873535 0.9902811646461487 -1.3883013725280762 1.2904820442199707 0.9236493706703186 -1.4248735904693604 1.3777726888656616 1.8262706995010376
-1.4483532905578613 1.3513946533203125 1.820881962776184 -1.435682773590088 1.357114315032959 2.087099313735962 -1.417811393737793 1.3603565692901611
2.075812816619873 -1.3781981468200684 1.2397396564483643 1.6191227436065674 -1.3952014446258545 1.350147008895874 1.4056289196014404 -1.434370994567871
1.3110889196395874 1.3991062641143799 -1.371833086013794 1.321075201034546 1.6732903718948364 -1.4191824197769165 1.3142471313476562 1.655569314956665
-1.3797215223312378 1.359177827835083 1.186861515045166 -1.4382516145706177 1.2955782413482666 1.1831291913986206 -1.4275329113006592 1.3692725896835327
1.675357460975647 -1.4456942081451416 1.349853277206421 1.6699252128601074 -1.4250599145889282 1.3325366973876953 1.8891537189483643 -1.4113256931304932
1.3326568603515625 1.8606195449829102 -1.3802586793899536 1.307053804397583 1.0662806034088135 -1.4323197603225708 1.3202195167541504 2.2832939624786377
-0.5608192682266235 0.5033170580863953 1.507213830947876 -0.6096200346946716 0.30538734793663025 1.001700758934021 -1.403370976448059 1.3220531940460205
0.9531214237213135 -1.4192655086517334 1.3053431510925293 0.9567482471466064 -1.361276626586914 1.2795288562774658 1.0095373392105103 -1.4140790700912476
1.288398027420044 1.920446515083313 -1.2575124502182007 1.2106578350067139 0.8478061556816101 -1.294050693511963 1.1796175241470337 0.8653366565704346
-1.3137487173080444 1.2190371751785278 0.7372474670410156 -1.351747989654541 1.3193275928497314 1.6858038902282715 -1.380793809890747 1.2874785661697388
1.6761821508407593 -1.3864850997924805 1.284388780593872 1.9988408088684082 -1.3643414974212646 1.2885079383850098 1.9894328117370605 -1.3189516067504883
00000000: 0000 00e0 b393 f4bf 0000 0040 6b3f f33f
00000010: 0000 0040 aa59 eb3f 0000 00a0 ea2f f5bf
00000020: 0000 0080 d7be f23f 0000 0080 55ee eb3f
00000030: 0000 0060 6b4f f5bf 0000 00a0 da4b f33f
00000040: 0000 00a0 d005 e83f 0000 00a0 0ed4 f5bf
00000050: 0000 0060 1841 f53f 0000 0040 4e01 fb3f
00000060: 0000 00c0 9858 f6bf 0000 00e0 a2b5 f43f
00000070: 0000 00c0 19e0 fa3f 0000 0020 4f74 f6bf
00000080: 0000 0020 1cdc f43f 0000 00c0 020a 0040
00000090: 0000 0000 8e07 f6bf 0000 00c0 22e9 f43f
000000a0: 0000 00a0 5edc ff3f 0000 0000 e9ae f5bf
000000b0: 0000 00c0 880f f33f 0000 0020 571d f93f
000000c0: 0000 0000 bd94 f5bf 0000 0000 abfa f43f
000000d0: 0000 00c0 1da5 f43f 0000 00c0 974f f6bf
000000e0: 0000 0000 d032 f43f 0000 0000 2b83 f43f
000000f0: 0000 00e0 679e f5bf 0000 0000 c278 f43f
00000100: 0000 0060 a802 fa3f 0000 00e0 a950 f6bf
00000110: 0000 0040 5172 f43f 0000 0040 f5b4 f93f
00000120: 0000 0080 2411 f5bf 0000 00a0 66e4 f43f
00000130: 0000 00c0 cc4b f13f 0000 0040 8d21 f6bf
00000140: 0000 0080 c6b5 f33f 0000 0080 743c f13f
00000150: 0000 00a0 5ae3 f5bf 0000 00c0 1323 f53f
00000160: 0000 0080 44a7 f83f 0000 00a0 ef47 f6bf
00000170: 0000 00e0 44ab f43f 0000 0040 3988 f83f
00000180: 0000 00e0 4e5d f6bf 0000 0040 d095 f43f
00000190: 0000 0080 b2f3 fc3f 0000 00a0 6c05 f6bf
000001a0: 0000 0000 0e95 f43f 0000 0080 3c79 fc3f
000001b0: 0000 0080 782c f5bf 0000 00a0 b3fa f33f
000001c0: 0000 00c0 3258 ee3f 0000 0080 3559 f6bf
000001d0: 0000 0040 666d f43f 0000 0020 e05e 0140
000001e0: 0000 00c0 d1b7 e4bf 0000 00e0 4faa d63f
000001f0: 0000 00e0 74da 0040 0000 0060 e18e e6bf
00000200: 0000 0080 59d1 d0bf 0000 00e0 49e8 f53f
00000210: 0000 0080 4097 f5bf 0000 00a0 42f8 f33f
00000220: 0000 00a0 54fd e93f 0000 0080 110d f6bf
00000230: 0000 0040 8389 f33f 0000 0040 c05d ea3f
00000240: 0000 00a0 3612 f5bf 0000 0060 f32c f33f
00000250: 0000 0040 048e eb3f 0000 0040 7131 f6bf
00000260: 0000 0080 0228 f43f 0000 0040 3068 fd3f
00000270: 0000 00c0 8d3e f4bf 0000 0080 0c71 f33f
00000280: 0000 0080 ec58 ea3f 0000 0040 f2db f4bf
00000290: 0000 0080 a0e0 f23f 0000 0000 8efc ea3f
000002a0: 0000 00c0 2d3e f5bf 0000 0000 b697 f33f
000002b0: 0000 0060 3fcd e63f 0000 00e0 76b3 f5bf
000002c0: 0000 00a0 5232 f53f 0000 0040 20c6 fa3f
000002d0: 0000 0000 e231 f6bf 0000 0040 4aa2 f43f
000002e0: 0000 0020 7499 fa3f 0000 00c0 7b27 f6bf
000002f0: 0000 0080 7a8d f43f 0000 0000 83e1 ff3f
00000300: 0000 0000 1bdc f5bf 0000 0000 619d f43f
00000310: 0000 00c0 6fbb ff3f 0000 0000 110b f5bf
00000320: 0000 00e0 4099 f23f 0000 0040 61ec f83f
00000330: 0000 00e0 8d40 f5bf 0000 0060 17e0 f43f
00000340: 0000 00e0 1266 f43f 0000 0000 f3f4 f5bf
00000350: 0000 0080 5205 f43f 0000 0060 7c36 f43f
00000360: 0000 00c0 5806 f5bf 0000 00e0 cf1a f43f
00000370: 0000 00c0 7bd0 f93f 0000 0080 02db f5bf
00000380: 0000 0000 5316 f43f 0000 0000 fa82 f93f
00000390: 0000 0020 fcbb f4bf 0000 0020 48e7 f43f
000003a0: 0000 0040 52f8 f03f 0000 0040 8ab9 f5bf
000003b0: 0000 0080 98aa f33f 0000 0040 29db f03f
000003c0: 0000 0080 23ab f5bf 0000 0000 dc07 f53f
000003d0: 0000 00a0 bb77 f83f 0000 0080 710b f6bf
000003e0: 0000 00c0 e38c f43f 0000 00e0 5b4d f83f
000003f0: 0000 0000 62f3 f5bf 0000 00a0 9d2b f43f
00000400: 0000 0080 eac4 fc3f 0000 0000 f3b3 f5bf
00000410: 0000 00e0 a334 f43f 0000 0080 9e58 fc3f
00000420: 0000 0060 61df f4bf 0000 0040 c928 f43f
00000430: 0000 0040 6c7f ed3f 0000 00a0 1a12 f6bf
00000440: 0000 0080 da01 f43f 0000 0080 3156 0140
00000450: 0000 0040 992f e1bf 0000 0040 ead4 d03f
00000460: 0000 0080 fa5e 0240 0000 0040 cf8f e1bf
00000470: 0000 0000 9780 dbbf 0000 0060 1f2b f83f
00000480: 0000 0060 495f f5bf 0000 00e0 e12d f43f
00000490: 0000 0040 671a e93f 0000 00e0 3ad1 f5bf
000004a0: 0000 0000 5cb5 f33f 0000 00a0 267e e93f
000004b0: 0000 00a0 ecc9 f4bf 0000 0060 7358 f33f
000004c0: 0000 0000 9f87 ea3f 0000 0080 02bd f5bf
000004d0: 0000 00a0 4ab3 f33f 0000 00a0 c042 fd3f
000004e0: 0000 0080 df8b f5bf 0000 0080 ad8a f43f
000004f0: 0000 00a0 187c ef3f 0000 0000 58f1 f5bf
00000500: 0000 0080 9224 f43f 0000 0020 62b0 ef3f
00000510: 0000 0080 7b36 f6bf 0000 0080 d0a5 f43f
00000520: 0000 0020 898e ed3f 0000 0040 48cc f6bf
00000530: 0000 0060 5b0b f63f 0000 00a0 6738 fd3f
00000540: 0000 0080 742c f7bf 0000 0000 509f f53f
00000550: 0000 0020 5522 fd3f 0000 0080 8ef8 f6bf
00000560: 0000 0080 bdb6 f53f 0000 0020 61b2 0040
00000570: 0000 0000 5baf f6bf 0000 0040 05c4 f53f
00000580: 0000 00c0 439b 0040 0000 0080 190d f6bf
00000590: 0000 0040 f9d5 f33f 0000 0040 ede7 f93f
000005a0: 0000 00c0 be52 f6bf 0000 00c0 339a f53f
000005b0: 0000 00c0 747d f63f 0000 0000 2ff3 f6bf
000005c0: 0000 0060 38fa f43f 0000 0040 bd62 f63f
000005d0: 0000 0040 07f3 f5bf 0000 00c0 1f23 f53f
000005e0: 0000 0020 ccc5 fa3f 0000 00a0 f8b4 f6bf
000005f0: 0000 0000 2807 f53f 0000 0040 367d fa3f
00000600: 0000 00e0 5613 f6bf 0000 0040 31bf f53f
00000610: 0000 0080 62fd f23f 0000 0020 1403 f7bf
00000620: 0000 0040 b0ba f43f 0000 00e0 18ee f23f
00000630: 0000 00c0 2cd7 f6bf 0000 0060 8ae8 f53f
00000640: 0000 00a0 43ce fa3f 0000 0040 9021 f7bf
00000650: 0000 00c0 ff98 f53f 0000 0080 03b8 fa3f
00000660: 0000 00a0 0bcd f6bf 0000 0000 1252 f53f
00000670: 0000 0040 f939 fe3f 0000 0040 ca94 f6bf
00000680: 0000 0000 9052 f53f 0000 0000 19c5 fd3f
00000690: 0000 0020 8a15 f6bf 0000 0040 b1e9 f43f
000006a0: 0000 0040 7c0f f13f 0000 0020 c8ea f6bf
000006b0: 0000 0080 9e1f f53f 0000 00a0 2f44 0240
000006c0: 0000 0040 3bf2 e1bf 0000 0060 2c1b e03f
000006d0: 0000 0040 8c1d f83f 0000 00e0 0182 e3bf
000006e0: 0000 0060 778b d33f 0000 0060 f706 f03f
000006f0: 0000 0020 3574 f6bf 0000 0040 2127 f53f
00000700: 0000 0080 f87f ee3f 0000 00c0 4fb5 f6bf
00000710: 0000 0080 afe2 f43f 0000 0080 ae9d ee3f
00000720: 0000 0000 cac7 f5bf 0000 0040 f378 f43f
00000730: 0000 00a0 1027 f03f 0000 0060 11a0 f6bf
00000740: 0000 0040 479d f43f 0000 0020 26ba fe3f
00000750: 0000 0060 c51e f4bf 0000 00c0 da5e f33f
00000760: 0000 0060 3a21 eb3f 0000 0080 6eb4 f4bf
00000770: 0000 00a0 b6df f23f 0000 0080 d6b0 eb3f
00000780: 0000 0060 1d05 f5bf 0000 0020 2d81 f33f
00000790: 0000 0000 8897 e73f 0000 0080 c2a0 f5bf
000007a0: 0000 0040 f71b f53f 0000 0080 0df9 fa3f
000007b0: 0000 0040 bb17 f6bf 0000 0020 8399 f43f
000007c0: 0000 0060 a4d1 fa3f 0000 0000 0b2f f6bf
000007d0: 0000 0040 db8c f43f 0000 0080 40fb ff3f
000007e0: 0000 00c0 57d4 f5bf 0000 0080 ba9d f43f
000007f0: 0000 0080 b7d4 ff3f 0000 0000 6d1a f5bf
