demo_out/run3/epoch90/params.npz (npz, 11215 bytes, 4 tensors)

pose f8 [5, 105]
000000 00 00 00 c0 1f f3 f1 3f 00 00 00 00 4e dc f5 3f
       1.121856451034546 1.3662853240966797
000010 00 00 00 00 d1 77 f3 bf 00 00 00 20 79 b6 aa bf
       -1.216752052307129 -0.05217340961098671
000020 00 00 00 00 c4 73 54 3f 00 00 00 00 a0 10 87 3f
       0.0012483038008213043 0.011262178421020508
000030 00 00 00 00 82 ec b2 bf 00 00 00 40 30 ba 95 bf
       -0.0739213228225708 -0.021218065172433853
000040 00 00 00 c0 bb 4a 76 bf 00 00 00 a0 d1 05 b3 bf
       -0.005442365072667599 -0.07430753856897354
000050 00 00 00 40 39 c9 ce bf 00 00 00 20 71 ae 92 bf
       -0.24051585793495178 -0.018243568018078804
000060 00 00 00 00 10 eb 93 bf 00 00 00 80 b1 54 d3 3f
       -0.019451379776000977 0.3020442724227905
000070 00 00 00 80 27 a0 94 3f 00 00 00 c0 e4 a7 b4 bf
       0.020142190158367157 -0.08068685233592987
000080 00 00 00 40 65 85 b6 3f 00 00 00 80 79 21 b0 bf
       0.08797295391559601 -0.06301078200340271
000090 00 00 00 a0 38 fc ac 3f 00 00 00 00 e4 00 da 3f
       0.0566117949783802 0.40630435943603516
0000a0 00 00 00 40 a2 3a b2 3f 00 00 00 00 ae 7c d3 bf
       0.07120718061923981 -0.30448484420776367
0000b0 00 00 00 80 70 0a f5 3f 00 00 00 80 cb 6b d7 3f
       1.3150486946105957 0.36595427989959717
0000c0 00 00 00 e0 1e d9 cf 3f 00 00 00 c0 b2 12 eb 3f
       0.24881349503993988 0.8460325002670288
0000d0 00 00 00 00 b7 36 e8 3f 00 00 00 40 fa e4 cb bf
       0.7566790580749512 -0.21792533993721008
0000e0 00 00 00 80 d9 52 e3 bf 00 00 00 40 df 7b d1 bf
       -0.6038634777069092 -0.2731855511665344
0000f0 00 00 00 a0 43 d7 cd 3f 00 00 00 00 82 53 bd 3f
       0.23313184082508087 0.1145554780960083
000100 00 00 00 80 7f 6f 80 bf 00 00 00 80 53 63 e6 3f
       -0.008025165647268295 0.69962477684021
000110 00 00 00 00 d8 8a f6 3f 00 00 00 40 61 69 de bf
       1.4088973999023438 -0.4751818776130676
000120 00 00 00 40 d2 60 c3 bf 00 00 00 a0 f8 e8 e6 3f
       -0.15139225125312805 0.7159388661384583
000130 00 00 00 40 1a ee e1 bf 00 00 00 40 15 72 c2 3f
       -0.5603152513504028 0.14410653710365295
000140 00 00 00 c0 62 fb c4 bf 00 00 00 20 b8 6d c9 3f
       -0.16392168402671814 0.19866086542606354
000150 00 00 00 80 fa ac d0 3f 00 00 00 00 ce ef d5 3f
       0.26055777072906494 0.3427615165710449
000160 00 00 00 80 8f db c1 3f 00 00 00 40 07 78 cb 3f
       0.13951295614242554 0.21460047364234924
000170 00 00 00 00 19 22 99 3f 00 00 00 a0 a2 5a df bf
       0.024544134736061096 -0.4899069368839264
000180 00 00 00 00 22 4e cf 3f 00 00 00 80 06 09 f2 bf
       0.24457192420959473 -1.1272034645080566
000190 00 00 00 a0 db 91 ed bf 00 00 00 20 12 5a ca 3f
       -0.9240549206733704 0.2058737426996231
0001a0 00 00 00 80 f3 94 ef 3f 00 00 00 00 01 79 bf bf
       0.9869325160980225 -0.12294012308120728
0001b0 00 00 00 a0 e3 8c d3 bf 00 00 00 a0 49 a1 ef 3f
       -0.305474191904068 0.9884384274482727
0001c0 00 00 00 a0 41 43 ca 3f 00 00 00 60 ec f0 b8 3f
       0.20517750084400177 0.09742619842290878
0001d0 00 00 00 60 dc f1 bd 3f 00 00 00 a0 e5 1f b7 3f
       0.11697175353765488 0.09033045917749405
0001e0 00 00 00 e0 47 ef c7 bf 00 00 00 00 09 77 cc bf
       -0.18698976933956146 -0.22238266468048096
0001f0 00 00 00 a0 8c cf f1 3f 00 00 00 60 55 ff c9 3f
       1.1131712198257446 0.2031046599149704
000200 00 00 00 60 5b 14 f1 3f 00 00 00 00 0f 90 c0 3f
       1.0674699544906616 0.12939631938934326
000210 00 00 00 00 6c 27 84 bf 00 00 00 00 6d 99 e1 3f
       -0.009840816259384155 0.5499787330627441
000220 00 00 00 40 cf be 9a 3f 00 00 00 e0 d2 92 d4 3f
       0.026118505746126175 0.32146140933036804
000230 00 00 00 20 26 d7 c0 3f 00 00 00 e0 7a fb b4 3f
       0.13156582415103912 0.08196227997541428
000240 00 00 00 40 ad 93 ce bf 00 00 00 40 85 94 af bf
       -0.23888173699378967 -0.06167999655008316
000250 00 00 00 c0 ae 25 f1 3f 00 00 00 80 00 3d c0 bf
       1.071699857711792 -0.12686163187026978
000260 00 00 00 40 8d 3f d9 bf 00 00 00 40 a9 6e c0 bf
       -0.3945038914680481 -0.12837710976600647
000270 00 00 00 00 f3 9d 8c bf 00 00 00 40 7b dd b7 3f
       -0.013973139226436615 0.09322328865528107
000280 00 00 00 c0 1c 5f b0 bf 00 00 00 40 a2 ad a1 3f
       -0.06395129859447479 0.034527845680713654
000290 00 00 00 80 47 39 d1 bf 00 00 00 e0 3b 60 b1 bf
       -0.26912105083465576 -0.06787466257810593
0002a0 00 00 00 a0 79 7b b6 3f 00 00 00 00 84 9c 75 bf
       0.0878215804696083 -0.005276218056678772
0002b0 00 00 00 a0 a4 cf b8 3f 00 00 00 00 6d d0 ac bf
       0.09691838175058365 -0.05627766251564026
0002c0 00 00 00 c0 8e d2 d4 3f 00 00 00 20 b4 5d ba 3f
       0.32535141706466675 0.10299230366945267
0002d0 00 00 00 c0 19 37 bd 3f 00 00 00 80 9f 5f f2 3f
       0.11412201821804047 1.1483454704284668
0002e0 00 00 00 40 1c 03 d2 bf 00 00 00 00 ed 2b be 3f
       -0.2814398407936096 0.11785775423049927
0002f0 00 00 00 00 6d 5b ed 3f 00 00 00 00 06 46 93 bf
       0.9174103736877441 -0.018821805715560913
000300 00 00 00 00 a6 36 02 c0 00 00 00 80 3e f7 e4 bf
       -2.276683807373047 -0.6551811695098877
000310 00 00 00 20 5f b8 ef 3f 00 00 00 60 ba 89 e0 bf
       0.9912562966346741 -0.5168125033378601
000320 00 00 00 80 71 73 7e 3f 00 00 00 00 a2 5d c0 bf
       0.007434314116835594 -0.12785744667053223
000330 00 00 00 a0 3b 05 e1 3f 00 00 00 c0 da 02 d7 3f
       0.5318887829780579 0.35954922437667847
000340 00 00 00 e0 f3 3d f2 3f 00 00 00 a0 05 31 f5 3f
       1.1401251554489136 1.3244682550430298
000350 00 00 00 80 b6 50 f6 3f 00 00 00 40 01 b6 f5 bf
       1.3947052955627441 -1.3569347858428955
000360 00 00 00 00 a0 a4 67 3f 00 00 00 60 c1 80 cb bf
       0.0028861165046691895 -0.21486680209636688
000370 00 00 00 80 35 c1 a5 3f 00 00 00 40 1b b1 be bf
       0.04248969256877899 -0.11988992989063263
000380 00 00 00 a0 1e a4 a4 3f 00 00 00 80 24 5d aa bf
       0.04031463339924812 -0.0514918714761734
000390 00 00 00 00 e5 2e 9d 3f 00 00 00 00 e0 95 bc bf
       0.02849920094013214 -0.11166191101074219
0003a0 00 00 00 c0 a2 a0 85 3f 00 00 00 80 35 24 c0 bf
       0.01056029461324215 -0.12610501050949097
0003b0 00 00 00 00 73 90 c3 3f 00 00 00 40 2b 6e b5 bf
       0.15284574031829834 -0.08371229469776154
0003c0 00 00 00 40 7e d0 bc bf 00 00 00 80 d0 a9 bb 3f
       -0.1125563532114029 0.10805991291999817
0003d0 00 00 00 00 90 86 99 3f 00 00 00 00 62 14 a0 bf
       0.024927377700805664 -0.031405508518218994
0003e0 00 00 00 80 bb 38 e1 3f 00 00 00 c0 3f e4 b4 3f
       0.5381753444671631 0.08160780370235443
0003f0 00 00 00 e0 52 50 bb bf 00 00 00 40 a5 08 f1 3f
       -0.10669439285993576 1.0646107196807861
000400 00 00 00 00 ce 89 d0 3f 00 00 00 e0 8f db e0 3f
       0.2584109306335449 0.5268020033836365
000410 00 00 00 20 89 18 e4 3f 00 00 00 80 8f 64 e6 3f
       0.6279950737953186 0.6997754573822021
000420 00 00 00 60 41 42 a8 bf 00 00 00 20 1a 6b d7 3f
       -0.047380488365888596 0.36591199040412903
000430 00 00 00 80 8f 2b db bf 00 00 00 00 6d 4b b0 bf
       -0.4245337247848511 -0.06365090608596802
000440 00 00 00 c0 23 36 e8 3f 00 00 00 a0 e3 fd d4 bf
       0.7566088438034058 -0.327996164560318
000450 00 00 00 80 9a 37 f1 3f 00 00 00 a0 26 5a 02 40
       1.0760750770568848 2.2940189838409424
000460 00 00 00 00 8c ce c1 bf 00 00 00 80 90 f8 b4 bf
       -0.1391158103942871 -0.08191779255867004
000470 00 00 00 80 76 5a f0 3f 00 00 00 00 d6 8e d3 bf
       1.0220856666564941 -0.30559301376342773
000480 00 00 00 e0 8a 1b bf 3f 00 00 00 00 56 f0 c4 bf
       0.12151401489973068 -0.16358447074890137
000490 00 00 00 80 dd 37 d7 3f 00 00 00 40 89 be cc 3f
       0.362784743309021 0.22456470131874084
0004a0 00 00 00 00 b1 82 d2 bf 00 00 00 60 3b 1d d3 3f
       -0.289226770401001 0.29865917563438416
0004b0 00 00 00 40 9e 21 e2 3f 00 00 00 40 f8 a8 d5 3f
       0.5666037797927856 0.33843809366226196
0004c0 00 00 00 80 48 e9 e6 bf 00 00 00 60 b7 4e e6 3f
       -0.7159769535064697 0.6971089243888855
0004d0 00 00 00 a0 75 30 e8 bf 00 00 00 40 e3 af e6 bf
       -0.7559154629707336 -0.7089706659317017
0004e0 00 00 00 80 51 87 cd 3f 00 00 00 c0 a3 39 e8 3f
       0.2306920886039734 0.7570360898971558
0004f0 00 00 00 80 f9 35 c9 bf 00 00 00 80 a5 fc c1 bf
       -0.19695967435836792 -0.14052265882492065
000500 00 00 00 e0 f2 7d ee 3f 00 00 00 80 50 94 de 3f
       0.9528746008872986 0.4778023958206177
000510 00 00 00 20 21 46 c9 3f 00 00 00 80 82 44 6e 3f
       0.19745267927646637 0.003694777376949787
000520 00 00 00 00 23 d4 cb 3f 00 00 00 e0 68 ee c3 bf
       0.21741139888763428 -0.15571318566799164
000530 00 00 00 a0 a0 86 c0 bf 00 00 00 00 87 45 f1 3f
       -0.1291085034608841 1.0794744491577148
000540 00 00 00 c0 17 33 d7 3f 00 00 00 e0 3c e8 ea 3f
       0.36249345541000366 0.8408493399620056
000550 00 00 00 40 85 43 ca 3f 00 00 00 80 b4 31 a5 bf
       0.20518556237220764 -0.04139484465122223
000560 00 00 00 80 65 b0 e6 3f 00 00 00 c0 e7 59 9c 3f
       0.7090327739715576 0.0276867114007473
000570 00 00 00 c0 6e f6 c1 3f 00 00 00 80 43 3b b6 bf
       0.14033302664756775 -0.08684179186820984
000580 00 00 00 00 d2 52 c1 3f 00 00 00 e0 cd ed bf bf
       0.13533997535705566 -0.12472235411405563
000590 00 00 00 00 5d a7 cb 3f 00 00 00 e0 c3 f3 f0 3f
       0.21604502201080322 1.059512972831726
0005a0 00 00 00 40 94 66 c3 bf 00 00 00 80 21 2e c3 bf
       -0.1515679657459259 -0.14984530210494995
0005b0 00 00 00 e0 00 6d be 3f 00 00 00 60 cb 68 c6 bf
       0.11885076016187668 -0.1750730723142624
0005c0 00 00 00 00 da 50 da 3f 00 00 00 80 f5 ac d3 bf
       0.41118478775024414 -0.30743157863616943
0005d0 00 00 00 00 0b ea 56 bf 00 00 00 80 49 7c a6 3f
       -0.0013985736295580864 0.043916985392570496
0005e0 00 00 00 00 e5 05 cf bf 00 00 00 00 ef df 92 bf
       -0.24236738681793213 -0.018432363867759705
0005f0 00 00 00 c0 45 b9 b3 3f 00 00 00 a0 3c 12 c2 bf
       0.07704578340053558 -0.14118154346942902
000600 00 00 00 00 88 5c be bf 00 00 00 00 e0 a9 d3 3f
       -0.11859941482543945 0.30724334716796875
000610 00 00 00 a0 45 7a 84 bf 00 00 00 80 63 2e a1 3f
       -0.009998840279877186 0.033557042479515076
000620 00 00 00 e0 ca fb e2 3f 00 00 00 20 e3 06 9a bf
       0.5932363867759705 -0.025416897609829903
000630 00 00 00 40 25 f6 b4 3f 00 00 00 00 1a af cd 3f
       0.08188088238239288 0.23190617561340332
000640 00 00 00 60 a8 e2 c1 bf 00 00 00 40 38 14 f7 bf
       -0.1397295445203781 -1.4424364566802979
000650 00 00 00 c0 5b 3d f7 bf 00 00 00 00 1e 44 fa 3f
       -1.4524800777435303 1.6416301727294922
000660 00 00 00 a0 14 3e e6 bf 00 00 00 c0 7f e2 d6 3f
       -0.6950781941413879 0.3575744032859802
000670 00 00 00 00 e2 0f f1 bf 00 00 00 c0 84 66 e2 3f
       -1.0663776397705078 0.5750144720077515
000680 00 00 00 40 3c 1e e1 3f 00 00 00 c0 0b 2a f9 3f
       0.5349408388137817 1.5727651119232178
000690 00 00 00 20 61 99 f7 3f 00 00 00 e0 e3 31 f2 3f
       1.474946141242981 1.137180209159851
0006a0 00 00 00 c0 46 25 f3 bf 00 00 00 80 69 e1 d0 bf
       -1.1966006755828857 -0.2637580633163452
0006b0 00 00 00 40 11 97 b3 3f 00 00 00 00 7d 5d d3 bf
       0.07652385532855988 -0.3025810718536377
0006c0 00 00 00 00 df 6b c6 bf 00 00 00 a0 79 04 b3 bf
       -0.17516696453094482 -0.0742870345711708
0006d0 00 00 00 e0 1d 9f c3 3f 00 00 00 60 2e 3a a1 3f
       0.15329335629940033 0.03364701196551323
0006e0 00 00 00 00 63 a1 be bf 00 00 00 60 25 de ab 3f
       -0.11965006589889526 0.05442921444773674
0006f0 00 00 00 00 38 a7 cb 3f 00 00 00 40 b9 4a c9 3f
       0.21604061126708984 0.19759288430213928
000700 00 00 00 00 7a 1a 88 3f 00 00 00 c0 39 15 c3 bf
       0.01176925003528595 -0.14908525347709656
000710 00 00 00 00 97 fb b5 3f 00 00 00 20 b3 bd b8 bf
       0.08587020635604858 -0.09664458781480789
000720 00 00 00 00 22 41 84 3f 00 00 00 40 ff 18 df 3f
       0.009889855980873108 0.4859007000923157
000730 00 00 00 c0 2f 40 93 bf 00 00 00 a0 1e f8 c9 bf
       -0.018799539655447006 -0.2028845101594925
000740 00 00 00 c0 5f 70 f5 3f 00 00 00 60 0e 6d b9 3f
       1.339935064315796 0.09932031482458115
000750 00 00 00 a0 73 5c d2 3f 00 00 00 00 60 e8 f2 3f
       0.2868928015232086 1.181732177734375
000760 00 00 00 a0 d4 19 db 3f 00 00 00 e0 1f 5f a5 bf
       0.42345157265663147 -0.04174136742949486
000770 00 00 00 a0 65 4e e3 bf 00 00 00 40 cd 70 d0 bf
       -0.6033199429512024 -0.2568848729133606
000780 00 00 00 a0 8d 75 b2 bf 00 00 00 00 3e e3 8d 3f
       -0.07210621982812881 0.014593586325645447
000790 00 00 00 40 c7 9a d5 bf 00 00 00 60 e9 7a ea 3f
       -0.337571918964386 0.8275038599967957
0007a0 00 00 00 40 ce 79 fe 3f 00 00 00 a0 fe 81 c2 bf
       1.9047377109527588 -0.14459212124347687
0007b0 00 00 00 60 32 7c dd bf 00 00 00 40 d1 45 f1 3f
       -0.46070536971092224 1.079545259475708
0007c0 00 00 00 60 9b 07 e3 bf 00 00 00 00 db 5b 93 bf
       -0.5946785807609558 -0.018905088305473328
0007d0 00 00 00 20 af 90 df bf 00 00 00 00 70 f4 be 3f
       -0.49320581555366516 0.12091732025146484
0007e0 00 00 00 00 0a 70 9c bf 00 00 00 00 bc 16 c4 bf
       -0.02777114510536194 -0.15694379806518555
0007f0 00 00 00 80 5d d8 e8 3f 00 00 00 e0 e8 69 a1 bf
       0.776411771774292 -0.034011151641607285

betas f8 [5, 41]
000000 00 00 00 e0 86 5e e8 3f 00 00 00 60 0e 5c e9 3f
       0.7615389227867126 0.7924873232841492
000010 00 00 00 80 36 4e 05 c0 00 00 00 00 25 4d f6 bf
       -2.6631898880004883 -1.393834114074707
000020 00 00 00 a0 0b 8e aa 3f 00 00 00 60 f5 24 07 c0
       0.05186497047543526 -2.8930461406707764
000030 00 00 00 c0 7a 89 21 40 00 00 00 40 3d c7 10 40
       8.768514633178711 4.1945695877075195
000040 00 00 00 40 91 c2 05 40 00 00 00 60 38 b0 f4 3f
       2.720003604888916 1.2930225133895874
000050 00 00 00 e0 2b ad ef bf 00 00 00 80 63 7f 02 c0
       -0.9898890852928162 -2.312201499938965
000060 00 00 00 e0 8b 76 fa bf 00 00 00 a0 00 7b ec 3f
       -1.6539419889450073 0.8900149464607239
000070 00 00 00 00 9c 73 02 40 00 00 00 40 c1 96 fe bf
       2.3064498901367188 -1.9118053913116455
000080 00 00 00 00 65 1f 11 c0 00 00 00 20 72 16 26 c0
       -4.280658721923828 -11.043839454650879
000090 00 00 00 e0 58 d4 1a c0 00 00 00 20 6c 81 fa 3f
       -6.707370281219482 1.6565972566604614
0000a0 00 00 00 40 f3 4f e8 bf 00 00 00 20 49 e7 17 c0
       -0.7597595453262329 -5.975864887237549
0000b0 00 00 00 c0 ac 8f e9 bf 00 00 00 20 27 a6 23 c0
       -0.7987884283065796 -9.824517250061035
0000c0 00 00 00 20 02 5f e5 3f 00 00 00 c0 40 92 fc bf
       0.6678476929664612 -1.7857062816619873
0000d0 00 00 00 c0 bc 5a 4e 3f 00 00 00 a0 dc 3f 44 3f
       0.0009263440733775496 0.0006179644842632115
0000e0 00 00 00 20 65 1e 61 bf 00 00 00 00 2f db 58 bf
       -0.0020896887872368097 -0.0015171011909842491
0000f0 00 00 00 80 c4 9d 46 3f 00 00 00 60 06 7f 56 bf
       0.0006901940796524286 -0.0013730585342273116
000100 00 00 00 80 c7 97 5c bf 00 00 00 c0 73 87 55 bf
       -0.0017451713792979717 -0.0013140325900167227
000110 00 00 00 00 f2 ad 60 bf 00 00 00 40 60 e7 45 3f
       -0.0020360685884952545 0.0006684513064101338
000120 00 00 00 00 68 43 1f 3f 00 00 00 60 a9 d4 62 3f
       0.0001192600466310978 0.0022986705880612135
000130 00 00 00 e0 95 8e 58 3f 00 00 00 e0 89 3f 2f bf
       0.0014988387702032924 -0.0002384048275416717
000140 00 00 00 20 af e5 54 bf 00 00 00 e0 7d b0 e6 3f
       -0.0012754640774801373 0.7090443968772888
000150 00 00 00 40 6c 75 fb 3f 00 00 00 c0 5a c4 0c c0
       1.716167688369751 -3.5958762168884277
000160 00 00 00 60 bd af 02 c0 00 00 00 a0 29 8c b4 3f
       -2.335810422897339 0.08026371151208878
000170 00 00 00 80 82 c1 16 c0 00 00 00 e0 32 d1 0d 40
       -5.688974380493164 3.7271478176116943
000180 00 00 00 a0 1b 30 0e 40 00 00 00 40 c6 11 dd 3f
       3.7734901905059814 0.4542098641395569
000190 00 00 00 a0 da ff 02 40 00 00 00 c0 51 db ea bf
       2.3749287128448486 -0.8392723798751831
0001a0 00 00 00 a0 41 92 03 40 00 00 00 c0 3c 15 16 40
       2.4464142322540283 5.520739555358887
0001b0 00 00 00 e0 03 fc 0e c0 00 00 00 80 e0 b0 fe 3f
       -3.873054265975952 1.9181828498840332
0001c0 00 00 00 40 42 df 06 40 00 00 00 60 36 f0 0a c0
       2.859013080596924 -3.367291212081909
0001d0 00 00 00 40 ec 70 27 c0 00 00 00 60 95 12 13 c0
       -11.720552444458008 -4.768147945404053
0001e0 00 00 00 60 ae 70 12 c0 00 00 00 20 51 bf eb bf
       -4.610040187835693 -0.8671041131019592
0001f0 00 00 00 40 c2 ef 10 c0 00 00 00 00 87 c3 f3 bf
       -4.234139442443848 -1.2352361679077148
000200 00 00 00 80 da 24 25 c0 00 00 00 40 4b b5 f0 3f
       -10.571979522705078 1.0442612171173096
000210 00 00 00 80 d0 46 10 c0 00 00 00 c0 43 15 49 3f
       -4.069154739379883 0.0007654743967577815
000220 00 00 00 40 ea 9b 42 3f 00 00 00 80 a9 0b 62 bf
       0.0005679029272869229 -0.002202826552093029
000230 00 00 00 80 71 da 57 bf 00 00 00 20 ce 24 41 3f
       -0.0014558895491063595 0.0005231863469816744
000240 00 00 00 00 b3 7c 5c bf 00 00 00 c0 a3 b2 55 bf
       -0.00173871498554945 -0.0013243292924016714
000250 00 00 00 80 89 2f 5f bf 00 00 00 40 4c a8 5c bf
       -0.001903423573821783 -0.001749109709635377
000260 00 00 00 00 f2 61 43 3f 00 00 00 40 8d 74 34 3f
       0.0005915099754929543 0.0003121228073723614
000270 00 00 00 00 8f bb 63 3f 00 00 00 e0 2a 3d 5d 3f
       0.0024087708443403244 0.001784602995030582
000280 00 00 00 60 39 17 22 3f 00 00 00 40 44 4b 58 bf
       0.0001380212343065068 -0.0014827887061983347
000290 00 00 00 00 b1 cb c6 3f 00 00 00 20 ed b9 0f 40
       0.1780911684036255 3.9657843112945557
0002a0 00 00 00 00 a1 d1 09 c0 00 00 00 40 9c 56 0d c0
       -3.227357864379883 -3.667290210723877
0002b0 00 00 00 c0 62 c3 f8 bf 00 00 00 a0 ed 78 21 c0
       -1.5477015972137451 -8.736187934875488
0002c0 00 00 00 c0 64 7a 17 40 00 00 00 80 43 93 fd bf
       5.869524955749512 -1.8484530448913574
0002d0 00 00 00 c0 f6 3e 14 40 00 00 00 20 69 e4 ef bf
       5.061488151550293 -0.9966321587562561
0002e0 00 00 00 20 26 b6 c0 bf 00 00 00 e0 3a b6 0b c0
       -0.13055874407291412 -3.463979482650757
0002f0 00 00 00 c0 f3 57 12 c0 00 00 00 40 c1 44 00 40
       -4.585890769958496 2.033571720123291
000300 00 00 00 a0 53 7e f9 bf 00 00 00 e0 fd 00 04 c0
       -1.5933414697647095 -2.5004842281341553
000310 00 00 00 c0 6b 45 0b c0 00 00 00 60 f4 66 29 c0
       -3.4088969230651855 -12.701083183288574
000320 00 00 00 40 74 00 27 c0 00 00 00 20 d0 e0 13 40
       -11.500886917114258 4.969543933868408
000330 00 00 00 60 80 db ec bf 00 00 00 c0 8e 7a 1e c0
       -0.9017946124076843 -7.619685173034668
000340 00 00 00 60 a2 cd f1 bf 00 00 00 00 ba b2 21 c0
       -1.1127036809921265 -8.849075317382812
000350 00 00 00 a0 c3 d2 fa bf 00 00 00 a0 6b 6c 10 c0
       -1.676456093788147 -4.105879306793213
000360 00 00 00 c0 13 0c 50 3f 00 00 00 a0 04 88 54 3f
       0.0009794419165700674 0.00125313235912472
000370 00 00 00 00 79 36 5b bf 00 00 00 00 8a 4e 50 bf
       -0.0016609365120530128 -0.0009952876716852188
000380 00 00 00 60 fa e2 49 3f 00 00 00 40 c9 ca 61 bf
       0.0007899973425082862 -0.002171891275793314
000390 00 00 00 e0 00 c9 5e bf 00 00 00 00 4d 1a 5e bf
       -0.0018789776368066669 -0.001837325282394886
0003a0 00 00 00 a0 d8 45 58 bf 00 00 00 80 75 75 53 3f
       -0.0014814963797107339 0.0011876723729074001
0003b0 00 00 00 40 68 62 28 3f 00 00 00 00 6c 09 66 3f
       0.0001860382326412946 0.002690039575099945
0003c0 00 00 00 e0 b1 fd 60 3f 00 00 00 80 58 c2 01 bf
       0.00207409611903131 -3.3872915082611144e-05
0003d0 00 00 00 a0 56 36 52 bf 00 00 00 a0 5a 32 db 3f
       -0.0011115880915895104 0.4249483644962311
0003e0 00 00 00 e0 58 ae f6 3f 00 00 00 80 07 4c 08 c0
       1.4175652265548706 -3.037123680114746
0003f0 00 00 00 a0 05 2b e7 bf 00 00 00 60 4a 11 e5 3f
       -0.7240017056465149 0.6583606600761414
000400 00 00 00 40 21 9b 18 c0 00 00 00 80 a3 d2 06 40
       -6.151494026184082 2.852850914001465
000410 00 00 00 00 5d e6 1c 40 00 00 00 a0 a1 a1 fd bf
       7.224964141845703 -1.8519607782363892
000420 00 00 00 60 15 24 13 40 00 00 00 c0 67 4d 04 c0
       4.785237789154053 -2.5377955436706543
000430 00 00 00 e0 c9 df 05 c0 00 00 00 40 b6 db 04 40
       -2.734271764755249 2.60728120803833
000440 00 00 00 00 6b c1 07 c0 00 00 00 80 d7 da 18 40
       -2.969442367553711 6.213712692260742
000450 00 00 00 20 16 72 f3 3f 00 00 00 40 cf 63 17 c0
       1.2153531312942505 -5.847470283508301
000460 00 00 00 60 77 87 28 c0 00 00 00 80 32 5f c5 3f
       -12.264582633972168 0.16696768999099731
000470 00 00 00 40 a9 ef 0b c0 00 00 00 e0 ef 42 e6 bf
       -3.4920220375061035 -0.695671021938324
000480 00 00 00 e0 1f 48 0b c0 00 00 00 60 72 8a f0 bf
       -3.410217046737671 -1.033800482749939
000490 00 00 00 80 0c f0 24 c0 00 00 00 40 85 d0 f4 3f
       -10.46884536743164 1.3009083271026611
0004a0 00 00 00 80 c9 1b 10 c0 00 00 00 40 e9 7b 36 3f
       -4.027135848999023 0.0003430790384300053
0004b0 00 00 00 60 ad dd 42 3f 00 00 00 40 b2 9b 66 bf
       0.0005757423932664096 -0.002759788651019335
0004c0 00 00 00 a0 e4 89 54 bf 00 00 00 20 e0 2e 4c 3f
       -0.0012535793939605355 0.0008600801811553538
0004d0 00 00 00 e0 11 41 5d bf 00 00 00 60 4f c3 5b bf
       -0.0017855333862826228 -0.0016945147654041648
0004e0 00 00 00 60 c9 a4 60 bf 00 00 00 80 52 18 62 bf
       -0.002031701384112239 -0.0022088633850216866
0004f0 00 00 00 a0 87 d2 50 3f 00 00 00 c0 75 4e 3b bf
       0.0010267567122355103 -0.0004166638827882707
000500 00 00 00 e0 04 f6 5f 3f 00 00 00 20 ab 5a 5e 3f
       0.0019507453544065356 0.0018526717321947217
000510 00 00 00 00 19 61 ff be 00 00 00 a0 fd ed 51 bf
       -2.9925620765425265e-05 -0.0010943390661850572
000520 00 00 00 e0 66 fc d0 3f 00 00 00 80 7d c7 f3 3f
       0.2654053866863251 1.236203670501709
000530 00 00 00 40 13 c6 02 c0 00 00 00 00 ab c8 e4 bf
       -2.3467164039611816 -0.6494956016540527
000540 00 00 00 00 d6 0c c4 3f 00 00 00 80 45 3e 10 c0
       0.15664172172546387 -4.060811996459961
000550 00 00 00 60 da 98 22 40 00 00 00 80 39 7a e5 3f
       9.298541069030762 0.6711699962615967
000560 00 00 00 20 d0 ac 0b 40 00 00 00 80 72 c4 0c c0
       3.459381341934204 -3.595921516418457
000570 00 00 00 e0 15 65 0d c0 00 00 00 e0 65 ce 13 c0
       -3.6743581295013428 -4.9515604972839355
000580 00 00 00 00 6c c0 02 c0 00 00 00 a0 02 bd ec 3f
       -2.3439559936523438 0.8980725407600403
000590 00 00 00 20 83 fd 02 40 00 00 00 20 59 49 06 c0
       2.3737852573394775 -2.7858145236968994
0005a0 00 00 00 80 e3 eb 13 c0 00 00 00 00 c7 cf 29 c0
       -4.98036003112793 -12.905815124511719
0005b0 00 00 00 a0 c3 41 1d c0 00 00 00 80 43 d0 05 40
       -7.314222812652588 2.726691246032715
0005c0 00 00 00 00 b3 e6 e0 bf 00 00 00 c0 13 ae 19 c0
       -0.5281615257263184 -6.419997215270996
0005d0 00 00 00 40 a3 15 e9 bf 00 00 00 e0 85 c3 1f c0
       -0.7838913202285767 -7.9409403800964355
0005e0 00 00 00 80 2a fd e5 bf 00 00 00 a0 8a f1 00 c0
       -0.6871540546417236 -2.1179401874542236
0005f0 00 00 00 e0 46 8a 54 3f 00 00 00 a0 95 4a 47 3f
       0.0012536708964034915 0.0007107954588718712
000600 00 00 00 c0 be 50 60 bf 00 00 00 00 78 9f 4f bf
       -0.001991627272218466 -0.0009650550782680511
000610 00 00 00 00 03 9e 50 3f 00 00 00 20 fe a5 5d bf
       0.0010142354294657707 -0.001809595269151032
000620 00 00 00 40 cc ff 54 bf 00 00 00 40 92 c3 5e bf
       -0.0012816900853067636 -0.0018776825163513422
000630 00 00 00 40 1e 00 59 bf 00 00 00 20 f0 6f 41 3f
       -0.0015259070787578821 0.0005321428761817515
000640 00 00 00 80 8e ca 20 3f 00 00 00 00 5f 26 6b 3f
       0.0001281069708056748 0.0033141952008008957
000650 00 00 00 20 19 2d 5f 3f 00 00 00 c0 4a d7 11 3f
       0.0019028420792892575 6.805795419495553e-05
000660 00 00 00 00 8f 93 5b bf
       -0.0016831299290060997

camera f8 [5, 3]
000000 00 00 00 20 cf 53 0b c0 00 00 00 00 00 00 5c 40
       -3.4159224033355713 112.0
000010 00 00 00 00 00 00 5c 40 00 00 00 60 4c 94 0b c0
       112.0 -3.447411298751831
000020 00 00 00 00 00 00 5c 40 00 00 00 00 00 00 5c 40
       112.0 112.0
000030 00 00 00 40 6a 4d 09 c0 00 00 00 00 00 00 5c 40
       -3.1628003120422363 112.0
000040 00 00 00 00 00 00 5c 40 00 00 00 c0 ff 42 0a c0
       112.0 -3.282714366912842
000050 00 00 00 00 00 00 5c 40 00 00 00 00 00 00 5c 40
       112.0 112.0
000060 00 00 00 a0 b7 40 0a c0 00 00 00 00 00 00 5c 40
       -3.2816002368927 112.0
000070 00 00 00 00 00 00 5c 40
       112.0

joints3d f8 [5, 26, 3]
000000 00 00 00 40 21 21 c5 bf 00 00 00 e0 7d d6 cb bf
       -0.16507354378700256 -0.2174832671880722
000010 00 00 00 c0 9f 77 0f 40 00 00 00 40 60 36 c7 bf
       3.933410167694092 -0.18134692311286926
000020 00 00 00 20 45 74 ca bf 00 00 00 40 bd 2c 10 40
       -0.2066732794046402 4.0436906814575195
000030 00 00 00 80 b7 fc d3 bf 00 00 00 40 37 0d b7 bf
       -0.31229960918426514 -0.09004540741443634
000040 00 00 00 40 7e a4 0f 40 00 00 00 80 0d 77 c5 3f
       3.9553189277648926 0.16769570112228394
000050 00 00 00 40 aa 02 c7 bf 00 00 00 40 e7 76 12 40
       -0.17976883053779602 4.616116523742676
000060 00 00 00 40 ab 2b d5 3f 00 00 00 a0 88 78 c3 bf
       0.33079034090042114 -0.15211589634418488
000070 00 00 00 00 85 f2 11 40 00 00 00 20 35 97 c8 3f
       4.486835479736328 0.19211448729038239
000080 00 00 00 e0 1b 01 d1 bf 00 00 00 60 c1 12 15 40
       -0.26569268107414246 5.26831579208374
000090 00 00 00 80 6a 99 d3 3f 00 00 00 e0 73 08 c3 bf
       0.3062387704849243 -0.1486954540014267
0000a0 00 00 00 c0 2f 2c 15 40 00 00 00 c0 1d f9 cb 3f
       5.293150901794434 0.21853992342948914
0000b0 00 00 00 00 d2 3b bb bf 00 00 00 00 99 85 13 40
       -0.10638153553009033 4.880466461181641
0000c0 00 00 00 60 59 89 c9 3f 00 00 00 c0 35 b7 be 3f
       0.1995040625333786 0.11998306214809418
0000d0 00 00 00 80 ac e5 11 40 00 00 00 60 e2 55 ab 3f
       4.47429084777832 0.053389620035886765
0000e0 00 00 00 00 6f 9f af 3f 00 00 00 80 9f e0 11 40
       0.061763256788253784 4.469358444213867
0000f0 00 00 00 c0 92 57 ca 3f 00 00 00 20 c8 fa c0 bf
       0.20579752326011658 -0.13265325129032135
000100 00 00 00 40 30 fa 13 40 00 00 00 60 a5 c7 cf 3f
       4.994324684143066 0.24828021228313446
000110 00 00 00 00 20 43 ba bf 00 00 00 a0 a3 00 14 40
       -0.10258674621582031 5.000624179840088
000120 00 00 00 20 d2 05 c9 3f 00 00 00 00 b7 b2 a4 3f
       0.19549013674259186 0.04042598605155945
000130 00 00 00 c0 43 ec 10 40 00 00 00 40 cc 28 a5 3f
       4.230727195739746 0.04132688790559769
000140 00 00 00 80 87 5b 89 bf 00 00 00 40 38 15 11 40
       -0.01238160952925682 4.270722389221191
000150 00 00 00 40 d6 6b c5 3f 00 00 00 c0 0e 95 c4 bf
       0.16735342144966125 -0.16079887747764587
000160 00 00 00 60 ba 51 12 40 00 00 00 40 e4 02 d3 3f
       4.579812526702881 0.29705148935317993
000170 00 00 00 60 f2 63 c1 bf 00 00 00 40 94 f0 11 40
       -0.13586263358592987 4.484940528869629
000180 00 00 00 80 41 94 c8 3f 00 00 00 00 7e a6 ca bf
       0.19202440977096558 -0.2082059383392334
000190 00 00 00 40 9e ac 14 40 00 00 00 40 68 de d0 3f
       5.168572425842285 0.26357465982437134
0001a0 00 00 00 20 25 25 be bf 00 00 00 80 dc b6 14 40
       -0.11775428801774979 5.17857551574707
0001b0 00 00 00 80 d6 6a ac bf 00 00 00 00 3c 98 79 3f
       -0.05550260841846466 0.006248697638511658
0001c0 00 00 00 40 f1 b3 0f 40 00 00 00 60 2f 04 d4 3f
       3.962862491607666 0.31275543570518494
0001d0 00 00 00 40 2a 93 7a 3f 00 00 00 60 bb 5f 15 40
       0.006488003768026829 5.3434882164001465
0001e0 00 00 00 00 78 76 88 bf 00 00 00 00 af 42 c3 bf
       -0.011944711208343506 -0.1504725217819214
0001f0 00 00 00 60 2f 8e 0f 40 00 00 00 00 d8 6c 8b bf
       3.9444262981414795 -0.013391196727752686
000200 00 00 00 00 be 05 c1 bf 00 00 00 c0 ce 0d 10 40
       -0.13298773765563965 4.013484001159668
000210 00 00 00 c0 e9 6e cb bf 00 00 00 c0 f6 d6 b2 3f
       -0.2143222987651825 0.07359258830547333
000220 00 00 00 20 5e ad 0f 40 00 00 00 c0 f1 52 cb bf
       3.9596521854400635 -0.2134687602519989
000230 00 00 00 80 c9 6a b3 3f 00 00 00 80 c4 b6 0f 40
       0.07584819197654724 3.9642419815063477
000240 00 00 00 a0 0b 32 d9 bf 00 00 00 60 9b 7c cd bf
       -0.39367952942848206 -0.23036520183086395
000250 00 00 00 40 10 ce 0f 40 00 00 00 80 14 85 d1 3f
       3.975616931915283 0.2737475633621216
000260 00 00 00 60 7b ea 8d bf 00 00 00 60 28 96 14 40
       -0.01460739504545927 5.1466383934021
000270 00 00 00 c0 46 76 d3 bf 00 00 00 00 82 fb 9a bf
       -0.30409401655197144 -0.026350051164627075
000280 00 00 00 20 6a 57 11 40 00 00 00 80 f6 5e d1 bf
       4.3353657722473145 -0.27142107486724854
000290 00 00 00 00 2b cc 85 bf 00 00 00 a0 66 ad 11 40
       -0.010643325746059418 4.419336795806885
0002a0 00 00 00 80 fc 18 d6 bf 00 00 00 00 b0 7c c3 3f
       -0.34527504444122314 0.15224266052246094
0002b0 00 00 00 40 a2 c3 10 40 00 00 00 a0 ab d7 ca 3f
       4.191048622131348 0.20970673859119415
0002c0 00 00 00 c0 40 d5 cb bf 00 00 00 60 23 69 13 40
       -0.2174454629421234 4.8526740074157715
0002d0 00 00 00 c0 cf 8a b8 bf 00 00 00 c0 6f 56 d0 bf
       -0.09586809575557709 -0.2552756667137146
0002e0 00 00 00 e0 1b 9d 11 40 00 00 00 c0 18 9a cf 3f
       4.403426647186279 0.24689015746116638
0002f0 00 00 00 a0 bd 69 d2 bf 00 00 00 80 57 fd 15 40
       -0.28770390152931213 5.497404098510742
000300 00 00 00 40 00 be ce 3f 00 00 00 e0 1d 82 ce bf
       0.2401733696460724 -0.23834584653377533
000310 00 00 00 60 98 0c 16 40 00 00 00 60 3f 0a c8 3f
       5.51230001449585 0.18781273066997528
000320 00 00 00 20 88 f8 c6 bf 00 00 00 60 b7 90 14 40
       -0.1794595867395401 5.141324520111084
000330 00 00 00 e0 be 73 c5 3f 00 00 00 40 79 38 b7 3f
       0.167594775557518 0.09070546925067902
000340 00 00 00 80 11 cf 12 40 00 00 00 c0 12 4d a3 bf
       4.702215194702148 -0.03769739717245102
000350 00 00 00 00 68 e7 7a bf 00 00 00 c0 7b a2 12 40
       -0.006568342447280884 4.658675193786621
000360 00 00 00 80 40 dd ca 3f 00 00 00 e0 ab 86 ca bf
       0.20987707376480103 -0.20723484456539154
000370 00 00 00 e0 75 e5 14 40 00 00 00 00 91 bc c8 3f
       5.2240824699401855 0.19325459003448486
000380 00 00 00 60 c4 ad c9 bf 00 00 00 a0 35 ec 14 40
       -0.20061545073986053 5.230673313140869
000390 00 00 00 c0 bc c0 c6 3f 00 00 00 20 f8 22 a0 3f
       0.1777568757534027 0.03151679411530495
0003a0 00 00 00 a0 09 e8 11 40 00 00 00 00 51 af 88 bf
       4.476599216461182 -0.012053139507770538
0003b0 00 00 00 80 4d ae 92 bf 00 00 00 00 2e 45 12 40
       -0.018243037164211273 4.567558288574219
0003c0 00 00 00 20 0d d8 cb 3f 00 00 00 a0 a8 8f c3 bf
       0.21753086149692535 -0.1528216153383255
0003d0 00 00 00 40 83 5f 13 40 00 00 00 00 71 5e b8 bf
       4.843274116516113 -0.09519106149673462
0003e0 00 00 00 00 3d 3f cb bf 00 00 00 80 87 d0 11 40
       -0.2128673791885376 4.453641891479492
0003f0 00 00 00 00 2b 27 cc 3f 00 00 00 00 53 74 cf bf
       0.21994531154632568 -0.24573743343353271
000400 00 00 00 80 95 8c 15 40 00 00 00 80 62 74 ca 3f
       5.387289047241211 0.20667678117752075
000410 00 00 00 c0 c0 68 cc bf 00 00 00 20 9d 87 15 40
       -0.2219468057155609 5.382435321807861
000420 00 00 00 a0 06 aa c3 bf 00 00 00 a0 a5 a8 b3 3f
       -0.15362627804279327 0.07679209858179092
000430 00 00 00 00 1d 23 11 40 00 00 00 e0 78 29 d3 3f
       4.284290313720703 0.2994062602519989
000440 00 00 00 80 60 74 d0 bf 00 00 00 00 80 8b 15 40
       -0.2571030855178833 5.38623046875
000450 00 00 00 00 8f 40 c1 bf 00 00 00 80 c8 94 c1 bf
       -0.13478267192840576 -0.13735300302505493
000460 00 00 00 c0 58 1a 11 40 00 00 00 c0 c2 38 b8 bf
       4.275729179382324 -0.09461610019207001
000470 00 00 00 40 18 a8 bf bf 00 00 00 c0 cf 73 11 40
       -0.1236586719751358 4.363097190856934
000480 00 00 00 20 ec ea cf bf 00 00 00 e0 9d 44 c3 3f
       -0.24935676157474518 0.15053151547908783
000490 00 00 00 c0 42 56 11 40 00 00 00 a0 1c a7 cf bf
       4.3342390060424805 -0.2472873479127884
0004a0 00 00 00 00 6f 6d c3 3f 00 00 00 80 05 5d 11 40
       0.15177714824676514 4.340841293334961
0004b0 00 00 00 e0 12 89 d4 bf 00 00 00 a0 ca 53 ba 3f
       -0.32086631655693054 0.10284105688333511
0004c0 00 00 00 20 a8 82 11 40 00 00 00 40 4e e6 cb 3f
       4.377594470977783 0.21796587109565735
0004d0 00 00 00 40 0b 02 ca bf 00 00 00 40 86 4f 15 40
       -0.20318737626075745 5.32766056060791
0004e0 00 00 00 00 d7 2c 96 bf 00 00 00 80 3b cf ca bf
       -0.021655425429344177 -0.20944923162460327
0004f0 00 00 00 80 55 b6 10 40 00 00 00 40 c6 9b b6 bf
       4.178060531616211 -0.08831442892551422
000500 00 00 00 00 87 2e cc bf 00 00 00 40 a1 f2 10 40
       -0.22016990184783936 4.236943244934082
000510 00 00 00 00 e1 96 c5 bf 00 00 00 00 80 32 63 bf
       -0.16866695880889893 -0.002343416213989258
000520 00 00 00 a0 8d 8d 10 40 00 00 00 80 67 5a ad 3f
       4.138235569000244 0.057330355048179626
000530 00 00 00 00 ce 49 c7 bf 00 00 00 c0 ee a5 12 40
       -0.18193984031677246 4.662043571472168
000540 00 00 00 80 11 2a b7 bf 00 00 00 00 4b 25 cb bf
       -0.09048566222190857 -0.2120755910873413
000550 00 00 00 a0 15 c3 11 40 00 00 00 00 0d 7a c6 3f
       4.440512180328369 0.17559969425201416
000560 00 00 00 e0 a1 1d c7 bf 00 00 00 c0 db 70 15 40
       -0.18059180676937103 5.360213279724121
000570 00 00 00 c0 ac ac c5 3f 00 00 00 c0 cb f4 bb bf
       0.1693321168422699 -0.10920403897762299
000580 00 00 00 00 b3 71 15 40 00 00 00 00 5f d5 9b 3f
       5.361034393310547 0.02718113362789154
000590 00 00 00 80 43 66 c3 bf 00 00 00 40 d6 42 14 40
       -0.15155833959579468 5.06527042388916
0005a0 00 00 00 00 cc fc 8e 3f 00 00 00 60 b1 c1 c6 3f
       0.015130609273910522 0.17778603732585907
0005b0 00 00 00 60 6f b5 12 40 00 00 00 40 2e 2c b8 bf
       4.677182674407959 -0.09442414343357086
0005c0 00 00 00 c0 94 64 be 3f 00 00 00 20 e6 75 12 40
       0.11872224509716034 4.615135669708252
0005d0 00 00 00 00 d6 02 ac 3f 00 00 00 40 8c 37 c5 bf
       0.05470913648605347 -0.1657576858997345
0005e0 00 00 00 c0 b7 7e 14 40 00 00 00 00 7d e7 b0 3f
       5.123747825622559 0.06603223085403442
0005f0 00 00 00 e0 0a f6 c2 bf 00 00 00 40 d7 7f 14 40
       -0.14813362061977386 5.124844551086426
000600 00 00 00 00 86 e2 a6 bf 00 00 00 a0 b6 7a c6 3f
       -0.04469698667526245 0.1756199151277542
000610 00 00 00 40 71 b5 11 40 00 00 00 40 e4 08 b5 bf
       4.427189826965332 -0.08216692507266998
000620 00 00 00 40 5b b1 c5 3f 00 00 00 40 a7 bd 11 40
       0.1694749891757965 4.435208320617676
000630 00 00 00 80 be ed a9 3f 00 00 00 60 6b b7 c3 bf
       0.050641968846321106 -0.15403501689434052
000640 00 00 00 40 64 90 12 40 00 00 00 20 c3 ee b6 bf
       4.641007423400879 -0.0895807221531868
000650 00 00 00 c0 39 bf c6 bf 00 00 00 40 53 c0 11 40
       -0.17771074175834656 4.437817573547363
000660 00 00 00 00 2d ba bf 3f 00 00 00 40 de ae c3 bf
       0.12393456697463989 -0.15377405285835266
000670 00 00 00 00 fe f9 14 40 00 00 00 c0 1d ba b8 3f
       5.244132995605469 0.09658990800380707
000680 00 00 00 60 ce 8b ba bf 00 00 00 80 1f fb 14 40
       -0.10369577258825302 5.245237350463867
000690 00 00 00 40 d3 e8 a8 bf 00 00 00 a0 46 64 b9 3f
       -0.0486513152718544 0.09918633848428726
0006a0 00 00 00 c0 b5 f6 10 40 00 00 00 20 ea 91 d1 3f
       4.240927696228027 0.27453091740608215
0006b0 00 00 00 a0 d6 48 cf bf 00 00 00 a0 fd fd 14 40
       -0.24441035091876984 5.248037815093994
0006c0 00 00 00 c0 4b 59 b3 3f 00 00 00 40 c8 4a bf bf
       0.07558129727840424 -0.12223483622074127
0006d0 00 00 00 c0 d1 21 11 40 00 00 00 60 80 42 92 3f
       4.283026695251465 0.01783180795609951
0006e0 00 00 00 60 95 4b c1 bf 00 00 00 a0 63 57 11 40
       -0.13511912524700165 4.335340976715088
0006f0 00 00 00 60 7c f5 c6 bf 00 00 00 c0 19 ae ba 3f
       -0.17936663329601288 0.10421906411647797
000700 00 00 00 e0 a5 8b 10 40 00 00 00 60 cf 45 c6 bf
       4.1363749504089355 -0.1740054339170456
000710 00 00 00 c0 91 a1 bb 3f 00 00 00 60 23 89 10 40
       0.10793410241603851 4.1339240074157715
000720 00 00 00 c0 0f 6e c5 bf 00 00 00 80 d8 5d ca bf
       -0.16742131114006042 -0.20598894357681274
000730 00 00 00 80 c4 69 10 40 00 00 00 40 87 03 c0 3f
       4.103288650512695 0.12510767579078674
000740 00 00 00 40 cf 53 c8 bf 00 00 00 80 ff d5 14 40
       -0.1900576651096344 5.208982467651367
000750 00 00 00 20 c3 d5 c7 bf 00 00 00 00 c4 c4 9b 3f
       -0.1862110048532486 0.027117788791656494
000760 00 00 00 00 53 67 0f 40 00 00 00 60 aa fd c7 bf
       3.9254512786865234 -0.18742875754833221
000770 00 00 00 40 72 18 a4 3f 00 00 00 a0 18 b8 0f 40
       0.039249010384082794 3.964890718460083
000780 00 00 00 00 9e 9d c6 bf 00 00 00 80 f0 51 cc 3f
       -0.17668509483337402 0.22125059366226196
000790 00 00 00 00 e4 6f 0d 40 00 00 00 a0 f6 d3 d5 3f
       3.6796340942382812 0.3410622179508209
0007a0 00 00 00 00 3c af d4 bf 00 00 00 c0 4c 99 11 40
       -0.3231954574584961 4.399706840515137
0007b0 00 00 00 00 57 3d a3 bf 00 00 00 c0 a2 dc ce bf
       -0.03757736086845398 -0.2411082684993744
0007c0 00 00 00 20 7f ae 0f 40 00 00 00 00 8e 27 d6 3f
       3.9602034091949463 0.3461642265319824
0007d0 00 00 00 80 ff b6 d8 bf 00 00 00 80 0e 41 14 40
       -0.38616931438446045 5.063531875610352
0007e0 00 00 00 c0 f4 19 d4 3f 00 00 00 e0 5b f4 d6 bf
       0.3140842318534851 -0.35866448283195496
0007f0 00 00 00 c0 1a 57 14 40 00 00 00 00 d5 e6 d1 3f
       5.0850629806518555 0.27971386909484863
