demo_out/run4/epoch18/params.npz (npz, 10615 bytes, 4 tensors)

pose f8 [5, 105]
0.8706218004226685 1.7615251541137695 -1.340407371520996 0.006230645813047886 -0.07277477532625198 0.2027294784784317 0.1085110455751419 -0.0220407135784626
-0.25468507409095764 -0.21351782977581024 -0.15491458773612976 -0.04594070091843605 -0.10128381103277206 0.28696149587631226 0.024018656462430954 -0.06375709176063538
0.07135967910289764 -0.041997164487838745 0.10944278538227081 0.12537097930908203 0.037943243980407715 -0.546462893486023 -0.08486804366111755 -0.025304507464170456
0.7250964045524597 0.15133842825889587 0.5807115435600281 -0.2714020311832428 -0.4607570767402649 -0.05594230070710182 0.49583834409713745 -0.1714303195476532
-0.1868845820426941 0.30080336332321167 0.11020106822252274 -0.08365035057067871 -0.36985403299331665 0.10117652267217636 0.03531673923134804 -0.09940655529499054
-0.6225388050079346 0.802726149559021 -0.7456624507904053 -0.7430278658866882 0.35270601511001587 0.14494675397872925 -0.37146615982055664 0.02313825860619545
0.36364638805389404 -0.36370450258255005 0.3226417899131775 0.001767229288816452 0.08784815669059753 -0.35698240995407104 -0.021752627566456795 0.27920421957969666
0.25902754068374634 0.18573017418384552 -0.37535732984542847 0.10603772103786469 0.015513472259044647 -0.4465377628803253 0.09979948401451111 0.20043155550956726
0.6931050419807434 0.22178536653518677 -0.14779706299304962 -0.1339666247367859 -0.27323052287101746 -0.1169620156288147 0.14486068487167358 -0.31178662180900574
-0.4949924945831299 -1.034180998802185 -0.23693180084228516 -0.22338071465492249 -0.25599440932273865 -0.011454049497842789 -0.21994999051094055 0.2720305919647217
-0.13864873349666595 0.06202507019042969 -0.13672518730163574 -0.07700064778327942 -0.016373910009860992 -0.16621482372283936 0.08842528611421585 0.01879280060529709
0.13120923936367035 0.005401065573096275 -0.36279094219207764 0.16493794322013855 -0.07957641035318375 -0.40926021337509155 0.48009002208709717 -0.07502485066652298
-0.8028156161308289 0.04137108102440834 0.02193187177181244 -0.8890843391418457 0.5040625929832458 -0.7498217821121216 0.5636016726493835 1.2113680839538574
1.4830905199050903 1.6360220909118652 0.6353373527526855 -1.0488988161087036 0.10652319341897964 0.041990336030721664 -0.23109090328216553 -0.18929150700569153
0.0041649071499705315 0.18232479691505432 0.19710609316825867 -0.1604086458683014 0.16391333937644958 0.10699719935655594 0.19415758550167084 -0.16914542019367218
-0.015911921858787537 0.05456908047199249 -0.011327922344207764 0.016812998801469803 0.18521589040756226 -0.09999259561300278 -0.25621360540390015 0.08766502141952515
-0.004820704460144043 0.6551713347434998 -0.32001549005508423 0.2552025020122528 -0.24130669236183167 -0.0705927312374115 -0.2997167408466339 0.1750093698501587
0.6506139039993286 -0.23962880671024323 0.5309567451477051 -0.037972696125507355 -0.18456697463989258 -0.07898734509944916 0.2728831470012665 -0.10718874633312225
0.05333168804645538 0.05761246755719185 0.5357948541641235 -0.5836582183837891 -0.3288910388946533 0.039773061871528625 -0.3479155898094177 -0.11898846924304962
0.2537044286727905 -0.23891806602478027 -0.5288233160972595 0.03658854961395264 0.2817869782447815 0.2999470829963684 -0.2785399556159973 -0.08405014872550964
0.5026636719703674 0.11003109067678452 0.009045952931046486 -0.3641127943992615 0.24182716012001038 0.3339895009994507 -0.35768330097198486 0.1601337045431137
0.1261540949344635 -0.002860546112060547 0.08886165171861649 0.3972434401512146 0.7524966597557068 -0.06648549437522888 -0.18816766142845154 -0.7605672478675842
0.01926571875810623 -0.09091795980930328 0.09608370065689087 0.032197095453739166 0.00368330255150795 -0.4910128712654114 -0.22155994176864624 0.4628826975822449
0.20380234718322754 -0.5330246090888977 0.3458617031574249 -0.09050311148166656 0.06132711470127106 0.05293913558125496 -0.27393150329589844 0.05017199367284775
0.1003214418888092 0.009458333253860474 -0.20370930433273315 -0.2424708604812622 -0.1922442764043808 0.02266424521803856 -0.04020198807120323 -0.8065543174743652
-0.4964695870876312 0.4220570921897888 -0.23195192217826843 0.015249848365783691 -1.375010371208191 0.622285783290863 -0.8086435198783875 0.4074200987815857
1.2599031925201416 0.8752132654190063 1.369210958480835 1.196380376815796 -1.1351838111877441 -0.06299927830696106 -0.010395660996437073 -0.1312394142150879
-0.016404975205659866 0.015245708636939526 -0.010736428201198578 -0.0029711155220866203 -0.17548663914203644 -0.006429246626794338 0.03140028566122055 0.21820655465126038
0.02151476964354515 0.025503020733594894 0.05428001284599304 -0.004902549088001251 -0.05677430331707001 0.24657279253005981 0.03767449036240578 -0.34245070815086365
0.10893498361110687 0.2571348547935486 0.49943384528160095 -0.035405561327934265 0.34142959117889404 -0.22425872087478638 -0.5322465300559998 -0.4146520793437958
0.48113834857940674 0.004079319536685944 -0.22570304572582245 0.36263108253479004 0.004035258665680885 -0.3131050169467926 -0.4210107624530792 0.06292328238487244
-0.24492979049682617 0.2507489323616028 -0.5060915350914001 0.4106113314628601 -0.5559717416763306 0.02176263928413391 0.21709094941616058 -0.08163698017597198
00000000: 0000 0040 22dc eb3f 0000 0000 352f fc3f
00000010: 0000 0000 4f72 f5bf 0000 0040 4e85 793f
00000020: 0000 0020 5ea1 b2bf 0000 0020 0af3 c93f
00000030: 0000 0040 61c7 bb3f 0000 0040 d791 96bf
00000040: 0000 00a0 c24c d0bf 0000 0060 8d54 cbbf
00000050: 0000 00c0 3dd4 c3bf 0000 0020 8a85 a7bf
00000060: 0000 0060 bced b9bf 0000 00c0 935d d23f
00000070: 0000 00c0 5898 983f 0000 0080 6252 b0bf
00000080: 0000 00c0 a044 b23f 0000 0000 a780 a5bf
00000090: 0000 0040 7104 bc3f 0000 0000 280c c03f
000000a0: 0000 0000 4c6d a33f 0000 00c0 9f7c e1bf
000000b0: 0000 0080 e9b9 b5bf 0000 00c0 6ce9 99bf
000000c0: 0000 0060 fd33 e73f 0000 00c0 0e5f c33f
000000d0: 0000 0060 3095 e23f 0000 00a0 a65e d1bf
000000e0: 0000 0040 0b7d ddbf 0000 0020 78a4 acbf
000000f0: 0000 00c0 d0bb df3f 0000 00c0 6df1 c5bf
00000100: 0000 0080 d5eb c7bf 0000 00c0 5c40 d33f
00000110: 0000 0020 2336 bc3f 0000 0000 1c6a b5bf
00000120: 0000 0040 b0ab d7bf 0000 0060 b4e6 b93f
00000130: 0000 0020 0915 a23f 0000 0040 b572 b9bf
00000140: 0000 0080 d6eb e3bf 0000 00c0 eeaf e93f
00000150: 0000 0080 77dc e7bf 0000 0060 e2c6 e7bf
00000160: 0000 0040 bc92 d63f 0000 0080 9d8d c23f
00000170: 0000 0000 1ac6 d7bf 0000 0040 8eb1 973f
00000180: 0000 0080 fb45 d73f 0000 0040 ef46 d7bf
00000190: 0000 00c0 29a6 d43f 0000 0000 4cf4 5c3f
000001a0: 0000 0080 377d b63f 0000 00c0 ccd8 d6bf
000001b0: 0000 0020 5246 96bf 0000 0060 7bde d13f
000001c0: 0000 0040 e893 d03f 0000 00a0 01c6 c73f
000001d0: 0000 00c0 da05 d8bf 0000 00c0 4925 bb3f
000001e0: 0000 0000 87c5 8f3f 0000 0020 1394 dcbf
000001f0: 0000 0080 758c b93f 0000 00c0 bda7 c93f
00000200: 0000 00a0 ea2d e63f 0000 0080 7663 cc3f
00000210: 0000 00a0 03eb c2bf 0000 0080 d125 c1bf
00000220: 0000 00e0 9b7c d1bf 0000 0000 39f1 bdbf
00000230: 0000 0080 cb8a c23f 0000 00e0 4ff4 d3bf
00000240: 0000 0000 f5ad dfbf 0000 0060 018c f0bf
00000250: 0000 0000 c853 cebf 0000 0040 bd97 ccbf
00000260: 0000 0060 3662 d0bf 0000 0080 3875 87bf
00000270: 0000 0040 5227 ccbf 0000 0000 f368 d13f
00000280: 0000 00e0 3dbf c1bf 0000 0000 c0c1 af3f
00000290: 0000 0000 3680 c1bf 0000 0080 50b6 b3bf
000002a0: 0000 0080 52c4 90bf 0000 0000 8746 c5bf
000002b0: 0000 0020 0aa3 b63f 0000 0080 6b3e 933f
000002c0: 0000 00e0 76cb c03f 0000 0080 6d1f 763f
000002d0: 0000 0080 f737 d7bf 0000 00c0 af1c c53f
000002e0: 0000 00a0 1e5f b4bf 0000 00c0 5131 dabf
000002f0: 0000 0080 cbb9 de3f 0000 0020 d434 b3bf
00000300: 0000 0060 aab0 e9bf 0000 0020 972e a53f
00000310: 0000 0000 4f75 963f 0000 0000 6173 ecbf
00000320: 0000 00e0 4721 e03f 0000 0040 8afe e7bf
00000330: 0000 0060 0609 e23f 0000 0080 c361 f33f
00000340: 0000 0020 bdba f73f 0000 0080 252d fa3f
00000350: 0000 0000 af54 e43f 0000 0020 4ac8 f0bf
00000360: 0000 00a0 1a45 bb3f 0000 00e0 c17f a53f
00000370: 0000 0000 6394 cdbf 0000 0040 b43a c8bf
00000380: 0000 00c0 380f 713f 0000 0040 6b56 c73f
00000390: 0000 00c0 c53a c93f 0000 0040 4588 c4bf
000003a0: 0000 00c0 1cfb c43f 0000 0020 2b64 bb3f
000003b0: 0000 00e0 27da c83f 0000 00a0 8ea6 c5bf
000003c0: 0000 0000 374b 90bf 0000 0080 7af0 ab3f
000003d0: 0000 0000 1833 87bf 0000 0040 6d37 913f
000003e0: 0000 0080 27b5 c73f 0000 0060 1d99 b9bf
000003f0: 0000 00c0 cd65 d0bf 0000 0000 3771 b63f
00000400: 0000 0000 e0be 73bf 0000 00e0 29f7 e43f
00000410: 0000 0040 227b d4bf 0000 00e0 3c55 d03f
00000420: 0000 0040 23e3 cebf 0000 0080 5d12 b2bf
00000430: 0000 0020 8f2e d3bf 0000 0000 b566 c63f
00000440: 0000 0040 d4d1 e43f 0000 0020 28ac cebf
00000450: 0000 0000 99fd e03f 0000 0040 2871 a3bf
00000460: 0000 0000 e49f c7bf 0000 00c0 8338 b4bf
00000470: 0000 00e0 ea76 d13f 0000 00c0 b870 bbbf
00000480: 0000 0080 4a4e ab3f 0000 00a0 617f ad3f
00000490: 0000 0040 3b25 e13f 0000 0000 54ad e2bf
000004a0: 0000 0000 8d0c d5bf 0000 0080 225d a43f
000004b0: 0000 00c0 3f44 d6bf 0000 0040 0776 bebf
000004c0: 0000 0080 b13c d03f 0000 0000 de94 cebf
000004d0: 0000 00e0 1eec e0bf 0000 0000 bcbb a23f
000004e0: 0000 0040 cc08 d23f 0000 0040 5532 d33f
000004f0: 0000 0040 99d3 d1bf 0000 0080 4f84 b5bf
00000500: 0000 0020 d215 e03f 0000 0060 ff2a bc3f
00000510: 0000 0040 af86 823f 0000 00c0 9f4d d7bf
00000520: 0000 0040 31f4 ce3f 0000 0080 1560 d53f
00000530: 0000 0080 48e4 d6bf 0000 00e0 427f c43f
00000540: 0000 0040 d125 c03f 0000 0000 006f 67bf
00000550: 0000 0020 a3bf b63f 0000 00c0 6f6c d93f
00000560: 0000 00e0 7314 e83f 0000 0080 3105 b1bf
00000570: 0000 00c0 e015 c8bf 0000 0020 9156 e8bf
00000580: 0000 0080 64ba 933f 0000 0040 6646 b7bf
00000590: 0000 0000 f198 b83f 0000 0040 237c a03f
000005a0: 0000 0000 722c 6e3f 0000 0040 c16c dfbf
000005b0: 0000 0080 135c ccbf 0000 00c0 de9f dd3f
000005c0: 0000 0000 3216 ca3f 0000 00a0 890e e1bf
000005d0: 0000 0020 9922 d63f 0000 0040 362b b7bf
000005e0: 0000 0080 4466 af3f 0000 00a0 d61a ab3f
000005f0: 0000 0000 1888 d1bf 0000 00c0 24b0 a93f
00000600: 0000 0080 aaae b93f 0000 0000 e45e 833f
00000610: 0000 0080 2513 cabf 0000 0000 4909 cfbf
00000620: 0000 00e0 759b c8bf 0000 00c0 4b35 973f
00000630: 0000 00e0 5a95 a4bf 0000 0000 4bcf e9bf
00000640: 0000 0060 28c6 dfbf 0000 00c0 fb02 db3f
00000650: 0000 00c0 99b0 cdbf 0000 0000 503b 8f3f
00000660: 0000 00e0 0a00 f6bf 0000 00e0 c3e9 e33f
00000670: 0000 0060 68e0 e9bf 0000 00c0 2b13 da3f
00000680: 0000 0040 9028 f43f 0000 0040 bf01 ec3f
00000690: 0000 00c0 49e8 f53f 0000 00c0 5f24 f33f
000006a0: 0000 0080 b629 f2bf 0000 0080 b820 b0bf
000006b0: 0000 0000 524a 85bf 0000 0000 74cc c0bf
000006c0: 0000 0040 77cc 90bf 0000 0060 2439 8f3f
000006d0: 0000 0000 fbfc 85bf 0000 0080 e156 68bf
000006e0: 0000 00a0 5876 c6bf 0000 00c0 8d55 7abf
000006f0: 0000 00c0 b213 a03f 0000 0040 31ee cb3f
00000700: 0000 00c0 f707 963f 0000 00c0 761d 9a3f
00000710: 0000 0000 97ca ab3f 0000 0000 b214 74bf
00000720: 0000 0080 8511 adbf 0000 0080 b28f cf3f
00000730: 0000 0020 124a a33f 0000 0060 b6ea d5bf
00000740: 0000 00c0 29e3 bb3f 0000 00c0 e574 d03f
00000750: 0000 0060 b9f6 df3f 0000 0080 ad20 a2bf
00000760: 0000 0080 fbd9 d53f 0000 0080 82b4 ccbf
00000770: 0000 00e0 2908 e1bf 0000 00e0 a889 dabf
00000780: 0000 0080 f8ca de3f 0000 0000 7ab5 703f
00000790: 0000 0060 d6e3 ccbf 0000 0000 5935 d73f
000007a0: 0000 0080 4687 703f 0000 00a0 e909 d4bf
000007b0: 0000 0020 d7f1 dabf 0000 0080 bd1b b03f
000007c0: 0000 0000 dc59 cfbf 0000 0040 450c d03f
000007d0: 0000 00e0 e631 e0bf 0000 00c0 7447 da3f
000007e0: 0000 0040 85ca e1bf 0000 0000 f248 963f
000007f0: 0000 00e0 a2c9 cb3f 0000 0040 29e6 b4bf

betas f8 [5, 26]
0.6164669990539551 0.882017970085144 -0.615802526473999 -2.0963094234466553 -1.008398175239563 2.2774996757507324 -1.2157998085021973 0.055759865790605545
1.712611436843872 1.5862042903900146 1.963329553604126 -1.8016782999038696 2.7981410026550293 -0.4556596875190735 -2.557539224624634 1.8453075885772705
-2.2547829151153564 -2.838866710662842 -0.5412869453430176 2.061354637145996 -0.16164381802082062 -0.23077860474586487 -1.2069779634475708 -0.5888173580169678
-0.1661357581615448 -2.3082995414733887 0.41877755522727966 1.2519575357437134 -1.1398842334747314 -0.7296937108039856 -0.019783254712820053 -2.206172466278076
0.9799109101295471 -0.2931649684906006 -0.8611901998519897 0.024732911959290504 0.45586130023002625 -0.7268416285514832 4.185902118682861 -0.11835110187530518
-1.7211823463439941 1.572437047958374 -1.9367218017578125 -5.389801025390625 -1.0526199340820312 0.657470166683197 -0.5839793086051941 0.03027435392141342
-0.6640151739120483 -0.8706673979759216 -0.10984951257705688 -3.502925395965576 -0.16335856914520264 1.2535474300384521 0.3866974413394928 -2.294809103012085
-0.025795668363571167 -1.133144497871399 0.008273128420114517 1.3375043869018555 2.0703389644622803 -0.783915102481842 1.1179925203323364 -0.30222442746162415
1.5338108539581299 -0.09811422228813171 -0.28603261709213257 0.7592737674713135 -2.280111312866211 -3.642813205718994 -0.8534238934516907 0.8703054785728455
-0.6342296004295349 -0.5504440665245056 -0.7827223539352417 -2.0719404220581055 0.09994569420814514 -1.7157248258590698 0.2583230137825012 0.13663418591022491
-1.0936408042907715 -0.2268221229314804 -0.6703295707702637 0.9107474088668823 -0.15565502643585205 0.08883947134017944 0.13899476826190948 1.6559890508651733
1.4631314277648926 -0.7942323088645935 2.252469301223755 -0.4314235746860504 -2.0670909881591797 2.4253578186035156 -2.3164374828338623 -3.9090874195098877
-0.7597851753234863 1.755588412284851 -0.20580849051475525 -0.12313833832740784 -0.778189480304718 -1.469029426574707 -0.33324816823005676 -3.4557504653930664
0.36338871717453003 0.5864760875701904 -0.3663688004016876 -0.9918723106384277 -0.06859917938709259 -0.19480137526988983 0.9139748215675354 0.565337598323822
0.46491560339927673 -0.2095649689435959 0.8397731184959412 0.3176026940345764 0.8931531310081482 0.11758400499820709 -0.8039183616638184 0.3335379958152771
-2.8036627769470215 -3.1844191551208496 -1.0927479267120361 1.1460682153701782 -0.6183795928955078 -0.3073354661464691 -0.8962140083312988 -2.046837568283081
-0.6407392621040344 -0.8809952139854431
00000000: 0000 0000 19ba e33f 0000 00c0 7d39 ec3f
00000010: 0000 0080 a7b4 e3bf 0000 00e0 3dc5 00c0
00000020: 0000 0020 6622 f0bf 0000 00c0 5138 0240
00000030: 0000 0080 ea73 f3bf 0000 00a0 8e8c ac3f
00000040: 0000 0040 db66 fb3f 0000 00c0 1761 f93f
00000050: 0000 0040 cc69 ff3f 0000 00a0 acd3 fcbf
00000060: 0000 00c0 9762 0640 0000 0040 8729 ddbf
00000070: 0000 0020 d775 04c0 0000 0040 6186 fd3f
00000080: 0000 00a0 cb09 02c0 0000 00c0 ffb5 06c0
00000090: 0000 0000 3952 e1bf 0000 0080 a77d 0040
000000a0: 0000 00a0 beb0 c4bf 0000 0040 278a cdbf
000000b0: 0000 0020 c84f f3bf 0000 0080 97d7 e2bf
000000c0: 0000 00c0 ef43 c5bf 0000 00c0 6577 02c0
000000d0: 0000 0060 40cd da3f 0000 00a0 0408 f43f
000000e0: 0000 0040 f73c f2bf 0000 00a0 a659 e7bf
000000f0: 0000 00c0 0f42 94bf 0000 00c0 3da6 01c0
00000100: 0000 0020 6e5b ef3f 0000 0000 37c3 d2bf
00000110: 0000 00c0 de8e ebbf 0000 00a0 9553 993f
00000120: 0000 00e0 d42c dd3f 0000 0060 4942 e7bf
00000130: 0000 0020 5dbe 1040 0000 0000 424c bebf
00000140: 0000 0080 f689 fbbf 0000 00c0 b328 f93f
00000150: 0000 0000 d0fc febf 0000 0000 288f 15c0
00000160: 0000 0000 88d7 f0bf 0000 00e0 fe09 e53f
00000170: 0000 0060 f5af e2bf 0000 0080 3d00 9f3f
00000180: 0000 00c0 9c3f e5bf 0000 00e0 81dc ebbf
00000190: 0000 0000 191f bcbf 0000 00c0 fd05 0cc0
000001a0: 0000 0000 efe8 c4bf 0000 00c0 870e f43f
000001b0: 0000 00a0 a6bf d83f 0000 00e0 c45b 02c0
000001c0: 0000 0000 2e6a 9abf 0000 0020 5c21 f2bf
000001d0: 0000 0080 80f1 803f 0000 0000 6b66 f53f
000001e0: 0000 00e0 0d90 0040 0000 0020 d515 e9bf
000001f0: 0000 0020 4ce3 f13f 0000 0020 a557 d3bf
00000200: 0000 0040 7d8a f83f 0000 0080 031e b9bf
00000210: 0000 00c0 5b4e d2bf 0000 0080 f84b e83f
00000220: 0000 0000 ab3d 02c0 0000 0040 7b24 0dc0
00000230: 0000 00a0 3f4f ebbf 0000 00e0 8ad9 eb3f
00000240: 0000 00e0 9b4b e4bf 0000 00e0 3c9d e1bf
00000250: 0000 00c0 0f0c e9bf 0000 0080 5593 00c0
00000260: 0000 0080 0a96 b93f 0000 00e0 9b73 fbbf
00000270: 0000 0040 5d88 d03f 0000 00a0 3a7d c13f
00000280: 0000 0080 8d7f f1bf 0000 00e0 8108 cdbf
00000290: 0000 0000 5773 e5bf 0000 00c0 d724 ed3f
000002a0: 0000 0000 81ec c3bf 0000 0000 2fbe b63f
000002b0: 0000 00a0 94ca c13f 0000 0060 ee7e fa3f
000002c0: 0000 0080 fc68 f73f 0000 00e0 596a e9bf
000002d0: 0000 00a0 0e05 0240 0000 00a0 719c dbbf
000002e0: 0000 0000 6789 00c0 0000 0000 2267 0340
000002f0: 0000 0060 1088 02c0 0000 00a0 cf45 0fc0
00000300: 0000 0000 2950 e8bf 0000 00e0 e316 fc3f
00000310: 0000 00c0 ee57 cabf 0000 0080 fe85 bfbf
00000320: 0000 00a0 ede6 e8bf 0000 0000 2581 f7bf
00000330: 0000 0020 f053 d5bf 0000 0080 60a5 0bc0
00000340: 0000 00c0 c241 d73f 0000 0080 69c4 e23f
00000350: 0000 0020 9672 d7bf 0000 0000 6bbd efbf
00000360: 0000 0040 b78f b1bf 0000 0060 40ef c8bf
00000370: 0000 0020 483f ed3f 0000 00e0 3e17 e23f
00000380: 0000 0060 2dc1 dd3f 0000 0060 06d3 cabf
00000390: 0000 00e0 6bdf ea3f 0000 0040 9a53 d43f
000003a0: 0000 00e0 b594 ec3f 0000 0040 fc19 be3f
000003b0: 0000 0000 b3b9 e9bf 0000 00c0 af58 d53f
000003c0: 0000 00c0 e66d 06c0 0000 00c0 b079 09c0
000003d0: 0000 0040 e57b f1bf 0000 00a0 4b56 f23f
000003e0: 0000 0000 c4c9 e3bf 0000 0060 62ab d3bf
000003f0: 0000 0000 c9ad ecbf 0000 0060 ec5f 00c0
00000400: 0000 00a0 ef80 e4bf 0000 00e0 1c31 ecbf

camera f8 [5, 3]
-3.33003568649292 112.0 112.0 -3.5083305835723877 112.0 112.0 -3.3869826793670654 112.0
112.0 -3.270099401473999 112.0 112.0 -3.4520986080169678 112.0 112.0
00000000: 0000 00c0 e9a3 0ac0 0000 0000 0000 5c40
00000010: 0000 0000 0000 5c40 0000 00a0 0f11 0cc0
00000020: 0000 0000 0000 5c40 0000 0000 0000 5c40
00000030: 0000 0060 8a18 0bc0 0000 0000 0000 5c40
00000040: 0000 0000 0000 5c40 0000 00e0 2929 0ac0
00000050: 0000 0000 0000 5c40 0000 0000 0000 5c40
00000060: 0000 00e0 e59d 0bc0 0000 0000 0000 5c40
00000070: 0000 0000 0000 5c40

joints3d f8 [5, 26, 3]
-0.28233641386032104 -0.29561182856559753 4.467304229736328 -0.3729681074619293 -0.2867951989173889 4.48781681060791 -0.34968191385269165 -0.20043018460273743
4.421186923980713 -0.20722153782844543 0.3731305003166199 4.93536901473999 -0.18028563261032104 0.31967693567276 5.004971504211426 0.26520732045173645
0.34476637840270996 5.548911094665527 0.22680504620075226 0.22739256918430328 5.833685398101807 0.23911137878894806 -0.1853369176387787 5.4939727783203125
-0.13467320799827576 0.09755926579236984 4.897157192230225 -0.24113111197948456 0.04350021481513977 5.0027008056640625 0.2720661461353302 0.07182878255844116
5.4317803382873535 0.14631670713424683 0.009816229343414307 5.624547004699707 -0.0868963897228241 -0.09121940284967422 4.741140842437744 -0.26176807284355164
-0.16242943704128265 4.863022804260254 -0.15885859727859497 0.2946832478046417 5.004666328430176 -0.21983925998210907 0.2648007273674011 5.0810370445251465
0.2784702777862549 0.21739977598190308 5.611921310424805 0.25694215297698975 0.1368558406829834 5.763957500457764 -0.2849525809288025 -0.21187293529510498
4.607631206512451 0.43469634652137756 -0.12431468069553375 5.730350971221924 -0.23376402258872986 -0.33136388659477234 4.562709808349609 -0.3709600865840912
-0.3225463628768921 4.605991363525391 -0.30984947085380554 -0.19044716656208038 4.46688175201416 -0.35752004384994507 -0.19084514677524567 4.481992721557617
-0.3416679799556732 -0.2535487711429596 4.401052951812744 0.31298017501831055 -0.12562093138694763 5.624749660491943 0.23952026665210724 -0.16922608017921448
4.773035049438477 0.15585273504257202 -0.1658756136894226 4.702678680419922 0.287372350692749 -0.04782649129629135 4.665726661682129 0.3767891526222229
0.32988226413726807 5.207262992858887 0.2670823335647583 0.2904124855995178 5.199307918548584 -0.08953435719013214 0.07163781672716141 5.808346748352051
-0.22041630744934082 0.13731907308101654 5.65817928314209 -0.2510510981082916 -0.0679154023528099 5.600091934204102 0.18211686611175537 0.09147834777832031
5.215165615081787 -0.004573638550937176 0.21756917238235474 5.121542930603027 -0.06822052597999573 -0.019063569605350494 5.6913862228393555 -0.29244115948677063
0.10844341665506363 5.5503153800964355 0.11810950934886932 -0.055355168879032135 5.076457500457764 -0.08754285424947739 0.056976109743118286 4.969993591308594
0.3193283677101135 0.22847571969032288 5.242497444152832 0.1803530752658844 0.2931794226169586 5.233957290649414 -0.18773886561393738 0.023096896708011627
5.8236083984375 -0.3118048310279846 0.054063402116298676 5.720493316650391 0.1247311607003212 -0.07002822309732437 4.809483051300049 -0.19053716957569122
0.0005688949022442102 5.88461971282959 0.1706131547689438 -0.22703342139720917 4.873156547546387 0.0669030100107193 -0.21593807637691498 4.786358833312988
0.22695034742355347 -0.03170868754386902 4.735682010650635 0.19894276559352875 -0.029629798606038094 4.71156644821167 0.27737897634506226 -0.09196681529283524
4.642784118652344 -0.2540043294429779 3.622379153966904e-05 5.763420104980469 0.04386405646800995 -0.15586133301258087 2.3515074253082275 -0.038290396332740784
-0.14922071993350983 2.3098349571228027 0.03515323996543884 -0.061993420124053955 2.25986385345459 0.02085273712873459 0.2758769989013672 2.7592196464538574
-0.15814806520938873 0.2808920443058014 2.741748332977295 0.0026370063424110413 0.09742829203605652 3.303567886352539 -0.08716192841529846 0.09118673950433731
3.286510467529297 -0.051527559757232666 -0.17090117931365967 3.2389330863952637 0.012057831510901451 0.10624869912862778 2.733139753341675 -0.16410338878631592
0.10669191181659698 2.7263293266296387 0.024437904357910156 -0.049620017409324646 3.2446939945220947 -0.11709955334663391 -0.04513654112815857 3.2455337047576904
0.010452643036842346 -0.027881134301424026 2.6362106800079346 -0.16715751588344574 -0.03255626931786537 2.624293327331543 0.025189869105815887 0.24055495858192444
2.7979848384857178 -0.16422654688358307 0.2477148324251175 2.781460762023926 -0.0042045265436172485 0.015986867249011993 3.3278861045837402 -0.07685349881649017
0.011911608278751373 3.32650089263916 -0.046496979892253876 -0.05460825562477112 2.439981698989868 0.0023310582619160414 -0.18398745357990265 3.483494758605957
0.018150385469198227 -0.17165879905223846 2.4523043632507324 -0.10470470041036606 -0.1575339287519455 2.3961455821990967 0.033926524221897125 -0.036925505846738815
2.3326752185821533 -0.018659286201000214 -0.03466000035405159 2.309636354446411 0.04739709571003914 -0.13874299824237823 2.244001626968384 -0.03738979250192642
-0.16102197766304016 3.3844542503356934 0.3406737148761749 -0.26930683851242065 4.665931701660156 0.27460169792175293 -0.286058247089386 4.610764980316162
0.36545270681381226 -0.20330144464969635 4.574869632720947 0.16406667232513428 0.3331739902496338 5.006275177001953 0.09149420261383057 0.37878161668777466
4.884512901306152 -0.12804122269153595 0.3210099935531616 5.648119926452637 -0.27410292625427246 0.3253515958786011 5.440064430236816 -0.1471727341413498
00000000: 0000 00c0 cc11 d2bf 0000 00e0 4deb d2bf
00000010: 0000 0000 85de 1140 0000 00a0 b5de d7bf
00000020: 0000 0040 da5a d2bf 0000 0040 86f3 1140
00000030: 0000 0040 3061 d6bf 0000 0040 b2a7 c9bf
00000040: 0000 00a0 4baf 1140 0000 0040 3c86 cabf
00000050: 0000 00c0 5ee1 d73f 0000 0060 d1bd 1340
00000060: 0000 0080 9913 c7bf 0000 0040 9675 d43f
00000070: 0000 0040 1705 1440 0000 0020 28f9 d03f
00000080: 0000 0000 a710 d63f 0000 00c0 1532 1640
00000090: 0000 00a0 f207 cd3f 0000 0020 331b cd3f
000000a0: 0000 00a0 b155 1740 0000 00a0 339b ce3f
000000b0: 0000 00c0 1eb9 c7bf 0000 0000 d4f9 1540
000000c0: 0000 00c0 f83c c1bf 0000 00e0 a4f9 b83f
000000d0: 0000 0060 b096 1340 0000 0060 62dd cebf
000000e0: 0000 0000 a945 a63f 0000 0000 c402 1440
000000f0: 0000 0020 8869 d13f 0000 0000 5f63 b23f
00000100: 0000 00a0 24ba 1540 0000 0080 81ba c23f
00000110: 0000 0000 881a 843f 0000 0040 897f 1640
00000120: 0000 0080 d73e b6bf 0000 00a0 275a b7bf
00000130: 0000 00a0 edf6 1240 0000 00e0 cec0 d0bf
00000140: 0000 00e0 7cca c4bf 0000 0040 bc73 1340
00000150: 0000 0080 7a55 c4bf 0000 0020 17dc d23f
00000160: 0000 0040 c704 1440 0000 0060 b123 ccbf
00000170: 0000 00c0 7ef2 d03f 0000 0060 fb52 1440
00000180: 0000 0000 75d2 d13f 0000 0080 c1d3 cb3f
00000190: 0000 0080 9b72 1640 0000 0080 bd71 d03f
000001a0: 0000 0000 7e84 c13f 0000 00e0 4a0e 1740
000001b0: 0000 00c0 a93c d2bf 0000 0000 a71e cbbf
000001c0: 0000 00e0 366e 1240 0000 00a0 10d2 db3f
000001d0: 0000 0040 16d3 bfbf 0000 0020 e1eb 1640
000001e0: 0000 00c0 faeb cdbf 0000 00e0 1035 d5bf
000001f0: 0000 0000 3740 1240 0000 0060 cfbd d7bf
00000200: 0000 0080 99a4 d4bf 0000 0000 896c 1240
00000210: 0000 00e0 92d4 d3bf 0000 00a0 9260 c8bf
00000220: 0000 0040 16de 1140 0000 00c0 9be1 d6bf
00000230: 0000 0020 9d6d c8bf 0000 0080 8fed 1140
00000240: 0000 0060 e3dd d5bf 0000 00a0 243a d0bf
00000250: 0000 00a0 ad9a 1140 0000 0000 de07 d43f
00000260: 0000 00c0 5814 c0bf 0000 0060 be7f 1640
00000270: 0000 00a0 99a8 ce3f 0000 0040 33a9 c5bf
00000280: 0000 0080 9617 1340 0000 0080 fbf2 c33f
00000290: 0000 0080 693b c5bf 0000 0000 8bcf 1240
000002a0: 0000 0000 4f64 d23f 0000 00c0 b67c a8bf
000002b0: 0000 0040 b4a9 1240 0000 0040 501d d83f
000002c0: 0000 0080 ca1c d53f 0000 00c0 3cd4 1440
000002d0: 0000 0080 e017 d13f 0000 0040 1e96 d23f
000002e0: 0000 0060 17cc 1440 0000 0040 b9eb b6bf
000002f0: 0000 0020 db56 b23f 0000 0040 bf3b 1740
00000300: 0000 0000 9a36 ccbf 0000 00e0 ab93 c13f
00000310: 0000 00c0 f9a1 1640 0000 00a0 3811 d0bf
00000320: 0000 0060 e762 b1bf 0000 0080 7e66 1640
00000330: 0000 0000 9b4f c73f 0000 0000 206b b73f
00000340: 0000 0060 54dc 1440 0000 00c0 cebb 72bf
00000350: 0000 0080 4ed9 cb3f 0000 00c0 757c 1440
00000360: 0000 0080 e676 b1bf 0000 0080 6685 93bf
00000370: 0000 00c0 fac3 1640 0000 0020 5bb7 d2bf
00000380: 0000 00a0 f2c2 bb3f 0000 00e0 8533 1640
00000390: 0000 00c0 6c3c be3f 0000 0040 8357 acbf
000003a0: 0000 00e0 4a4e 1440 0000 0060 3569 b6bf
000003b0: 0000 0000 f92b ad3f 0000 0000 46e1 1340
000003c0: 0000 0040 e06f d43f 0000 0040 b13e cd3f
000003d0: 0000 0040 51f8 1440 0000 0040 cf15 c73f
000003e0: 0000 00a0 73c3 d23f 0000 0080 92ef 1440
000003f0: 0000 00c0 d307 c8bf 0000 0080 b6a6 973f
00000400: 0000 0000 604b 1740 0000 0040 9cf4 d3bf
00000410: 0000 00c0 32ae ab3f 0000 0000 c9e1 1640
00000420: 0000 00a0 61ee bf3f 0000 00a0 5eed b1bf
00000430: 0000 0020 e93c 1340 0000 00a0 8563 c8bf
00000440: 0000 0080 3ca4 423f 0000 00c0 d989 1740
00000450: 0000 00e0 a6d6 c53f 0000 0060 6e0f cdbf
00000460: 0000 00c0 1c7e 1340 0000 0040 8e20 b13f
00000470: 0000 00e0 dba3 cbbf 0000 0040 3b25 1340
00000480: 0000 0080 b50c cd3f 0000 0000 1f3c a0bf
00000490: 0000 00a0 56f1 1240 0000 00e0 f476 c93f
000004a0: 0000 0020 4657 9ebf 0000 00e0 a4d8 1240
000004b0: 0000 00c0 93c0 d13f 0000 0020 238b b7bf
000004c0: 0000 0000 3692 1240 0000 0060 9b41 d0bf
000004d0: 0000 0000 e0fd 023f 0000 0000 be0d 1740
000004e0: 0000 0080 5975 a63f 0000 00a0 43f3 c3bf
000004f0: 0000 0020 e3cf 0240 0000 0080 cc9a a3bf
00000500: 0000 0020 aa19 c3bf 0000 00c0 8a7a 0240
00000510: 0000 0000 9bff a13f 0000 0000 9abd afbf
00000520: 0000 0080 3314 0240 0000 0080 6b5a 953f
00000530: 0000 0000 f8a7 d13f 0000 00c0 e112 0640
00000540: 0000 0020 323e c4bf 0000 00a0 22fa d13f
00000550: 0000 00c0 19ef 0540 0000 0000 349a 653f
00000560: 0000 0080 0ff1 b83f 0000 0000 b56d 0a40
00000570: 0000 0080 3e50 b6bf 0000 00a0 0358 b73f
00000580: 0000 0000 c64a 0a40 0000 0000 d261 aabf
00000590: 0000 0000 17e0 c5bf 0000 00c0 55e9 0940
000005a0: 0000 00c0 c6b1 883f 0000 0060 1d33 bb3f
000005b0: 0000 0060 78dd 0540 0000 0000 5701 c5bf
000005c0: 0000 0040 2950 bb3f 0000 00c0 85cf 0540
000005d0: 0000 0000 4006 993f 0000 0080 cb67 a9bf
000005e0: 0000 0020 22f5 0940 0000 0080 3cfa bdbf
000005f0: 0000 0000 231c a7bf 0000 0060 daf6 0940
00000600: 0000 0000 3268 853f 0000 0040 df8c 9cbf
00000610: 0000 00a0 f516 0540 0000 00e0 6a65 c5bf
00000620: 0000 0020 37ab a0bf 0000 0080 8dfe 0440
00000630: 0000 0080 5fcb 993f 0000 0040 81ca ce3f
00000640: 0000 00e0 4562 0640 0000 0020 6005 c5bf
00000650: 0000 00a0 1eb5 cf3f 0000 0080 6e40 0640
00000660: 0000 0000 c438 71bf 0000 0080 dc5e 903f
00000670: 0000 00c0 829f 0a40 0000 00c0 abac b3bf
00000680: 0000 0000 1d65 883f 0000 0080 ac9c 0a40
00000690: 0000 00c0 73ce a7bf 0000 0000 9df5 abbf
000006a0: 0000 0020 1585 0340 0000 0060 9518 633f
000006b0: 0000 00a0 e68c c7bf 0000 0080 32de 0b40
000006c0: 0000 00c0 0396 923f 0000 0060 eaf8 c5bf
000006d0: 0000 00c0 519e 0340 0000 0060 edcd babf
000006e0: 0000 0060 122a c4bf 0000 0060 4e2b 0340
000006f0: 0000 0040 d15e a13f 0000 0060 e6e7 a2bf
00000700: 0000 00a0 51a9 0240 0000 0080 6b1b 93bf
00000710: 0000 00a0 f4be a1bf 0000 00a0 227a 0240
00000720: 0000 00a0 6e44 a83f 0000 00a0 54c2 c1bf
00000730: 0000 0020 b7f3 0140 0000 0040 c124 a3bf
00000740: 0000 0040 5e9c c4bf 0000 00c0 5c13 0b40
00000750: 0000 0020 99cd d53f 0000 00c0 523c d1bf
00000760: 0000 0000 eaa9 1240 0000 0000 1393 d13f
00000770: 0000 0040 c74e d2bf 0000 0060 6c71 1240
00000780: 0000 00c0 9363 d73f 0000 0020 c805 cabf
00000790: 0000 00a0 aa4c 1240 0000 0000 2300 c53f
000007a0: 0000 0000 b952 d53f 0000 0000 6d06 1440
000007b0: 0000 0000 2a6c b73f 0000 0040 f53d d83f
000007c0: 0000 00c0 bd89 1340 0000 00a0 a763 c0bf
000007d0: 0000 0080 6d8b d43f 0000 00c0 ac97 1640
000007e0: 0000 0000 e78a d1bf 0000 0080 8fd2 d43f
000007f0: 0000 0040 a0c2 1540 0000 0060 8ed6 c2bf
