demo_out/run3/epoch2/params.npz (npz, 11215 bytes, 4 tensors)

pose f8 [5, 105]
0	0x3fedd82a80000000	0.9326374530792236
1	0x3ffa4fb6a0000000	1.6444612741470337
2	0xbff5fccbe0000000	-1.3742178678512573
3	0x3f71599aa0000000	0.004235843662172556
4	0x3f73424d00000000	0.004701901227235794
5	0x3fc1e1b2c0000000	0.1397002637386322
6	0x3fa0ddc840000000	0.032942064106464386
7	0xbf9c8f1b00000000	-0.02788965404033661
8	0xbfc9cd70e0000000	-0.20158205926418304
9	0xbfbecc2d60000000	-0.12030299752950668
10	0xbfc45193c0000000	-0.15873953700065613
11	0xbfa85f4ac0000000	-0.04760202020406723
12	0xbfb4ae9f20000000	-0.08078951388597488
13	0x3fcda36040000000	0.23154833912849426
14	0x3fa2b34be0000000	0.036524172872304916
15	0xbf75d49a00000000	-0.005329705774784088
16	0x3faa48abc0000000	0.05133568495512009
17	0xbf67b9a000000000	-0.002896130084991455
18	0x3faa54b960000000	0.05142764374613762
19	0x3fc0a2ce80000000	0.12996846437454224
20	0x3fa00d2a40000000	0.03135044127702713
21	0xbfe3f41020000000	-0.623542845249176
22	0xbfc0f2f980000000	-0.13241499662399292
23	0xbfa0215080000000	-0.03150416910648346
24	0x3fe155c1c0000000	0.5417183637619019
25	0x3fc62ba2c0000000	0.1732066571712494
26	0x3fd99a03e0000000	0.400025337934494
27	0xbfd2b7c120000000	-0.292465478181839
28	0xbfe147d8a0000000	-0.5400202870368958
29	0xbfcf4af580000000	-0.24447506666183472
30	0x3fe43d9680000000	0.6325180530548096
31	0xbfd27a29a0000000	-0.2887062132358551
32	0xbfca5b0740000000	-0.20590296387672424
33	0x3fd96d2480000000	0.3972865343093872
34	0x3fc1aa4c80000000	0.13800960779190063
35	0x3fae8fb980000000	0.05969028174877167
36	0xbfda3f74c0000000	-0.4101230502128601
37	0x3fb4736800000000	0.07988595962524414
38	0xbf72b65d00000000	-0.0045684464275836945
39	0xbfa5153340000000	-0.04117736965417862
40	0xbfe5fbbbe0000000	-0.6869792342185974
41	0x3fe6083b80000000	0.6885049343109131
42	0xbfe989a160000000	-0.798050582408905
43	0xbfe727df00000000	-0.7236170768737793
44	0x3fd1c57040000000	0.27767568826675415
45	0x3fc5b31c80000000	0.1695285439491272
46	0xbfd8ef4240000000	-0.3896031975746155
47	0x3fb0797d00000000	0.06435376405715942
48	0x3fd1f66f00000000	0.2806661128997803
49	0xbfde975f20000000	-0.47798898816108704
50	0x3fd18f4980000000	0.27437055110931396
51	0xbfa89c1ec0000000	-0.04806610196828842
52	0x3fa0b71e80000000	0.032647088170051575
53	0xbfd1cd1340000000	-0.2781417965888977
54	0xbfc4b7d500000000	-0.16186010837554932
55	0x3fd08a15a0000000	0.25842800736427307
56	0x3fce0685e0000000	0.2345740646123886
57	0x3fcccc6760000000	0.2249879091978073
58	0xbfe3de83c0000000	-0.6209124326705933
59	0x3fc58b20e0000000	0.16830836236476898
60	0x3f7da94e80000000	0.0072415415197610855
61	0xbfe63b39e0000000	-0.694729745388031
62	0x3fc3ceeb40000000	0.15475216507911682
63	0x3fc10ea680000000	0.1332595944404602
64	0x3fe07465a0000000	0.5142086148262024
65	0x3fcd2fc740000000	0.228020578622818
66	0xbf97983e00000000	-0.02304169535636902
67	0xbfb4dc4660000000	-0.08148612827062607
68	0xbfc629a540000000	-0.17314592003822327
69	0xbfc71d01c0000000	-0.1805727183818817
70	0xbfc3b35b40000000	-0.1539110243320465
71	0xbfcbd74f00000000	-0.2175081968307495
72	0xbfd674ff20000000	-0.3508909046649933
73	0xbff1a50800000000	-1.1027908325195312
74	0xbf8ca40a00000000	-0.01398475468158722
75	0xbfc5d5d2e0000000	-0.17058788239955902
76	0xbfc61cb1e0000000	-0.17275069653987885
77	0x3faa715540000000	0.0516459122300148
78	0xbfd0053f60000000	-0.25032028555870056
79	0x3fd18b85c0000000	0.27414077520370483
80	0xbf88e1c700000000	-0.0121493861079216
81	0x3f7d4970e0000000	0.007150116842240095
82	0xbf9cc5fa80000000	-0.028098978102207184
83	0xbfabbbc2c0000000	-0.054166875779628754
84	0xbf931b9be0000000	-0.018660007044672966
85	0xbfb6ede6c0000000	-0.08956758677959442
86	0x3fbafc9a80000000	0.1054169237613678
87	0xbf81af6e00000000	-0.008635386824607849
88	0x3fc233bea0000000	0.14220412075519562
89	0x3fb2e10f80000000	0.07374665141105652
90	0xbfcc938f20000000	-0.22325314581394196
91	0x3f9239c000000000	0.017798423767089844
92	0xbf8584df00000000	-0.010507337749004364
93	0xbfc9cfff00000000	-0.20166003704071045
94	0xbfc51c04c0000000	-0.16491755843162537
95	0x3f88903200000000	0.011993780732154846
96	0xbfd0a46e60000000	-0.26003608107566833
97	0xbf90a02800000000	-0.016235947608947754
98	0x3f9134cd80000000	0.016802988946437836
99	0xbfec625960000000	-0.8870055079460144
100	0x3fedd6cba0000000	0.9324701428413391
101	0xbfe9331140000000	-0.787483811378479
102	0x3fd64c72a0000000	0.3484160006046295
103	0x3ff6a8d180000000	1.416215419769287
104	0x3ff5e1bba0000000	1.3676105737686157
105	0x3ffb0a6b80000000	1.6900439262390137
106	0x3fe2e691c0000000	0.5906456708908081
107	0xbff0078e80000000	-1.001844882965088
108	0x3fbd28a460000000	0.11390139907598495
109	0x3fb8cf2d00000000	0.09691125154495239
110	0xbfd31f1c20000000	-0.29877379536628723
111	0xbfcd42d100000000	-0.2286015748977661
112	0x3fa2b2e940000000	0.03652123361825943
113	0x3fd0464b80000000	0.25429046154022217
114	0x3fc32618c0000000	0.14960011839866638
115	0xbfc42f2b40000000	-0.15768948197364807
116	0x3fc71ac320000000	0.1805042177438736
117	0x3fc4534540000000	0.1587912142276764
118	0x3fc7845de0000000	0.18372701108455658
119	0xbfcd3e53a0000000	-0.22846455872058868
120	0xbfa6f65780000000	-0.04484818875789642
121	0xbf92ead780000000	-0.018473975360393524
122	0x3f7ea8c200000000	0.007485158741474152
123	0x3f8aa8f700000000	0.01301758736371994
124	0x3fc3a452a0000000	0.15345223248004913
125	0xbfbbf2eb80000000	-0.1091754138469696
126	0xbfcaacb6e0000000	-0.2083958238363266
127	0x3fc311ed00000000	0.14898455142974854
128	0xbf9e787500000000	-0.02975638210773468
129	0x3fe78c8320000000	0.7359023690223694
130	0xbfe0aab480000000	-0.5208380222320557
131	0x3fd06f58e0000000	0.25679609179496765
132	0xbfc41270a0000000	-0.15681274235248566
133	0xbfbd5db500000000	-0.11471110582351685
134	0xbfd2a78b40000000	-0.2914760708808899
135	0x3fd6f91720000000	0.3589532673358917
136	0x3fdf72cec0000000	0.49138230085372925
137	0xbfd04b01e0000000	-0.2545780837535858
138	0x3fe488f560000000	0.6417185664176941
139	0xbfc2a680e0000000	-0.14570628106594086
140	0xbfc8e4e1c0000000	-0.1944849193096161
141	0x3fb6773fc0000000	0.08775709569454193
142	0x3fd352e900000000	0.30193543434143066
143	0xbfb7bf8480000000	-0.09276607632637024
144	0x3fca1e7f80000000	0.20405572652816772
145	0x3fc47b6f60000000	0.16001693904399872
146	0x3fe97b0040000000	0.7962647676467896
147	0xbfe8d7e340000000	-0.7763534784317017
148	0xbfdce6c800000000	-0.4515857696533203
149	0x3fc8c4d1e0000000	0.19350646436214447
150	0xbfdca5e460000000	-0.4476252496242523
151	0xbfcabf41c0000000	-0.20896169543266296
152	0x3fd2f74b00000000	0.2963435649871826
153	0xbfd84013e0000000	-0.37891098856925964
154	0xbfe37abec0000000	-0.6087335348129272
155	0xbfc0b750c0000000	-0.13059434294700623
156	0x3fd2806a60000000	0.28908786177635193
157	0x3fd7318260000000	0.36239680647850037
158	0xbfc8c2b700000000	-0.1934422254562378
159	0xbfae5135a0000000	-0.05921332910656929
160	0x3fdad54a00000000	0.4192681312561035
161	0x3f7a6cc400000000	0.0064513832330703735
162	0x3fc7fe5840000000	0.18744948506355286
163	0xbfe3ed1680000000	-0.6226913928985596
164	0x3fc3072a00000000	0.14865612983703613
165	0x3fb17d5780000000	0.06831881403923035
166	0xbfe54214c0000000	-0.6643165349960327
167	0xbfb52f12c0000000	-0.08274953067302704
168	0x3fa6c516a0000000	0.04447241500020027
169	0xbfb2885980000000	-0.0723930299282074
170	0x3fc1df6a40000000	0.13963058590888977
171	0x3fdb3fcbc0000000	0.42576879262924194
172	0x3fe52c8aa0000000	0.6616871953010559
173	0xbfc2316a40000000	-0.14213302731513977
174	0xbfc7765960000000	-0.1832992285490036
175	0xbfecb19fe0000000	-0.8966826796531677
176	0xbfac3bfc40000000	-0.055145151913166046
177	0xbfba441e20000000	-0.10260189324617386
178	0xbfccae6f60000000	-0.22407333552837372
179	0xbfa3d461c0000000	-0.0387297198176384
180	0xbfcaaee4e0000000	-0.20846234261989594
181	0xbfe0f21460000000	-0.5295507311820984
182	0xbfc9b11140000000	-0.20071616768836975
183	0x3fd9248fa0000000	0.39285650849342346
184	0x3fc222f3a0000000	0.1416916400194168
185	0xbfe45870c0000000	-0.6357959508895874
186	0x3fd2d08840000000	0.2939777970314026
187	0xbfabdd6380000000	-0.054423436522483826
188	0x3fa34cacc0000000	0.037694357335567474
189	0x3f6cd8dea0000000	0.0035213802475482225
190	0xbfd422e080000000	-0.3146287202835083
191	0xbfbe924480000000	-0.11941936612129211
192	0x3fab7ae380000000	0.0536719411611557
193	0x3fc0bd29a0000000	0.13077278435230255
194	0xbfd77f6bc0000000	-0.3671521544456482
195	0xbfc804e720000000	-0.18764962255954742
196	0xbfc0938fe0000000	-0.12950323522090912
197	0x3fc9c99c80000000	0.2014651894569397
198	0xbfaa5ddb40000000	-0.05149731785058975
199	0xbfe6e3e8c0000000	-0.7153209447860718
200	0xbfdd218960000000	-0.4551719129085541
201	0x3f85b16300000000	0.010592244565486908
202	0xbfcfe85ba0000000	-0.2492785006761551
203	0x3fa6648d40000000	0.04373589903116226
204	0xbffb5e4dc0000000	-1.7105233669281006
205	0x3ff4b67720000000	1.294547200202942
206	0xbfe9a8b3a0000000	-0.8018434643745422
207	0x3fde7efd60000000	0.47650083899497986
208	0x3fff207ec0000000	1.9454333782196045
209	0x3ff1dd50c0000000	1.1165320873260498
210	0x3ff69e7f80000000	1.4136958122253418
211	0x3ff463b620000000	1.2743436098098755
212	0xbff24d3d80000000	-1.143857479095459
213	0xbfa4916b00000000	-0.04017195105552673
214	0x3fb2ee8d80000000	0.07395252585411072
215	0xbfc88fbd00000000	-0.1918865442276001
216	0xbfbbd1d080000000	-0.10867026448249817
217	0x3f42effd20000000	0.0005779252969659865
218	0x3fb1a87ec0000000	0.06897728145122528
219	0x3fb3e79980000000	0.07775267958641052
220	0xbfcadb4da0000000	-0.20981760323047638
221	0x3fa3a45d00000000	0.038363367319107056
222	0x3fb1c8a820000000	0.06946802884340286
223	0x3fc8763aa0000000	0.19110806286334991
224	0xbf94208a80000000	-0.019655384123325348
225	0xbf8a46fb00000000	-0.012830697000026703
226	0x3f7049fa00000000	0.003976799547672272
227	0x3fa2c34540000000	0.0366460457444191
228	0xbfaae3fa20000000	-0.05252057686448097
229	0x3fc08a14c0000000	0.12921389937400818
230	0x3fafd70740000000	0.06218741089105606
231	0xbfd1e1d920000000	-0.2794096767902374
232	0x3fc69dee80000000	0.17669469118118286
233	0x3fcac4a000000000	0.20912551879882812
234	0x3fe0857ee0000000	0.516295850276947
235	0xbfa4a87980000000	-0.040347859263420105
236	0x3fd380f5c0000000	0.3047460913658142
237	0xbfcd6a6120000000	-0.22980894148349762
238	0xbfe5654ee0000000	-0.6686167120933533
239	0xbfd80fece0000000	-0.3759720027446747
240	0x3fe16c4a80000000	0.5444691181182861
241	0xbfb37c8940000000	-0.07611902058124542
242	0xbfd00a1e80000000	-0.2506176233291626
243	0x3fd86b4440000000	0.3815470337867737
244	0x3fad33ffc0000000	0.0570373460650444
245	0xbfd1a807a0000000	-0.27588072419166565
246	0xbfda639600000000	-0.41232824325561523
247	0x3fc756cc60000000	0.18233637511730194
248	0xbfd2ba0960000000	-0.2926047742366791
249	0x3fd79ac900000000	0.3688223361968994
250	0xbfe2e94de0000000	-0.5909795165061951
251	0x3fde4ee720000000	0.47356584668159485
252	0xbfe33161a0000000	-0.5997779965400696
253	0xbfc3a53f40000000	-0.1534804403781891
254	0x3fd2da2680000000	0.2945648431777954
255	0xbfc233d300000000	-0.14220654964447021

betas f8 [5, 41]
0	0xbfc0aa0d80000000	-0.13018959760665894
1	0x3fd2593980000000	0.28669583797454834
2	0xbf9fd61e20000000	-0.031090231612324715
3	0xbfe78d7a00000000	-0.7360200881958008
4	0xbfe2054120000000	-0.563141405582428
5	0x3fbd90aee0000000	0.1154889389872551
6	0xbfe18bcf40000000	-0.5483165979385376
7	0x3ff6a02f00000000	1.414107322692871
8	0xbfbf4a93a0000000	-0.12223169952630997
9	0x3ff0ee72a0000000	1.058214783668518
10	0x3ffab47a00000000	1.6690616607666016
11	0xc0026e0d80000000	-2.303736686706543
12	0x40050d5760000000	2.631514310836792
13	0xbfe6483a00000000	-0.6963167190551758
14	0xc0043d6c60000000	-2.529991865158081
15	0x3fed75afa0000000	0.9206159710884094
16	0xc00348c3c0000000	-2.410529613494873
17	0xc0110ea1e0000000	-4.264289379119873
18	0x3f9e0a1c60000000	0.029335444793105125
19	0x3ff1c09180000000	1.109513759613037
20	0xbfe287c640000000	-0.5790740251541138
21	0xbfe2dd40c0000000	-0.5895084142684937
22	0xbff076f340000000	-1.0290405750274658
23	0xbfea176fe0000000	-0.815360963344574
24	0xbff12e6a80000000	-1.0738320350646973
25	0xbfd481de00000000	-0.32042646408081055
26	0x3f515569c0000000	0.0010579617228358984
27	0x3f4f469980000000	0.0009544610511511564
28	0xbf5f7ab940000000	-0.0019213494379073381
29	0xbf51103440000000	-0.0010414610151201487
30	0x3f4494a200000000	0.0006280699744820595
31	0xbf6314e840000000	-0.0023293052799999714
32	0xbf626e0a20000000	-0.0022497365716844797
33	0xbf5cffa480000000	-0.0017699343152344227
34	0xbf5c2911e0000000	-0.0017187761841341853
35	0x3f4d0e4fc0000000	0.0008867158321663737
36	0xbf289f1240000000	-0.0001878461625892669
37	0x3f65d30300000000	0.002664094790816307
38	0x3f6858fe80000000	0.0029721232131123543
39	0x3f325ecf40000000	0.000280309293884784
40	0xbf52677900000000	-0.0011233026161789894
41	0xbfd47338a0000000	-0.3195325434207916
42	0x3fe8a60840000000	0.7702676057815552
43	0xbff00c5b20000000	-1.0030165910720825
44	0x3fe2f58420000000	0.5924702286720276
45	0x3fd3dd5ba0000000	0.3103856146335602
46	0xc009f0a1c0000000	-3.2424960136413574
47	0x3ffc536ac0000000	1.7703654766082764
48	0xbfdc024cc0000000	-0.43764036893844604
49	0xc0016cd500000000	-2.178140640258789
50	0x3fd2cff8c0000000	0.2939435839653015
51	0x3fd7c2f420000000	0.37127402424812317
52	0xbff0fc98e0000000	-1.0616692304611206
53	0x4012fe1700000000	4.748134613037109
54	0xbfbd946460000000	-0.11554553359746933
55	0xc003b0d640000000	-2.46134614944458
56	0x3fd4a6f040000000	0.32268911600112915
57	0xbffe407dc0000000	-1.890744924545288
58	0xc01bfb1e40000000	-6.995232582092285
59	0x3f9e548d00000000	0.029619410634040833
60	0x3fd2552180000000	0.2864459753036499
61	0xbfe1ebd220000000	-0.5600367188453674
62	0xbfdb3df000000000	-0.4256553649902344
63	0xbfec22b680000000	-0.8792374134063721
64	0xbfeaa58900000000	-0.8327069282531738
65	0xbff1d551c0000000	-1.1145799160003662
66	0xbfdeeef360000000	-0.48333439230918884
67	0x3f512ef960000000	0.0010487971594557166
68	0x3f56db7a20000000	0.001395100844092667
69	0xbf62390180000000	-0.002224448136985302
70	0xbf40b54580000000	-0.0005098904948681593
71	0x3f41515820000000	0.0005284958169795573
72	0xbf61efcba0000000	-0.002189538674429059
73	0xbf63ac64c0000000	-0.0024015395902097225
74	0xbf67076b60000000	-0.0028111550491303205
75	0xbf60a5bb00000000	-0.002032151445746422
76	0x3f51f15780000000	0.0010951380245387554
77	0xbf0af30700000000	-5.140175926499069e-05
78	0x3f692f9720000000	0.0030744506511837244
79	0x3f665adce0000000	0.0027288736309856176
80	0x3f49f12dc0000000	0.0007916901959106326
81	0xbf5a6d2f60000000	-0.0016129458090290427
82	0xbfec8f4e80000000	-0.892493486404419
83	0x3fed427680000000	0.9143631458282471
84	0x3feab3a4a0000000	0.8344290852546692
85	0xbff972ec00000000	-1.5905570983886719
86	0x3fd6fa77e0000000	0.3590373694896698
87	0xbfff749260000000	-1.965959906578064
88	0x3fdf601c20000000	0.49024108052253723
89	0x4000adbc60000000	2.084831953048706
90	0x3fe7dc2ea0000000	0.7456277012825012
91	0xbfef63ce00000000	-0.9809331893920898
92	0x3ff1efbd60000000	1.1210302114486694
93	0xbff2efc840000000	-1.1835405826568604
94	0x400273c9a0000000	2.306536912918091
95	0xbfaed3ae00000000	-0.06020873785018921
96	0xbff29c34c0000000	-1.1631362438201904
97	0xbfe0b66d40000000	-0.5222688913345337
98	0xc00686b560000000	-2.8157756328582764
99	0xc0122f1080000000	-4.545961380004883
100	0x3fd337e660000000	0.3002868592739105
101	0x3fe1eb1f80000000	0.5599515438079834
102	0xbfe729d760000000	-0.723857581615448
103	0xbfe3999260000000	-0.612496554851532
104	0xbff0a7b640000000	-1.040945291519165
105	0xbfec235720000000	-0.8793140053749084
106	0xbff11a4040000000	-1.068908929824829
107	0xbfd5332040000000	-0.331245481967926
108	0x3f50e4d0e0000000	0.001031116466037929
109	0x3f54614b80000000	0.001243900042027235
110	0xbf5f0abe40000000	-0.0018946512136608362
111	0xbf4913bcc0000000	-0.0007652923231944442
112	0x3f45f21220000000	0.0006697262288071215
113	0xbf639230a0000000	-0.0023890447337180376
114	0xbf629c1080000000	-0.00227168295532465
115	0xbf60cc85c0000000	-0.002050648909062147
116	0xbf5ac9a420000000	-0.0016349890502169728
117	0x3f542a6bc0000000	0.0012308170553296804
118	0xbf086cf700000000	-4.658821853809059e-05
119	0x3f63dd75a0000000	0.002424936043098569
120	0x3f68892440000000	0.0029950817115604877
121	0x3f3fa65a00000000	0.0004829377867281437
122	0xbf55a857a0000000	-0.0013218742096796632
123	0xbfe38212c0000000	-0.6096280813217163
124	0xbfcbd9a4e0000000	-0.21757946908473969
125	0xbfed479e20000000	-0.9149923920631409
126	0x3ff04e8520000000	1.0191699266433716
127	0xbfbfe52880000000	-0.1245904266834259
128	0xbfeca1d9c0000000	-0.8947571516036987
129	0x3fd8716c40000000	0.38192278146743774
130	0x3fca8c59e0000000	0.20740817487239838
131	0xbff958ae40000000	-1.5841505527496338
132	0x3ff902c8e0000000	1.563179850578308
133	0x3ff1126660000000	1.066992163658142
134	0xbff2265060000000	-1.1343539953231812
135	0x4005fb7ae0000000	2.747792959213257
136	0x3fb584e500000000	0.08405905961990356
137	0xc00999e020000000	-3.200134515762329
138	0x3fee82c780000000	0.9534642696380615
139	0xc001933680000000	-2.1968812942504883
140	0xc0154bd020000000	-5.324036121368408
141	0xbfc65f8b00000000	-0.17479074001312256
142	0x3ff0d2a620000000	1.051427960395813
143	0xbfdf3944c0000000	-0.48787039518356323
144	0xbfd8ecd800000000	-0.38945579528808594
145	0xbfec22e7e0000000	-0.8792609572410583
146	0xbfeb29eba0000000	-0.8488672375679016
147	0xbff21a55a0000000	-1.1314293146133423
148	0xbfdad25400000000	-0.41908740997314453
149	0x3f51dcece0000000	0.0010902703506872058
150	0x3f5c793540000000	0.0017378826159983873
151	0xbf60666200000000	-0.0020019449293613434
152	0xbf416e71c0000000	-0.0005319648189470172
153	0x3f2f8d1700000000	0.00024071603547781706
154	0xbf627513a0000000	-0.0022530921269208193
155	0xbf616d0b60000000	-0.002127191750332713
156	0xbf63945060000000	-0.002390057547017932
157	0xbf637bfba0000000	-0.0023784555960446596
158	0x3f5680ab80000000	0.0013734507374465466
159	0x3f0805e100000000	4.5820168452337384e-05
160	0x3f6a9c9400000000	0.0032484903931617737
161	0x3f684db700000000	0.00296674482524395
162	0x3f44dba8a0000000	0.0006365369190461934
163	0xbf5419ca20000000	-0.0012268518330529332
164	0xbfdf896c00000000	-0.49276256561279297
165	0x3fda824bc0000000	0.41420263051986694
166	0x3fd2de5680000000	0.2948204278945923
167	0xbfd4042880000000	-0.3127537965774536
168	0x3fce4c7e80000000	0.23670941591262817
169	0xbffb606ee0000000	-1.7110432386398315
170	0x3fdfb40680000000	0.49536287784576416
171	0x4001209060000000	2.1409003734588623
172	0xbff07e3220000000	-1.0308095216751099
173	0x3fb44aebe0000000	0.0792682096362114
174	0x3ff5786fe0000000	1.341903567314148
175	0xc0000662a0000000	-2.003117799758911
176	0x3ffc2685a0000000	1.7594047784805298
177	0x3fe30c8aa0000000	0.5952809453010559
178	0xbffaf953c0000000	-1.685870885848999
179	0xbfd21350e0000000	-0.28242895007133484
180	0xc00d6ddbe0000000	-3.6786420345306396
181	0xc011de8b20000000	-4.46732759475708
182	0xbfc900f160000000	-0.19534127414226532
183	0x3ff0cbdf40000000	1.0497734546661377
184	0xbfe4e92dc0000000	-0.6534641981124878
185	0xbfe399c780000000	-0.6125218868255615
186	0xbff1094bc0000000	-1.0647695064544678
187	0xbfea84c480000000	-0.8287069797515869
188	0xbff0f55280000000	-1.0598931312561035
189	0xbfd5ef3dc0000000	-0.3427271246910095
190	0x3f568e1700000000	0.001376650296151638
191	0x3f529b13c0000000	0.0011356060858815908
192	0xbf5febda80000000	-0.0019483217038214207
193	0xbf4864b760000000	-0.0007444281945936382
194	0x3f5290cc80000000	0.0011331555433571339
195	0xbf63ffe780000000	-0.002441360615193844
196	0xbf635c8520000000	-0.002363452920690179
197	0xbf59c607c0000000	-0.0015730930026620626
198	0xbf58693400000000	-0.001489926129579544
199	0x3f539bc800000000	0.0011968091130256653
200	0xbf24795540000000	-0.00015620389604009688
201	0x3f64bfc660000000	0.0025328516494482756
202	0x3f68312d80000000	0.002953137271106243
203	0x3f424130a0000000	0.0005570876528508961
204	0xbf55d0f760000000	-0.0013315597316250205

camera f8 [5, 3]
0	0xc00c550b00000000	-3.541524887084961
1	0x405c000000000000	112.0
2	0x405c000000000000	112.0
3	0xc00d072f80000000	-3.6285085678100586
4	0x405c000000000000	112.0
5	0x405c000000000000	112.0
6	0xc00b493b80000000	-3.4107580184936523
7	0x405c000000000000	112.0
8	0x405c000000000000	112.0
9	0xc00ba9eec0000000	-3.457974910736084
10	0x405c000000000000	112.0
11	0x405c000000000000	112.0
12	0xc00b6f8c20000000	-3.429466485977173
13	0x405c000000000000	112.0
14	0x405c000000000000	112.0

joints3d f8 [5, 26, 3]
0	0xbfcb778600000000	-0.2145850658416748
1	0xbfd09b1600000000	-0.25946569442749023
2	0x400982b740000000	3.188826084136963
3	0xbfd47ac660000000	-0.3199935853481293
4	0xbfcf9ab840000000	-0.24690917134284973
5	0x400998a2c0000000	3.1995291709899902
6	0xbfd1c16080000000	-0.2774277925491333
7	0xbfc44de400000000	-0.15862703323364258
8	0x4008a0bbe0000000	3.0784833431243896
9	0xbfc6c885a0000000	-0.17799444496631622
10	0x3fd0f689e0000000	0.26504752039909363
11	0x400ccb20a0000000	3.5991833209991455
12	0xbfc50c0ac0000000	-0.16442999243736267
13	0x3fce1374a0000000	0.23496873676776886
14	0x400d711480000000	3.6802148818969727
15	0x3fcdb28200000000	0.2320101261138916
16	0x3fc98b7f20000000	0.19956959784030914
17	0x40110424c0000000	4.254046440124512
18	0x3fc5c302a0000000	0.17001374065876007
19	0x3fc6ace100000000	0.17715084552764893
20	0x4011a13900000000	4.407444000244141
21	0x3fccf9f500000000	0.22637808322906494
22	0xbfbe88ba40000000	-0.11927379667758942
23	0x4011191160000000	4.27448034286499
24	0xbfb3571500000000	-0.07554751634597778
25	0x3fc20eb4c0000000	0.1410737931728363
26	0x400cc18360000000	3.5944888591766357
27	0xbfcd1cfc80000000	-0.22744709253311157
28	0x3fb86be360000000	0.0953962430357933
29	0x400da10880000000	3.703629493713379
30	0x3fd0ec0180000000	0.26440465450286865
31	0x3fb1253200000000	0.06697380542755127
32	0x4010d26b20000000	4.20548677444458
33	0x3fc05b3300000000	0.1277831792831421
34	0x3fa1fc8000000000	0.035129547119140625
35	0x4011566340000000	4.334362983703613
36	0xbf9e33b800000000	-0.029494166374206543
37	0xbfa2257900000000	-0.03544214367866516
38	0x400bf95fc0000000	3.496764659881592
39	0xbfceff7e00000000	-0.2421720027923584
40	0xbfb5e42b00000000	-0.08551281690597534
41	0x400cd7ca80000000	3.6053667068481445
42	0xbfc14a1bc0000000	-0.13507410883903503
43	0x3fcee61080000000	0.2413960099220276
44	0x400d2767e0000000	3.6442410945892334
45	0xbfc8e09b20000000	-0.19435442984104156
46	0x3fcbd396c0000000	0.21739467978477478
47	0x400dd49560000000	3.7288005352020264
48	0x3fce2dd8a0000000	0.23577411472797394
49	0x3fc2262700000000	0.14178931713104248
50	0x40113d3aa0000000	4.309793949127197
51	0x3fc956e0e0000000	0.19796381890773773
52	0x3fbcbb5060000000	0.11223318427801132
53	0x40119cdec0000000	4.403193473815918
54	0xbfce24c6c0000000	-0.23549732565879822
55	0xbfc2188900000000	-0.14137375354766846
56	0x400a9d2c20000000	3.326744318008423
57	0x3fd623e700000000	0.34594130516052246
58	0xbfc02b0fa0000000	-0.12631411850452423
59	0x40123263a0000000	4.549208164215088
60	0xbfc74969c0000000	-0.181927889585495
61	0xbfd11130e0000000	-0.2666742503643036
62	0x400a62e940000000	3.2982964515686035
63	0xbfd4737040000000	-0.31954580545425415
64	0xbfd0060300000000	-0.2503669261932373
65	0x400a966de0000000	3.3234517574310303
66	0xbfced1d820000000	-0.24077893793582916
67	0xbfc155d0c0000000	-0.13543137907981873
68	0x4009487fc0000000	3.160399913787842
69	0xbfd3254360000000	-0.29914936423301697
70	0xbfc0eecaa0000000	-0.13228733837604523
71	0x40095e9f20000000	3.1712019443511963
72	0xbfd1d2c680000000	-0.27848970890045166
73	0xbfcdaa5000000000	-0.23176002502441406
74	0x40087ca5a0000000	3.0608627796173096
75	0x3fd22ba900000000	0.28391480445861816
76	0xbfb69e08a0000000	-0.08834890276193619
77	0x4011a337c0000000	4.409392356872559
78	0x3fd1c7b540000000	0.27781420946121216
79	0xbfc5e74b40000000	-0.1711210310459137
80	0x4017210000000000	5.7822265625
81	0x3fc497f380000000	0.16088718175888062
82	0xbfc9157b00000000	-0.19596803188323975
83	0x4016da1be0000000	5.712996959686279
84	0x3fd2281100000000	0.2836954593658447
85	0xbfacceb740000000	-0.056264616549015045
86	0x4016644fa0000000	5.597959995269775
87	0x3fd8d3bc40000000	0.38792330026626587
88	0x3fd2706240000000	0.28810936212539673
89	0x4018dd4d60000000	6.216115474700928
90	0x3fd0ad00c0000000	0.2605592608451843
91	0x3fcc11a8c0000000	0.2192889153957367
92	0x4018bdca40000000	6.185341835021973
93	0xbfb7d1d7c0000000	-0.09304569661617279
94	0x3fb3766960000000	0.0760255679488182
95	0x401b18b220000000	6.7741169929504395
96	0xbfcc70d2c0000000	-0.22219309210777283
97	0x3fc5f5b680000000	0.17156106233596802
98	0x401a595040000000	6.587220191955566
99	0xbfd06153e0000000	-0.25594040751457214
100	0xbfb3406640000000	-0.07520140707492828
101	0x401a416220000000	6.5638508796691895
102	0x3fc8a23940000000	0.19245067238807678
103	0x3fbea8fbe0000000	0.1197659894824028
104	0x4018e73600000000	6.225791931152344
105	0x3f6105f400000000	0.002078033983707428
106	0x3fcf510260000000	0.24465970695018768
107	0x4018693460000000	6.102738857269287
108	0xbfb7431ec0000000	-0.09086792171001434
109	0xbf81efbb00000000	-0.008758030831813812
110	0x401ac59b80000000	6.692975997924805
111	0xbfd1df1bc0000000	-0.27924245595932007
112	0x3fbd42d1a0000000	0.11430082470178604
113	0x401a1450a0000000	6.519838809967041
114	0x3fc01498a0000000	0.1256285458803177
115	0xbfa25bf940000000	-0.03585795313119888
116	0x4018522ee0000000	6.080256938934326
117	0xbfb9a43b20000000	-0.10016221553087234
118	0x3fb2955420000000	0.07259107381105423
119	0x4017d48400000000	5.9575347900390625
120	0x3fd4bbc400000000	0.3239603042602539
121	0x3fcc81f7e0000000	0.2227163165807724
122	0x4018fe6ee0000000	6.248469829559326
123	0x3fc8d6f840000000	0.19406035542488098
124	0x3fd08c64c0000000	0.2585689425468445
125	0x4018c89dc0000000	6.195914268493652
126	0xbfc51a7b80000000	-0.16487067937850952
127	0x3fa1d79c00000000	0.03484809398651123
128	0x401b301840000000	6.796967506408691
129	0xbfd1e7acc0000000	-0.2797653079032898
130	0x3fbc339900000000	0.11016231775283813
131	0x401a9a9f00000000	6.650997161865234
132	0x3fc2204840000000	0.14161017537117004
133	0xbfaed58e80000000	-0.0602230578660965
134	0x401736a140000000	5.803349494934082
135	0xbfca5d36a0000000	-0.2059696465730667
136	0xbf9e6fa720000000	-0.029722796753048897
137	0x401b0a5660000000	6.760095119476318
138	0x3fcd29afc0000000	0.22783467173576355
139	0xbfc78e5200000000	-0.18403077125549316
140	0x40178996c0000000	5.884364128112793
141	0x3fba118a60000000	0.1018301472067833
142	0xbfca7bcee0000000	-0.20690332353115082
143	0x4017402b80000000	5.812665939331055
144	0x3fcf701360000000	0.24560777842998505
145	0xbfa16b05a0000000	-0.03401963785290718
146	0x4016d71ea0000000	5.71007776260376
147	0x3fc9f9ffc0000000	0.2029418647289276
148	0xbfa56bb120000000	-0.04183724895119667
149	0x4016ba8620000000	5.682152271270752
150	0x3fd33da880000000	0.3006383180618286
151	0xbfc035dbc0000000	-0.12664362788200378
152	0x401655a480000000	5.583635330200195
153	0xbfd0c31240000000	-0.2619062066078186
154	0xbf8ec81200000000	-0.015030041337013245
155	0x401aae6a00000000	6.670326232910156
156	0x3fa7f7cf40000000	0.0468125119805336
157	0xbfc4b349a0000000	-0.16172142326831818
158	0x4004244200000000	2.5177040100097656
159	0xbfaf1f4140000000	-0.06078533083200455
160	0xbfc58064c0000000	-0.16798076033592224
161	0x4004009000000000	2.500274658203125
162	0x3f57cec000000000	0.001453101634979248
163	0xbfafea1300000000	-0.062332719564437866
164	0x4003400e80000000	2.406277656555176
165	0x3fa16c2180000000	0.03402809798717499
166	0x3fd0966e60000000	0.25918158888816833
167	0x40078bc900000000	2.9432544708251953
168	0xbfc0fed420000000	-0.13277675211429596
169	0x3fd12e88a0000000	0.26846519112586975
170	0x40076e6ec0000000	2.928922176361084
171	0x3f9abc2300000000	0.026108309626579285
172	0x3fa97eda80000000	0.04979594051837921
173	0x400c28bd80000000	3.519892692565918
174	0xbfbd6e2100000000	-0.11496168375015259
175	0x3faf141f80000000	0.06070040166378021
176	0x400bb25c40000000	3.462090015411377
177	0xbfa899c400000000	-0.04804813861846924
178	0xbfc7154e40000000	-0.18033769726753235
179	0x400b9c9ec0000000	3.451474666595459
180	0x3f97df9c00000000	0.023313939571380615
181	0x3fc118bc20000000	0.13356734812259674
182	0x4007908280000000	2.945561408996582
183	0xbfc5ba7080000000	-0.16975218057632446
184	0x3fc215c680000000	0.14128953218460083
185	0x4007698460000000	2.9265220165252686
186	0x3fa2b7ca00000000	0.036558449268341064
187	0xbfb1cb3ca0000000	-0.06950739771127701
188	0x400bc5c900000000	3.4715747833251953
189	0xbfc0bfbe00000000	-0.13085150718688965
190	0xbfad101000000000	-0.0567631721496582
191	0x400b98c960000000	3.4496028423309326
192	0x3f90a85400000000	0.016267120838165283
193	0xbf90cce4a0000000	-0.016406605020165443
194	0x4006da3a60000000	2.8565566539764404
195	0xbfc6b4df60000000	-0.1773947924375534
196	0xbf9240e0c0000000	-0.017825614660978317
197	0x4006adc960000000	2.8348567485809326
198	0x3fa3c7a840000000	0.03863263875246048
199	0x3fcddd3a00000000	0.23331379890441895
200	0x4007df27e0000000	2.9839627742767334
201	0xbfc3448e00000000	-0.1505296230316162
202	0x3fcf5db400000000	0.24504709243774414
203	0x4007beb600000000	2.968120574951172
204	0x3f83a80400000000	0.009597808122634888
205	0xbf8ae1e000000000	-0.013126134872436523
206	0x400c561400000000	3.5420303344726562
207	0xbfbad8fc80000000	-0.10487344861030579
208	0x3f77f71400000000	0.005850866436958313
209	0x400c198da0000000	3.512477159500122
210	0xbfa31e7b40000000	-0.03734192997217178
211	0xbfacbc88e0000000	-0.056125905364751816
212	0x4005140e60000000	2.6347930431365967
213	0x3f84498dc0000000	0.009905917569994926
214	0xbfcd78b040000000	-0.23024562001228333
215	0x400ccfdc00000000	3.6014938354492188
216	0x3fac156e60000000	0.05485100671648979
217	0xbfc4c3ba00000000	-0.16222310066223145
218	0x400501f6a0000000	2.6259586811065674
219	0xbfb74cf280000000	-0.09101787209510803
220	0xbfc5e0bd60000000	-0.17092101275920868
221	0x4004d82e40000000	2.6055569648742676
222	0x3f98694f80000000	0.023839227855205536
223	0xbfa37864a0000000	-0.03802790120244026
224	0x4003ea6ce0000000	2.4894654750823975
225	0xbfa67e9160000000	-0.04393438622355461
226	0xbfa629fec0000000	-0.043289147317409515
227	0x4003d21340000000	2.4775757789611816
228	0x3f87cf5dc0000000	0.011625988408923149
229	0xbfc3822aa0000000	-0.1524098664522171
230	0x4002ff48e0000000	2.374650716781616
231	0xbf9dcc1700000000	-0.02909885346889496
232	0xbfc7d32f00000000	-0.1861323118209839
233	0x400c6275a0000000	3.5480759143829346
234	0x3fd60ef5c0000000	0.3446630835533142
235	0xbfcf9a90a0000000	-0.24690444767475128
236	0x40173200a0000000	5.798830509185791
237	0x3fd095c300000000	0.2591407299041748
238	0xbfd2c90a40000000	-0.2935205101966858
239	0x401705bac0000000	5.7555952072143555
240	0x3fd6356180000000	0.3470081090927124
241	0xbfcb5de4c0000000	-0.21380290389060974
242	0x4016922d00000000	5.642749786376953
243	0x3fc4bd8ac0000000	0.16203436255455017
244	0x3fd1e260c0000000	0.2794420123100281
245	0x40185d45e0000000	6.0910868644714355
246	0x3fc0264c00000000	0.12616872787475586
247	0x3fd477f420000000	0.31982138752937317
248	0x4017b7ef40000000	5.929623603820801
249	0xbfb5f928a0000000	-0.0858331099152565
250	0x3fcac24340000000	0.2090534269809723
251	0x401aaea7c0000000	6.670561790466309
252	0xbfd07f2940000000	-0.25776129961013794
253	0x3fcd41f4c0000000	0.22857531905174255
254	0x4019bf7a00000000	6.436988830566406
255	0xbfc14b0940000000	-0.13510242104530334
