demo_out/run3/epoch50/params.npz (npz, 11215 bytes, 4 tensors)

pose f8 [5, 105]
0	0x3ff158ac40000000	1.084148645401001
1	0x3ff6d432c0000000	1.4268062114715576
2	0xbff1ce76a0000000	-1.1129060983657837
3	0xbfaabe72a0000000	-0.05223425105214119
4	0x3fa64c74a0000000	0.043552059680223465
5	0x3fb1099440000000	0.06655241549015045
6	0x3f98329ea0000000	0.023630598559975624
7	0x3f9ae0bb60000000	0.026247909292578697
8	0xbfb6f080e0000000	-0.08960729092359543
9	0xbfbdb2a6a0000000	-0.1160072460770607
10	0xbfd5f6a620000000	-0.34317925572395325
11	0xbfa7002f20000000	-0.04492327943444252
12	0xbfbc62ee80000000	-0.11088457703590393
13	0x3fd1f9f600000000	0.280881404876709
14	0x3f8b46bd00000000	0.013318516314029694
15	0xbf9f6c6780000000	-0.030686967074871063
16	0x3fba411500000000	0.10255557298660278
17	0xbf95e47280000000	-0.021379269659519196
18	0xbfc3046520000000	-0.14857162535190582
19	0x3fda458840000000	0.4104939103126526
20	0xbfb25c42c0000000	-0.07172028720378876
21	0xbfe488f480000000	-0.6417181491851807
22	0x3ff03abc80000000	1.0143399238586426
23	0x3fbec30640000000	0.12016333639621735
24	0x3fdabaafe0000000	0.4176444709300995
25	0x3ff0f2a380000000	1.0592379570007324
26	0x3fe0ecf700000000	0.5289263725280762
27	0xbfdf39f3c0000000	-0.487912118434906
28	0xbfd9fa0940000000	-0.4058859944343567
29	0xbfcfbfce80000000	-0.24804097414016724
30	0x3fe87e2d60000000	0.7654024958610535
31	0x3feae2f640000000	0.8402053117752075
32	0xbf9819c780000000	-0.023535840213298798
33	0x3fe13861a0000000	0.5381324887275696
34	0x3ff4c0d5c0000000	1.2970788478851318
35	0xbfc6384d20000000	-0.1735931783914566
36	0xbfd3fa03c0000000	-0.31213468313217163
37	0x3fe582c480000000	0.6722128391265869
38	0xbfe01b9d60000000	-0.5033709406852722
39	0x3fdea19a40000000	0.4786134362220764
40	0xbfe0089440000000	-0.5010472536087036
41	0x3fd6f6c020000000	0.3588104546070099
42	0x3fcb802ce0000000	0.2148490995168686
43	0x3fe4956900000000	0.6432385444641113
44	0x3fe1640080000000	0.5434572696685791
45	0x3fd3a15180000000	0.3067210912704468
46	0x3f9c0d9700000000	0.027395591139793396
47	0xbfc9c6f5c0000000	-0.2013842761516571
48	0x3fe60b7d00000000	0.6889023780822754
49	0xbff4cf3260000000	-1.300585150718689
50	0xbfce347de0000000	-0.2359769195318222
51	0x3fc682e9a0000000	0.1758701354265213
52	0x3fe3a6a940000000	0.6140943765640259
53	0xbfd0aec100000000	-0.2606661319732666
54	0xbfa6aa2f20000000	-0.04426715150475502
55	0x3fc7145d00000000	0.18030893802642822
56	0x3fad3685c0000000	0.057056598365306854
57	0xbfdcad2fe0000000	-0.4480704963207245
58	0x3fe39db1e0000000	0.6129998564720154
59	0x3fc2952040000000	0.145175963640213
60	0xbfe1176360000000	-0.5341050028800964
61	0xbfe131c340000000	-0.5373245477676392
62	0x3fe71e0e20000000	0.7224188446998596
63	0x3fd379bbe0000000	0.3043050467967987
64	0x3fe90a87e0000000	0.7825354933738708
65	0x3fca70b580000000	0.20656460523605347
66	0x3f9f957340000000	0.030843544751405716
67	0x3fd0647180000000	0.256130576133728
68	0xbfc2464180000000	-0.14276903867721558
69	0xbfd34abb60000000	-0.30143627524375916
70	0x3fd1205f60000000	0.2676008641719818
71	0x3fc96e3280000000	0.19867545366287231
72	0xbfdab8dce0000000	-0.41753312945365906
73	0xbfe6de29c0000000	-0.714619517326355
74	0x3ff18c2140000000	1.0967113971710205
75	0x3faf9a6740000000	0.06172487884759903
76	0x3fe3303dc0000000	0.599638819694519
77	0x3fd3cccf40000000	0.3093755841255188
78	0xbfceb372c0000000	-0.23985132575035095
79	0x3fe5d606c0000000	0.6823762655258179
80	0x3fa04d7880000000	0.03184105455875397
81	0xbfc7abfbe0000000	-0.1849360316991806
82	0x3fd6526a20000000	0.34878018498420715
83	0xbfb85ceb80000000	-0.0951678454875946
84	0xbfc1cb6800000000	-0.13901996612548828
85	0x3fc0e48980000000	0.13197439908981323
86	0xbfaa02c3c0000000	-0.05080234259366989
87	0xbfb964f200000000	-0.09919655323028564
88	0x3fd15b5840000000	0.2712002396583557
89	0x3f98ba1a40000000	0.02414742484688759
90	0xbf9795b0a0000000	-0.02303195931017399
91	0x3fdaca9600000000	0.41861486434936523
92	0xbfd00b6da0000000	-0.250697523355484
93	0xbfc92a7500000000	-0.19660818576812744
94	0x3fdea26a80000000	0.4786630868911743
95	0xbfcededdc0000000	-0.24117633700370789
96	0xc000cbef80000000	-2.0995779037475586
97	0xbfd0daaa40000000	-0.26334625482559204
98	0x3fef9f7040000000	0.9882127046585083
99	0xbfeae65d20000000	-0.8406205773353577
100	0x3fe177ae60000000	0.5458595156669617
101	0xbfdfe90e20000000	-0.4985995590686798
102	0x3fdbc70980000000	0.43402326107025146
103	0x3ff1418340000000	1.0784943103790283
104	0x3ff4704cc0000000	1.2774169445037842
105	0x3ff5da13e0000000	1.3657416105270386
106	0x3ff58d22c0000000	1.3469569683074951
107	0xbff55e1460000000	-1.3354686498641968
108	0x3f7939b800000000	0.006158560514450073
109	0xbfc0f045a0000000	-0.13233251869678497
110	0x3fae88a900000000	0.05963638424873352
111	0xbfb672fd80000000	-0.08769211173057556
112	0x3fb52f65e0000000	0.08275448530912399
113	0xbfb1d1c700000000	-0.0696071982383728
114	0x3f894fa940000000	0.012358972802758217
115	0xbfc00e5e80000000	-0.12543851137161255
116	0x3f92be2a20000000	0.01830354519188404
117	0xbfc1066a00000000	-0.13300824165344238
118	0x3fc7ecbb20000000	0.1869119554758072
119	0xbfafe94d40000000	-0.0623268261551857
120	0xbfb6612d20000000	-0.08742029219865799
121	0x3faaab2e40000000	0.05208725482225418
122	0xbf9990d580000000	-0.024966560304164886
123	0x3f9ea34fc0000000	0.029919859021902084
124	0x3fd5ea74c0000000	0.3424350619316101
125	0x3faad7d180000000	0.05242781341075897
126	0xbfc7e347e0000000	-0.18662355840206146
127	0x3fef769a40000000	0.9832278490066528
128	0x3fd1734700000000	0.2726609706878662
129	0x3fdeb937a0000000	0.4800547659397125
130	0x3fe590bb20000000	0.6739173531532288
131	0x3fe3e956c0000000	0.6222337484359741
132	0xbfd124be80000000	-0.26786768436431885
133	0x3fe2cf66c0000000	0.5878175497055054
134	0xbfd051b140000000	-0.25498610734939575
135	0x3fd59d05a0000000	0.33770886063575745
136	0x3ff4000e00000000	1.2500133514404297
137	0xbfc39928c0000000	-0.1531115472316742
138	0x3fe3cf1ba0000000	0.6190317273139954
139	0x3ff8f9f200000000	1.5610218048095703
140	0xbfd2adc340000000	-0.2918556332588196
141	0x3fa2cd9980000000	0.03672485053539276
142	0x3fe99a08a0000000	0.8000529408454895
143	0xbfceeae9a0000000	-0.2415439635515213
144	0x3fe04df340000000	0.5095154047012329
145	0xbfcd26e380000000	-0.2277492880821228
146	0x3fea589560000000	0.8233134150505066
147	0x3fe0cbb6e0000000	0.5248674750328064
148	0x3f75e83800000000	0.005348414182662964
149	0x3fe28d6c20000000	0.5797634720802307
150	0x3fdbea7700000000	0.4361855983734131
151	0x3fcc9d9a60000000	0.2235596626996994
152	0xbfe51ab3a0000000	-0.6595094799995422
153	0x3fe4e255a0000000	0.6526287198066711
154	0xbfe9758d60000000	-0.795599639415741
155	0xbfe29724e0000000	-0.5809502005577087
156	0x3fd027aa20000000	0.25242093205451965
157	0x3fe2343140000000	0.5688711404800415
158	0xbfcf290540000000	-0.24343934655189514
159	0xbfabaf35a0000000	-0.05407111719250679
160	0x3fe9959c00000000	0.7995128631591797
161	0x3fd83e58e0000000	0.37880536913871765
162	0xbfc44757e0000000	-0.15842722356319427
163	0x3fbc932220000000	0.11162007600069046
164	0x3fbf83f400000000	0.1231071949005127
165	0xbfbe472900000000	-0.11827331781387329
166	0xbfdbe849e0000000	-0.43605276942253113
167	0x3fed876f20000000	0.9227824807167053
168	0x3fd4f0c6a0000000	0.32719579339027405
169	0x3fe54e77a0000000	0.66582852602005
170	0x3fc7c05b00000000	0.18555772304534912
171	0xbf95623c00000000	-0.02088254690170288
172	0x3fe102e560000000	0.5316035151481628
173	0x3f9d338280000000	0.028516806662082672
174	0xbfc36bc180000000	-0.15172594785690308
175	0x3fcde8a8a0000000	0.2336626797914505
176	0x3facf881e0000000	0.0565834604203701
177	0xbfc6f94d40000000	-0.1794830858707428
178	0xbfd4c8fac0000000	-0.3247668147087097
179	0x3fea122de0000000	0.8147191405296326
180	0xbf7f664d80000000	-0.007665922865271568
181	0xbfd8545c80000000	-0.3801490068435669
182	0xbfd0d54c00000000	-0.2630186080932617
183	0xbfcb763cc0000000	-0.2145458161830902
184	0x3fc5ddf9c0000000	0.1708366572856903
185	0xbfda88b960000000	-0.41459497809410095
186	0xbfa8ec46c0000000	-0.04867764562368393
187	0xbfb653d8c0000000	-0.08721689879894257
188	0xbfd92e4e20000000	-0.3934512436389923
189	0xbfbeb37ac0000000	-0.11992613971233368
190	0x3fac4b9780000000	0.055264219641685486
191	0xbfccf86420000000	-0.22633029520511627
192	0xbfceb55fc0000000	-0.2399100959300995
193	0x3fd70f3160000000	0.36030229926109314
194	0xbfbc6905a0000000	-0.11097750812768936
195	0xbfd9877e80000000	-0.39889490604400635
196	0x3fe27c6e20000000	0.5776892304420471
197	0xbfc10f8660000000	-0.1332862824201584
198	0xbfd380bc80000000	-0.30473244190216064
199	0x3fd3d24940000000	0.3097098469734192
200	0xbfd2354140000000	-0.2845004200935364
201	0xbff6e33560000000	-1.4304708242416382
202	0xbfead8e5c0000000	-0.8389767408370972
203	0x3ff715d9c0000000	1.4428346157073975
204	0xbfecf83aa0000000	-0.9053013920783997
205	0x3fe2750720000000	0.5767856240272522
206	0xbff14e2c60000000	-1.0815852880477905
207	0x3fdfd35d20000000	0.49727562069892883
208	0x3fee75e500000000	0.9518914222717285
209	0x3ffaf91f40000000	1.6858208179473877
210	0x3ff7a1a440000000	1.4769632816314697
211	0x3ff34c4ac0000000	1.2061259746551514
212	0xbff264e080000000	-1.1496281623840332
213	0xbfc0b70c80000000	-0.13058620691299438
214	0x3fb023ed00000000	0.06304818391799927
215	0xbfd1bfd100000000	-0.2773325443267822
216	0xbfcb7bf460000000	-0.21472029387950897
217	0xbfaf0c1140000000	-0.06063894182443619
218	0x3fc0aeb520000000	0.13033165037631989
219	0x3faedd0840000000	0.06028009206056595
220	0xbfbadc11c0000000	-0.10492049157619476
221	0x3fa02cf1e0000000	0.031592901796102524
222	0x3fc060ffc0000000	0.1279601752758026
223	0x3fc52c0a00000000	0.1654064655303955
224	0xbf9ff10a80000000	-0.03119293600320816
225	0xbfb7088de0000000	-0.08997427672147751
226	0x3fbfe78040000000	0.12462617456912994
227	0xbfb204dc00000000	-0.07038664817810059
228	0x3fa1160360000000	0.03337107226252556
229	0x3fd442c6c0000000	0.31657570600509644
230	0x3f92865ec0000000	0.018090706318616867
231	0xbfd8806e00000000	-0.38283872604370117
232	0x3ff2210700000000	1.1330633163452148
233	0x3fb3446000000000	0.07526206970214844
234	0x3fdc2c7b00000000	0.4402148723602295
235	0x3fe7a384e0000000	0.7387108206748962
236	0x3fd3dbc520000000	0.3102886974811554
237	0xbfcde20300000000	-0.23345983028411865
238	0xbfd68263c0000000	-0.3517083525657654
239	0xbfc39af280000000	-0.15316611528396606
240	0x3fa3eeed80000000	0.03893224895000458
241	0x3ff313c3c0000000	1.1923253536224365
242	0xbfa50e3ee0000000	-0.041124310344457626
243	0x3fe549daa0000000	0.6652653813362122
244	0x3ff54d53e0000000	1.3313788175582886
245	0xbfccba9d00000000	-0.22444498538970947
246	0xbfd6944a80000000	-0.35280096530914307
247	0x3fef55df00000000	0.9792323112487793
248	0xbfd65ca740000000	-0.34940510988235474
249	0x3fd67671a0000000	0.3509792387485504
250	0xbfd16653e0000000	-0.27187058329582214
251	0x3fdf56cf40000000	0.4896734356880188
252	0x3fd972af00000000	0.3976247310638428
253	0x3fdc9bbc80000000	0.44700539112091064
254	0x3fe20770e0000000	0.5634083151817322
255	0xbfbf9ef700000000	-0.12351936101913452

betas f8 [5, 41]
0	0x3fd78b7960000000	0.36788782477378845
1	0x3fd36b6660000000	0.3034301698207855
2	0xc0010751e0000000	-2.1285741329193115
3	0xbfeeb4db20000000	-0.9595771431922913
4	0x3fc6ae1320000000	0.17718733847141266
5	0x3fb3456220000000	0.07527745515108109
6	0x4010ee08e0000000	4.232455730438232
7	0x4006150b60000000	2.7602756023406982
8	0x3fefabf6a0000000	0.9897416234016418
9	0x3ff7334720000000	1.4500190019607544
10	0xc007346ce0000000	-2.9005982875823975
11	0xbfea878e80000000	-0.829047441482544
12	0xbff67fe320000000	-1.4062224626541138
13	0xc001d55240000000	-2.229160785675049
14	0x3fb115f100000000	0.06674104928970337
15	0x3fe4b211a0000000	0.6467369198799133
16	0xc0197a59e0000000	-6.369483470916748
17	0xc024570be0000000	-10.170012474060059
18	0xc01756e200000000	-5.834846496582031
19	0x400167cfe0000000	2.175689458847046
20	0xbfe1508c80000000	-0.5410826206207275
21	0xbff1f6c280000000	-1.122744083404541
22	0xbfeb3e29e0000000	-0.8513383269309998
23	0xc02128cd00000000	-8.579689025878906
24	0xbfda040d00000000	-0.4064972400665283
25	0xbff74bb520000000	-1.455983281135559
26	0x3f4187be80000000	0.0005349807906895876
27	0x3f468e5620000000	0.0006883545429445803
28	0xbf5d7c4880000000	-0.0017996509559452534
29	0xbf47e13da0000000	-0.0007287550834007561
30	0x3f393ac140000000	0.00038497179048135877
31	0xbf5b8a8220000000	-0.0016809721710160375
32	0xbf6072f1c0000000	-0.002007934730499983
33	0xbf5f7af5c0000000	-0.0019214057829231024
34	0xbf58d51d60000000	-0.0015156542649492621
35	0x3f4780c120000000	0.0007172530167736113
36	0x3f312900a0000000	0.0002618433500174433
37	0x3f632ca780000000	0.0023406287655234337
38	0x3f62304d00000000	0.002220297232270241
39	0xbf2a740d20000000	-0.00020182285516057163
40	0xbf527fd660000000	-0.0011291116243228316
41	0x3fe529c920000000	0.6613507866859436
42	0x400397a8a0000000	2.449052095413208
43	0xc010848be0000000	-4.129439830780029
44	0xbffa6aeec0000000	-1.651106595993042
45	0x3fdc6b8ae0000000	0.44406387209892273
46	0xc015a7e380000000	-5.41395378112793
47	0x4011e8d740000000	4.477383613586426
48	0x4011f31760000000	4.487393856048584
49	0xbfe49ed080000000	-0.6443865299224854
50	0x40086a05a0000000	3.0517685413360596
51	0xbfe13c1220000000	-0.5385828614234924
52	0x3ff7f720c0000000	1.4978339672088623
53	0x4016725800000000	5.611663818359375
54	0xbfff2a1de0000000	-1.9477823972702026
55	0x401093f740000000	4.144497871398926
56	0x3fffc29700000000	1.9850072860717773
57	0xc017ee5360000000	-5.9827399253845215
58	0xc02606f2c0000000	-11.013570785522461
59	0xc019ab7c60000000	-6.417466640472412
60	0xbffef214c0000000	-1.9341018199920654
61	0xbfedbc8760000000	-0.9292637705802917
62	0xbff1b88580000000	-1.1075491905212402
63	0xbff11f02a0000000	-1.0700708627700806
64	0xc0236fbb60000000	-9.718226432800293
65	0x3fd8ce9440000000	0.3876085877418518
66	0xc00bd41020000000	-3.478546380996704
67	0x3f4139e240000000	0.0005256991134956479
68	0x3f4ba2f2a0000000	0.0008433994953520596
69	0xbf613e2b60000000	-0.0021048400085419416
70	0xbf52662f80000000	-0.0011229957453906536
71	0x3f4c9ac260000000	0.0008729409310035408
72	0xbf60b3cfc0000000	-0.002038865815848112
73	0xbf5dfb35c0000000	-0.0018299126531928778
74	0xbf60c6c1c0000000	-0.0020478996448218822
75	0xbf5c873c60000000	-0.0017412271117791533
76	0x3f489d4a40000000	0.0007511723088100553
77	0x3f3a867720000000	0.0004047432739753276
78	0x3f629c0d60000000	0.0022716771345585585
79	0x3f5e3786c0000000	0.0018442932050675154
80	0x3ef0621700000000	1.562420220579952e-05
81	0xbf53584ec0000000	-0.0011807221453636885
82	0xbfd058aaa0000000	-0.2554117739200592
83	0x4008091b00000000	3.004446029663086
84	0xc0017bea80000000	-2.1855058670043945
85	0xc00969f280000000	-3.176732063293457
86	0xbfd4e69360000000	-0.3265732228755951
87	0xc019a64aa0000000	-6.412394046783447
88	0x4011fd2d20000000	4.497242450714111
89	0x3fd0d2d0c0000000	0.26286715269088745
90	0x40094b2c20000000	3.161705255508423
91	0xbfd7c54c40000000	-0.3714171051979065
92	0xc0010c3f40000000	-2.1309800148010254
93	0xc00f9b1d20000000	-3.9507391452789307
94	0xbffda36840000000	-1.8523943424224854
95	0x3ffb1fb4c0000000	1.6952407360076904
96	0xbff2b4bc40000000	-1.1691248416900635
97	0xc00a7606c0000000	-3.3076300621032715
98	0xc015c73340000000	-5.444531440734863
99	0xc025b77960000000	-10.85834789276123
100	0xc022310220000000	-9.095719337463379
101	0x400912f1c0000000	3.1342501640319824
102	0xbfeb363080000000	-0.8503649234771729
103	0xc002624880000000	-2.297989845275879
104	0xbfebbc8860000000	-0.86676424741745
105	0xc021bef400000000	-8.872955322265625
106	0xbfed8253a0000000	-0.9221590161323547
107	0xc0005bef60000000	-2.0448901653289795
108	0x3f3db5c1c0000000	0.00045333843445405364
109	0x3f55e40f40000000	0.0013361119199544191
110	0xbf5c77bf40000000	-0.0017375343013554811
111	0xbf4e16f080000000	-0.0009182619396597147
112	0x3f4c687d20000000	0.0008669482194818556
113	0xbf610e2b40000000	-0.002081951592117548
114	0xbf61775300000000	-0.002132093533873558
115	0xbf5f2a13c0000000	-0.0019021218176931143
116	0xbf57d8f540000000	-0.001455535413697362
117	0x3f447911e0000000	0.0006247842102311552
118	0x3f22c9dcc0000000	0.00014334506704472005
119	0x3f6315f340000000	0.002329802606254816
120	0x3f64dc3ae0000000	0.0025464200880378485
121	0xbf3073b0c0000000	-0.00025103631196543574
122	0xbf51d30ba0000000	-0.0010879148030653596
123	0x3fd4f3c240000000	0.3273778557777405
124	0x3ff8b97c00000000	1.5452842712402344
125	0xc0089d3920000000	-3.0767691135406494
126	0xbfccef17a0000000	-0.22604651749134064
127	0x3fee458ee0000000	0.9459909796714783
128	0xc014c1bce0000000	-5.189197063446045
129	0x4009ff5b20000000	3.249685525894165
130	0x401cd8bea0000000	7.21166467666626
131	0xc002034ba0000000	-2.2516090869903564
132	0x400bd4a120000000	3.478822946548462
133	0xc00aa7f040000000	-3.332001209259033
134	0xc004c05500000000	-2.593912124633789
135	0x4003ed6da0000000	2.490931749343872
136	0xbff6ab0aa0000000	-1.4167581796646118
137	0x401541f860000000	5.31442403793335
138	0x3fe2ca0bc0000000	0.5871638059616089
139	0xc018ae2880000000	-6.170076370239258
140	0xc0259f0480000000	-10.81058120727539
141	0xc00b8ade00000000	-3.4428062438964844
142	0xbff4028a40000000	-1.2506201267242432
143	0xbfe3d62800000000	-0.6198921203613281
144	0xbfe50a48e0000000	-0.657505452632904
145	0xbfecee3640000000	-0.9040786027908325
146	0xc021f37b80000000	-8.97555160522461
147	0x3fe761b4c0000000	0.7306770086288452
148	0xc004318140000000	-2.524172306060791
149	0x3f10207a00000000	6.151909474283457e-05
150	0x3f52d6f9e0000000	0.0011498871026560664
151	0xbf628a0d80000000	-0.002263094298541546
152	0xbf51430420000000	-0.001053575542755425
153	0x3f4bc89360000000	0.0008478850941173732
154	0xbf5f9c84e0000000	-0.0019294068915769458
155	0xbf6112bd00000000	-0.002084130421280861
156	0xbf61f6a4e0000000	-0.002192804357036948
157	0xbf608e1800000000	-0.0020208805799484253
158	0x3f4bf198e0000000	0.0008527752361260355
159	0xbf2e4a8880000000	-0.00023110309848561883
160	0x3f61e34c60000000	0.002183579606935382
161	0x3f5fdd9f60000000	0.0019449287792667747
162	0xbf1bcc0f40000000	-0.00010603755072224885
163	0xbf4b4ff540000000	-0.0008335063466802239
164	0xbf8d656320000000	-0.014353537000715733
165	0x3ff14e11a0000000	1.0815597772598267
166	0xc0026889a0000000	-2.301043748855591
167	0xbfe5fe9be0000000	-0.6873301863670349
168	0x3fd366edc0000000	0.3031572699546814
169	0xc009621980000000	-3.1729001998901367
170	0x401b691960000000	6.852635860443115
171	0x3ff02cb140000000	1.010911226272583
172	0x4007419680000000	2.9070253372192383
173	0xc0012db220000000	-2.1473124027252197
174	0xc00d72e860000000	-3.68110728263855
175	0xc00212eb60000000	-2.2592380046844482
176	0xc008f74920000000	-3.1207449436187744
177	0xbfe6f09ee0000000	-0.7168726325035095
178	0x3ffae839a0000000	1.681695580482483
179	0xc0023c15e0000000	-2.2793385982513428
180	0xc0199c3040000000	-6.402527809143066
181	0xc0297b4fc0000000	-12.740842819213867
182	0xc020f4cd80000000	-8.478130340576172
183	0x4004d7c8c0000000	2.605363368988037
184	0xbfe7b89640000000	-0.74128258228302
185	0xc003941be0000000	-2.4473187923431396
186	0xbff1abb700000000	-1.1044225692749023
187	0xc021974420000000	-8.795441627502441
188	0xbff6320040000000	-1.387207269668579
189	0xc0035be400000000	-2.4198684692382812
190	0x3f5129bc80000000	0.001047548372298479
191	0x3f56048200000000	0.0013438481837511063
192	0xbf5e8ac8c0000000	-0.0018641434144228697
193	0xbf491992e0000000	-0.0007659880793653429
194	0x3f50d93a40000000	0.0010283535812050104
195	0xbf62d9bda0000000	-0.002301092492416501
196	0xbf60d99e80000000	-0.0020568938925862312
197	0xbf60e93c40000000	-0.0020643402822315693
198	0xbf568d9000000000	-0.001376524567604065
199	0x3f3fa6f940000000	0.00048297486500814557
200	0x3f3e0b98c0000000	0.0004584548878483474
201	0x3f680c9920000000	0.0029356947634369135
202	0x3f6228f5a0000000	0.002216796623542905
203	0x3f25570160000000	0.000162810247275047
204	0xbf57154a40000000	-0.001408884534612298

camera f8 [5, 3]
0	0xc00c83ce40000000	-3.5643582344055176
1	0x405c000000000000	112.0
2	0x405c000000000000	112.0
3	0xc00aac9900000000	-3.3342761993408203
4	0x405c000000000000	112.0
5	0x405c000000000000	112.0
6	0xc00a348040000000	-3.275635242462158
7	0x405c000000000000	112.0
8	0x405c000000000000	112.0
9	0xc0097b1040000000	-3.185089588165283
10	0x405c000000000000	112.0
11	0x405c000000000000	112.0
12	0xc00c9c8fc0000000	-3.576446056365967
13	0x405c000000000000	112.0
14	0x405c000000000000	112.0

joints3d f8 [5, 26, 3]
0	0xbfc2e888e0000000	-0.14772139489650726
1	0xbfccc96480000000	-0.22489601373672485
2	0x4008a39260000000	3.079869031906128
3	0xbfce36a200000000	-0.23604226112365723
4	0xbfc9da3aa0000000	-0.20197232067584991
5	0x4009149940000000	3.1350579261779785
6	0xbfd193d6c0000000	-0.27464836835861206
7	0xbfbc87f500000000	-0.11144953966140747
8	0x4006e84980000000	2.8634214401245117
9	0x3fc8a13f40000000	0.1924208700656891
10	0xbfbda2f0c0000000	-0.11576752364635468
11	0x400e400b40000000	3.781271457672119
12	0x3fca1ea180000000	0.20405977964401245
13	0xbfbb31cb80000000	-0.10622856020927429
14	0x400e575740000000	3.792646884918213
15	0x3fcfc79f00000000	0.24827945232391357
16	0x3fc2ffd040000000	0.14843180775642395
17	0x4011b2aa80000000	4.424478530883789
18	0x3fce0e0640000000	0.2348029911518097
19	0x3fb06e2000000000	0.06418037414550781
20	0x4011d6ffa0000000	4.459959506988525
21	0x3fc5f26a80000000	0.17146044969558716
22	0xbfc24c2b60000000	-0.14294950664043427
23	0x4010106040000000	4.015992164611816
24	0x3fb108d4e0000000	0.06654100865125656
25	0x3fc0031940000000	0.12509456276893616
26	0x400cd100e0000000	3.6020524501800537
27	0xbfb0e23660000000	-0.06595172733068466
28	0xbf60a15d60000000	-0.0020300697069615126
29	0x400d056d40000000	3.6276497840881348
30	0x3fccc2c540000000	0.2246939241886139
31	0x3f8a3b1000000000	0.012807965278625488
32	0x40107ae6c0000000	4.120020866394043
33	0x3fc60b3bc0000000	0.17221781611442566
34	0xbf9cc85300000000	-0.02810792624950409
35	0x4010a45180000000	4.160467147827148
36	0x3fbefdb480000000	0.12105873227119446
37	0x3fafc032c0000000	0.062013231217861176
38	0x400af74c00000000	3.3707504272460938
39	0xbfb292aa40000000	-0.07255043089389801
40	0xbfb2645d00000000	-0.07184392213821411
41	0x400b75fea0000000	3.43261456489563
42	0x3fc736dec0000000	0.18136200308799744
43	0xbfb3410400000000	-0.0752108097076416
44	0x400dd62e00000000	3.7295799255371094
45	0x3fc1846900000000	0.13685333728790283
46	0xbfc0a8de60000000	-0.13015346229076385
47	0x400e0102c0000000	3.7504935264587402
48	0x3fcf7a77c0000000	0.2459249198436737
49	0x3fbd363800000000	0.11410856246948242
50	0x401132e640000000	4.29970645904541
51	0x3fcdc30bc0000000	0.23251482844352722
52	0x3f8320f500000000	0.009340204298496246
53	0x40115c82c0000000	4.3403425216674805
54	0xbfb824f480000000	-0.09431388974189758
55	0xbf7702be00000000	-0.00561784952878952
56	0x400904b7c0000000	3.1273036003112793
57	0x3fd424fd80000000	0.31475770473480225
58	0xbfdaceba00000000	-0.4188675880432129
59	0x40106115e0000000	4.0948100090026855
60	0xbfaa773ec0000000	-0.05169101804494858
61	0xbfc2e4d540000000	-0.1476084291934967
62	0x40096499e0000000	3.174121618270874
63	0xbfc0179f00000000	-0.12572085857391357
64	0xbfbf297800000000	-0.12172651290893555
65	0x4009d93a60000000	3.2310683727264404
66	0xbfc9fd88c0000000	-0.20304974913597107
67	0x3f798996e0000000	0.006234731059521437
68	0x4008159cc0000000	3.0105528831481934
69	0xbfcd3186c0000000	-0.22807392477989197
70	0x3f88445a60000000	0.011849123053252697
71	0x40083db040000000	3.030121326446533
72	0xbfd2a6c980000000	-0.29142987728118896
73	0xbfce2f69a0000000	-0.2358219176530838
74	0x4007cd7c60000000	2.975334882736206
75	0x3fc4e925e0000000	0.16336511075496674
76	0xbfd22ed200000000	-0.28410768508911133
77	0x4010aacfc0000000	4.166808128356934
78	0xbfd0bd5980000000	-0.2615569829940796
79	0xbfb0156880000000	-0.06282666325569153
80	0x4010765880000000	4.115571975708008
81	0xbfd06db800000000	-0.2566967010498047
82	0xbfa317c540000000	-0.03729072958230972
83	0x4010bc2fa0000000	4.183775424957275
84	0xbfd6461e40000000	-0.3480296730995178
85	0x3fbafe48c0000000	0.10544256865978241
86	0x400fbc2400000000	3.9668655395507812
87	0x3fc7b4c4c0000000	0.18520411849021912
88	0xbfc4ff7360000000	-0.16404573619365692
89	0x40131a63a0000000	4.775770664215088
90	0x3fcf8bbb60000000	0.24645178020000458
91	0xbfca19b4c0000000	-0.2039094865322113
92	0x4012212060000000	4.532350063323975
93	0x3fce083220000000	0.23462511599063873
94	0xbfcdacf380000000	-0.23184055089950562
95	0x4015356d00000000	5.302173614501953
96	0x3fc97488e0000000	0.19886885583400726
97	0xbfc98d9c00000000	-0.19963407516479492
98	0x4015441f20000000	5.316524982452393
99	0x3fc4a58640000000	0.1613014042377472
100	0xbfcb500d00000000	-0.21338045597076416
101	0x4013ac7c40000000	4.918442726135254
102	0x3fca470e00000000	0.2052934169769287
103	0x3fbce7a0c0000000	0.11290936172008514
104	0x40123d4f60000000	4.559873104095459
105	0x3f8d5c7800000000	0.01433652639389038
106	0x3fa7f8e1e0000000	0.04682069644331932
107	0x4012475380000000	4.56965446472168
108	0x3fcc382740000000	0.22046366333961487
109	0xbfc943e260000000	-0.19738416373729706
110	0x40140df780000000	5.013639450073242
111	0x3fc4cab840000000	0.16243651509284973
112	0xbfc6a41040000000	-0.1768818199634552
113	0x40141eaea0000000	5.02996301651001
114	0x3fcb2dc200000000	0.21233391761779785
115	0x3f9a831600000000	0.02589067816734314
116	0x40115851e0000000	4.336249828338623
117	0x3f912ee200000000	0.01678040623664856
118	0xbeec300000000000	-1.3440847396850586e-05
119	0x4011aa8820000000	4.416534900665283
120	0x3fcc6922c0000000	0.2219584882259369
121	0xbfb5bd0d60000000	-0.08491595834493637
122	0x4012fccd00000000	4.746875762939453
123	0x3fc6123340000000	0.17243042588233948
124	0xbfc96ba5e0000000	-0.19859765470027924
125	0x4012462d60000000	4.568532466888428
126	0x3fca1f9ce0000000	0.20408974587917328
127	0xbfce2851c0000000	-0.23560544848442078
128	0x4014b7e500000000	5.179584503173828
129	0x3fc7946b60000000	0.18421690165996552
130	0xbfcc2f5700000000	-0.22019469738006592
131	0x4014b805c0000000	5.179709434509277
132	0xbfbda750c0000000	-0.11583428084850311
133	0x3fa3750140000000	0.038002051413059235
134	0x401056cee0000000	4.084773540496826
135	0x3fd6fbe9c0000000	0.359125554561615
136	0xbfc9b74080000000	-0.20090490579605103
137	0x40145a89c0000000	5.08841609954834
138	0xbfc1a42ec0000000	-0.1378229558467865
139	0xbfc52c9c20000000	-0.16542388498783112
140	0x4010869980000000	4.131444931030273
141	0xbfc0a7c880000000	-0.13012033700942993
142	0xbfc2bb9ec0000000	-0.1463507115840912
143	0x4010bdfae0000000	4.185527324676514
144	0xbfcd24ca40000000	-0.22768524289131165
145	0x3fbd8ab3a0000000	0.11539766937494278
146	0x40107a1c80000000	4.11924934387207
147	0xbfccc42520000000	-0.22473587095737457
148	0x3fbbccab40000000	0.10859175026416779
149	0x40104c60a0000000	4.074587345123291
150	0xbfd4772ce0000000	-0.3197738826274872
151	0x3fb423b080000000	0.07866957783699036
152	0x4010786540000000	4.1175737380981445
153	0x3fce9621c0000000	0.23895666003227234
154	0xbfc87fffa0000000	-0.19140620529651642
155	0x401450abc0000000	5.078780174255371
156	0xbfacc45780000000	-0.05618546903133392
157	0xbfc3d00780000000	-0.15478605031967163
158	0x400b61bdc0000000	3.422725200653076
159	0xbfc00ab1a0000000	-0.12532635033130646
160	0xbfc4becb20000000	-0.16207255423069
161	0x400bae63a0000000	3.460150957107544
162	0xbfc81eeb80000000	-0.1884436011314392
163	0x3fa6621b80000000	0.04371725022792816
164	0x400ad2eca0000000	3.3529903888702393
165	0x3faf7ad6c0000000	0.06148406118154526
166	0xbfbc43b280000000	-0.11040797829627991
167	0x40109358e0000000	4.143893718719482
168	0x3fa05d9680000000	0.0319640189409256
169	0xbfc8156540000000	-0.18815293908119202
170	0x400ff95580000000	3.9967451095581055
171	0x3fb2918080000000	0.07253268361091614
172	0xbfc9406d20000000	-0.19727863371372223
173	0x401276ef80000000	4.616147994995117
174	0x3fb06bbb20000000	0.0641438439488411
175	0xbfc5654c80000000	-0.16715389490127563
176	0x40127ce0a0000000	4.621950626373291
177	0x3f9c1a7600000000	0.027444690465927124
178	0xbfc8202000000000	-0.18848037719726562
179	0x40112d4380000000	4.29420280456543
180	0x3f95a83e00000000	0.02114960551261902
181	0x3fc2ac4900000000	0.1458827257156372
182	0x400fd36600000000	3.978221893310547
183	0xbfb3048900000000	-0.07428795099258423
184	0x3fbdb58e60000000	0.1160515770316124
185	0x400fbb9d60000000	3.966608762741089
186	0x3faa258e00000000	0.0510677695274353
187	0xbfc77a4500000000	-0.183418869972229
188	0x40118349a0000000	4.378210544586182
189	0x3fa9ee2300000000	0.05064496397972107
190	0xbfc6b44e40000000	-0.17737749218940735
191	0x401182d920000000	4.377781391143799
192	0xbf8a8aa400000000	-0.01295974850654602
193	0x3fb8072980000000	0.09385928511619568
194	0x400dee6960000000	3.7414119243621826
195	0xbfb764b2e0000000	-0.0913802906870842
196	0x3fb6304900000000	0.0866742730140686
197	0x400dfd9460000000	3.7488181591033936
198	0x3fb0389740000000	0.06336350739002228
199	0xbfb80f7d40000000	-0.09398634731769562
200	0x40107e4c20000000	4.123337268829346
201	0x3f7e9f5800000000	0.007476180791854858
202	0xbfc5b6bd40000000	-0.16963925957679749
203	0x400ff58700000000	3.9948863983154297
204	0x3fb602cb80000000	0.08598014712333679
205	0xbfc6fe7600000000	-0.179640531539917
206	0x40120e3f00000000	4.513912200927734
207	0x3fb1457480000000	0.06746605038642883
208	0xbfc68d4900000000	-0.1761866807937622
209	0x4012089ca0000000	4.5084099769592285
210	0xbfa6bb0fc0000000	-0.044395916163921356
211	0x3fb073c0c0000000	0.06426624953746796
212	0x400c4af920000000	3.5366079807281494
213	0x3fcbc7a5a0000000	0.21703024208545685
214	0xbfd2bb8c00000000	-0.2926969528198242
215	0x4012111140000000	4.516667366027832
216	0x3fa586d500000000	0.04204431176185608
217	0xbfc0a85a80000000	-0.13013774156570435
218	0x400c62e800000000	3.5482940673828125
219	0xbfa76f5d00000000	-0.045771509408950806
220	0xbfc24abac0000000	-0.1429055631160736
221	0x400cbbb7c0000000	3.5916590690612793
222	0xbfc1b935a0000000	-0.13846464455127716
223	0x3fc0752d40000000	0.12857595086097717
224	0x400b6212c0000000	3.4228873252868652
225	0xbfc1faabe0000000	-0.14046238362789154
226	0x3fc0c20360000000	0.13092081248760223
227	0x400b669660000000	3.425091505050659
228	0xbfc6e554c0000000	-0.17887362837791443
229	0xbfbbf3de40000000	-0.10918988287448883
230	0x400a89fe40000000	3.3173794746398926
231	0x3fb6e0be40000000	0.08936680853366852
232	0xbfcc058e00000000	-0.2189195156097412
233	0x4011deba80000000	4.467508316040039
234	0xbfc89e49e0000000	-0.19233058393001556
235	0x3fa14dffc0000000	0.0337982103228569
236	0x400afdbe60000000	3.3738982677459717
237	0xbfca2d2f40000000	-0.20450392365455627
238	0x3fa70722c0000000	0.04497631639242172
239	0x400b497d00000000	3.4108829498291016
240	0xbfc8805500000000	-0.19141638278961182
241	0x3fd0254c00000000	0.2522764205932617
242	0x400953ce20000000	3.1659204959869385
243	0x3fd1ab9c20000000	0.27609923481941223
244	0xbfcf161a00000000	-0.24286198616027832
245	0x401082fe00000000	4.127922058105469
246	0x3fd6181820000000	0.3452205955982208
247	0xbfd471e640000000	-0.31945186853408813
248	0x400ea3a020000000	3.829895257949829
249	0x3fd524e780000000	0.330377459526062
250	0xbfd21ca5c0000000	-0.2829985022544861
251	0x40128d1e40000000	4.637810707092285
252	0x3fd2f91280000000	0.2964521646499634
253	0xbfd2c09d80000000	-0.2930063009262085
254	0x4012a19bc0000000	4.657820701599121
255	0x3fd20a3380000000	0.28187263011932373
