demo_out/run4/epoch3/params.npz (npz, 10615 bytes, 4 tensors)

pose f8 [5, 105]
000000 00 00 00 e0 e6 16 ec 3f 00 00 00 00 f7 1b fc 3f
       0.8777956366539001 1.7568273544311523
000010 00 00 00 e0 35 80 f6 bf 00 00 00 80 9e 9c 91 3f
       -1.4063013792037964 0.017199017107486725
000020 00 00 00 e0 f4 ae a9 bf 00 00 00 40 b9 51 cc 3f
       -0.05016293749213219 0.22124400734901428
000030 00 00 00 60 28 7a ba 3f 00 00 00 00 3a d4 a1 bf
       0.1034264788031578 -0.034822285175323486
000040 00 00 00 60 63 24 d1 bf 00 00 00 60 e9 95 c9 bf
       -0.2678459584712982 -0.1998874396085739
000050 00 00 00 00 6d 3a c5 bf 00 00 00 00 42 c0 b0 bf
       -0.16584551334381104 -0.06543362140655518
000060 00 00 00 00 de 92 b5 bf 00 00 00 a0 9c 50 d3 3f
       -0.08427226543426514 0.3017951548099518
000070 00 00 00 e0 cc 2a a2 3f 00 00 00 80 98 39 90 bf
       0.03548279032111168 -0.015844710171222687
000080 00 00 00 c0 fb f9 a7 3f 00 00 00 00 8c 09 a4 bf
       0.04682909697294235 -0.03913533687591553
000090 00 00 00 40 0f fc b9 3f 00 00 00 20 6e 30 b8 3f
       0.10150237381458282 0.09448898583650589
0000a0 00 00 00 80 87 25 9e 3f 00 00 00 40 af a3 e2 bf
       0.02944003790616989 -0.5824810266494751
0000b0 00 00 00 20 54 97 cb bf 00 00 00 20 11 22 b6 bf
       -0.21555568277835846 -0.08645731955766678
0000c0 00 00 00 00 a0 f9 e7 3f 00 00 00 80 1a 36 c1 3f
       0.7492218017578125 0.1344636082649231
0000d0 00 00 00 00 74 c1 e1 3f 00 00 00 60 39 de d1 bf
       0.5548648834228516 -0.27918848395347595
0000e0 00 00 00 c0 44 ca d6 bf 00 00 00 40 d6 4e a4 bf
       -0.35609549283981323 -0.039663977921009064
0000f0 00 00 00 40 c9 a4 db 3f 00 00 00 80 92 0f c5 bf
       0.4319327473640442 -0.1645377278327942
000100 00 00 00 40 ff 03 cd bf 00 00 00 80 13 29 d2 3f
       -0.22668448090553284 0.2837570905685425
000110 00 00 00 a0 0e 09 c2 3f 00 00 00 a0 b5 8b a8 bf
       0.14090140163898468 -0.047940898686647415
000120 00 00 00 80 a3 8e d9 bf 00 00 00 80 5c fa 8b bf
       -0.3993309736251831 -0.01366112008690834
000130 00 00 00 00 0d 97 7f 3f 00 00 00 40 2e 91 c9 bf
       0.007712412625551224 -0.19974306225776672
000140 00 00 00 40 0a 6b e6 bf 00 00 00 c0 1d 79 e8 3f
       -0.7005664110183716 0.7647846937179565
000150 00 00 00 80 47 42 eb bf 00 00 00 c0 ab eb eb bf
       -0.8518407344818115 -0.8725184202194214
000160 00 00 00 40 0b e3 d0 3f 00 00 00 80 10 cf c0 3f
       0.2638576626777649 0.1313191056251526
000170 00 00 00 40 2f 7f d9 bf 00 00 00 80 81 6f b1 3f
       -0.39838773012161255 0.06810769438743591
000180 00 00 00 c0 0c 54 d3 3f 00 00 00 80 77 5b d8 bf
       0.30200499296188354 -0.38058269023895264
000190 00 00 00 40 5d c2 dc 3f 00 00 00 80 d8 2a a0 3f
       0.4493630528450012 0.031576886773109436
0001a0 00 00 00 00 e2 0e 88 3f 00 00 00 60 11 0d d8 bf
       0.01174713671207428 -0.3757975995540619
0001b0 00 00 00 80 ae 2b bc bf 00 00 00 c0 7a 3c d2 3f
       -0.1100415289402008 0.2849413752555847
0001c0 00 00 00 40 18 99 d1 3f 00 00 00 40 64 20 d2 3f
       0.2749691605567932 0.28322702646255493
0001d0 00 00 00 c0 af 74 e1 bf 00 00 00 80 72 55 cb 3f
       -0.5454939603805542 0.21354514360427856
0001e0 00 00 00 40 4b bd 94 bf 00 00 00 40 87 50 e7 bf
       -0.020253349095582962 -0.728580117225647
0001f0 00 00 00 a0 7b f5 d0 3f 00 00 00 20 16 ab c7 3f
       0.26498308777809143 0.1849086433649063
000200 00 00 00 40 2f c8 e5 3f 00 00 00 e0 fe 10 d1 3f
       0.6806865930557251 0.2666623294353485
000210 00 00 00 20 80 33 bf bf 00 00 00 40 fd 1a c4 bf
       -0.12187958508729935 -0.15707364678382874
000220 00 00 00 c0 b6 c2 b3 bf 00 00 00 00 cd 0e c4 bf
       -0.0771898478269577 -0.1567016839981079
000230 00 00 00 80 cf c4 87 bf 00 00 00 c0 b1 ea d2 bf
       -0.011605855077505112 -0.2955746054649353
000240 00 00 00 a0 01 6e d0 bf 00 00 00 20 1b 82 f1 bf
       -0.25671425461769104 -1.0942641496658325
000250 00 00 00 80 43 57 cb bf 00 00 00 00 16 5b cc bf
       -0.21360057592391968 -0.22152972221374512
000260 00 00 00 00 b4 14 cc bf 00 00 00 40 a4 14 9f 3f
       -0.21938180923461914 0.03035217896103859
000270 00 00 00 00 ad 14 d4 bf 00 00 00 c0 55 c5 d0 3f
       -0.31376194953918457 0.26204437017440796
000280 00 00 00 00 f6 b7 c3 bf 00 00 00 80 59 6a 53 bf
       -0.1540515422821045 -0.0011850236915051937
000290 00 00 00 c0 d0 d3 a8 bf 00 00 00 80 56 99 b5 bf
       -0.04849102348089218 -0.08437100052833557
0002a0 00 00 00 a0 c6 c2 b6 bf 00 00 00 80 36 0d b5 bf
       -0.08890954405069351 -0.08223286271095276
0002b0 00 00 00 00 42 e2 bf 3f 00 00 00 80 45 85 86 bf
       0.12454617023468018 -0.010996382683515549
0002c0 00 00 00 00 06 0f b4 3f 00 00 00 a0 94 ce a3 3f
       0.07835423946380615 0.03868545964360237
0002d0 00 00 00 c0 0e 11 db bf 00 00 00 00 43 fe 92 bf
       -0.42291611433029175 -0.018548056483268738
0002e0 00 00 00 40 e0 8c 93 3f 00 00 00 60 0c 1c da bf
       0.01909208670258522 -0.4079619348049164
0002f0 00 00 00 20 b6 3a c0 3f 00 00 00 20 44 bb b4 bf
       0.12679173052310944 -0.08098245412111282
000300 00 00 00 c0 71 d2 c7 bf 00 00 00 40 24 e1 b1 3f
       -0.1861097514629364 0.06984163820743561
000310 00 00 00 00 94 97 b5 3f 00 00 00 e0 88 75 f3 bf
       0.08434414863586426 -1.216194987297058
000320 00 00 00 60 ff 62 ef 3f 00 00 00 e0 81 20 ea bf
       0.9808346629142761 -0.8164681792259216
000330 00 00 00 c0 98 57 e5 3f 00 00 00 e0 6d 33 f7 3f
       0.6669429540634155 1.4500559568405151
000340 00 00 00 60 9e 1f f8 3f 00 00 00 60 2d 83 f9 3f
       1.5077193975448608 1.594525694847107
000350 00 00 00 00 d7 cf e5 3f 00 00 00 40 01 16 f0 bf
       0.6816210746765137 -1.0053722858428955
000360 00 00 00 40 2a e3 c0 3f 00 00 00 c0 3e a4 ae 3f
       0.13193252682685852 0.05984684079885483
000370 00 00 00 00 52 d2 c9 bf 00 00 00 40 ac d9 c5 bf
       -0.20173096656799316 -0.17070534825325012
000380 00 00 00 00 fd 5b 92 3f 00 00 00 00 ff 87 c5 3f
       0.01792903244495392 0.16821277141571045
000390 00 00 00 60 db 16 bc 3f 00 00 00 40 29 da c2 bf
       0.1097237691283226 -0.14728274941444397
0003a0 00 00 00 e0 2e dd c1 3f 00 00 00 a0 7c 2a b4 3f
       0.1395624727010727 0.07877329736948013
0003b0 00 00 00 c0 e6 61 c6 3f 00 00 00 c0 8a 24 c6 bf
       0.17486271262168884 -0.17299017310142517
0003c0 00 00 00 80 41 22 98 bf 00 00 00 00 0c 20 64 bf
       -0.023568175733089447 -0.0024566873908042908
0003d0 00 00 00 80 06 8f a4 bf 00 00 00 a0 68 f7 a1 3f
       -0.04015369713306427 0.03509070351719856
0003e0 00 00 00 a0 5e ea c6 3f 00 00 00 a0 27 64 b5 bf
       0.17902739346027374 -0.08355949074029922
0003f0 00 00 00 20 eb 24 d0 bf 00 00 00 c0 46 93 b8 3f
       -0.25225332379341125 0.09599725902080536
000400 00 00 00 80 c5 21 a5 bf 00 00 00 00 6d 9d e6 3f
       -0.04127328097820282 0.7067170143127441
000410 00 00 00 20 6c 8f df bf 00 00 00 60 6b 0d d5 3f
       -0.49312880635261536 0.32894405722618103
000420 00 00 00 00 bb 09 bc bf 00 00 00 40 1a 44 d3 bf
       -0.1095234751701355 -0.3010316491127014
000430 00 00 00 00 9b b4 cb bf 00 00 00 c0 30 07 d9 3f
       -0.21644914150238037 0.3910638689994812
000440 00 00 00 a0 02 e6 d6 3f 00 00 00 c0 c7 07 cb bf
       0.35778871178627014 -0.21117493510246277
000450 00 00 00 e0 d0 a8 e0 3f 00 00 00 e0 51 75 ca bf
       0.5206074118614197 -0.20670531690120697
000460 00 00 00 c0 ea bb c4 bf 00 00 00 00 a2 a3 a7 bf
       -0.16198477149009705 -0.04617029428482056
000470 00 00 00 a0 38 12 d2 3f 00 00 00 e0 8d ec a3 bf
       0.2823621332645416 -0.038914140313863754
000480 00 00 00 60 db cc b0 3f 00 00 00 40 ff 2b c7 3f
       0.0656258687376976 0.18103018403053284
000490 00 00 00 80 ab 00 e5 3f 00 00 00 40 f4 dd e1 bf
       0.6563317775726318 -0.5583440065383911
0004a0 00 00 00 00 f7 1b d7 bf 00 00 00 00 21 4b c4 3f
       -0.3610818386077881 0.15854275226593018
0004b0 00 00 00 e0 dd d7 d5 bf 00 00 00 00 05 74 c2 bf
       -0.34130045771598816 -0.14416563510894775
0004c0 00 00 00 00 40 b0 cf 3f 00 00 00 e0 13 fa c5 bf
       0.24756622314453125 -0.17169426381587982
0004d0 00 00 00 00 7c 47 e0 bf 00 00 00 00 06 76 7e 3f
       -0.5087261199951172 0.007436774671077728
0004e0 00 00 00 a0 45 ae ce 3f 00 00 00 c0 93 b6 d3 3f
       0.23969335854053497 0.30801862478256226
0004f0 00 00 00 60 da 64 cc bf 00 00 00 c0 91 65 b9 bf
       -0.22182779014110565 -0.09920607507228851
000500 00 00 00 00 26 13 da 3f 00 00 00 40 e2 db a5 3f
       0.40741872787475586 0.042693205177783966
000510 00 00 00 20 a1 73 c6 3f 00 00 00 20 32 c7 e2 bf
       0.17540372908115387 -0.5868158936500549
000520 00 00 00 e0 d5 b4 c4 3f 00 00 00 40 bf ce b3 3f
       0.16176865994930267 0.0773734599351883
000530 00 00 00 20 4e c0 e0 bf 00 00 00 e0 17 b7 a2 bf
       -0.5234747529029846 -0.036553140729665756
000540 00 00 00 40 84 64 b5 3f 00 00 00 80 42 92 a1 bf
       0.08356501162052155 -0.03431899845600128
000550 00 00 00 20 83 44 c7 3f 00 00 00 c0 2a 10 d9 3f
       0.18177832663059235 0.3916117548942566
000560 00 00 00 60 a6 68 e2 3f 00 00 00 40 87 c6 b7 bf
       0.575274646282196 -0.09287305176258087
000570 00 00 00 80 1e 85 c9 bf 00 00 00 80 f6 73 e9 bf
       -0.1993749737739563 -0.7954056262969971
000580 00 00 00 80 7e 29 ab bf 00 00 00 c0 5e 5e c6 bf
       -0.05305095016956329 -0.17475494742393494
000590 00 00 00 c0 93 34 c9 bf 00 00 00 40 b3 1d ad bf
       -0.19691702723503113 -0.056867219507694244
0005a0 00 00 00 80 61 e3 ca bf 00 00 00 c0 89 b8 e2 bf
       -0.2100641131401062 -0.5850266218185425
0005b0 00 00 00 20 e6 27 a3 bf 00 00 00 40 1e 05 db 3f
       -0.03741377964615822 0.4221873879432678
0005c0 00 00 00 80 d3 26 be 3f 00 00 00 40 c7 04 d8 bf
       0.117779940366745 -0.375291645526886
0005d0 00 00 00 60 c0 b5 d4 3f 00 00 00 60 bd eb b5 bf
       0.32359322905540466 -0.08562835305929184
0005e0 00 00 00 40 0e 2b c1 3f 00 00 00 a0 1e ba b2 3f
       0.1341264545917511 0.07315246015787125
0005f0 00 00 00 20 db 84 d0 bf 00 00 00 80 5d 99 8c 3f
       -0.25810888409614563 0.013964395970106125
000600 00 00 00 40 fe ac b6 3f 00 00 00 e0 0f fb cb 3f
       0.08857716619968414 0.21859930455684662
000610 00 00 00 00 54 49 ce bf 00 00 00 80 53 1d c2 bf
       -0.23661279678344727 -0.1415199637413025
000620 00 00 00 40 4c 44 b0 3f 00 00 00 60 65 75 c0 3f
       0.06354214251041412 0.1285826414823532
000630 00 00 00 20 9b d6 a9 bf 00 00 00 a0 e1 ad e4 bf
       -0.05046543851494789 -0.6462257504463196
000640 00 00 00 20 98 01 d9 bf 00 00 00 c0 eb a9 b4 bf
       -0.3907223045825958 -0.0807177871465683
000650 00 00 00 20 76 45 d0 bf 00 00 00 80 c0 e1 ba bf
       -0.25423958897590637 -0.10500720143318176
000660 00 00 00 c0 9b a1 f4 bf 00 00 00 80 ef 45 ea 3f
       -1.2894551753997803 0.8210370540618896
000670 00 00 00 a0 88 eb ea bf 00 00 00 a0 c2 36 df 3f
       -0.8412516713142395 0.48771730065345764
000680 00 00 00 e0 f6 ce f9 3f 00 00 00 00 54 90 ee 3f
       1.6130284070968628 0.9551181793212891
000690 00 00 00 60 19 7b f6 3f 00 00 00 a0 26 4d f2 3f
       1.4050534963607788 1.1438356637954712
0006a0 00 00 00 80 db 32 f2 bf 00 00 00 c0 95 db af bf
       -1.1374163627624512 -0.06222217530012131
0006b0 00 00 00 00 20 11 64 3f 00 00 00 00 be e4 c1 bf
       0.0024495720863342285 -0.13979315757751465
0006c0 00 00 00 00 b2 be 8d bf 00 00 00 80 d3 5e 95 3f
       -0.014523878693580627 0.02086954563856125
0006d0 00 00 00 00 8c 1b 9d bf 00 00 00 80 ff 41 97 bf
       -0.028425395488739014 -0.022712700068950653
0006e0 00 00 00 20 3a d3 c3 bf 00 00 00 00 2c 2e 4b 3f
       -0.15488363802433014 0.0008294787257909775
0006f0 00 00 00 40 18 3d a2 3f 00 00 00 e0 63 6c c9 3f
       0.03562236577272415 0.19862030446529388
000700 00 00 00 20 0e 6d a1 3f 00 00 00 40 35 fa 98 3f
       0.034035149961709976 0.024391967803239822
000710 00 00 00 40 69 b2 a5 3f 00 00 00 80 cc 68 a3 bf
       0.042376793920993805 -0.037908926606178284
000720 00 00 00 40 77 65 a2 bf 00 00 00 80 63 3e ca 3f
       -0.03593037277460098 0.2050289511680603
000730 00 00 00 00 5d 9c 9f 3f 00 00 00 c0 f9 e6 d6 bf
       0.030869916081428528 -0.3578476309776306
000740 00 00 00 c0 04 81 b4 3f 00 00 00 c0 f5 8f cb 3f
       0.08009366691112518 0.2153308093547821
000750 00 00 00 00 eb f9 e1 3f 00 00 00 20 97 df c0 bf
       0.5617575645446777 -0.13182343542575836
000760 00 00 00 c0 cb 3f d7 3f 00 00 00 40 b1 6c cc bf
       0.36326879262924194 -0.22206702828407288
000770 00 00 00 20 5e 58 e3 bf 00 00 00 e0 61 b7 d3 bf
       -0.6045370697975159 -0.30806776881217957
000780 00 00 00 80 d0 e9 dd 3f 00 00 00 c0 74 73 b7 bf
       0.4673959016799927 -0.09160546958446503
000790 00 00 00 e0 64 4a d1 bf 00 00 00 c0 ea ef d4 3f
       -0.27016565203666687 0.3271433711051941
0007a0 00 00 00 00 fe a4 6f bf 00 00 00 00 c5 b8 d2 bf
       -0.003862854093313217 -0.292527437210083
0007b0 00 00 00 80 c1 41 dc bf 00 00 00 20 ac ad aa 3f
       -0.44151341915130615 0.05210626497864723
0007c0 00 00 00 20 94 79 cc bf 00 00 00 00 0d 50 cc 3f
       -0.2224602848291397 0.22119295597076416
0007d0 00 00 00 a0 13 19 e2 bf 00 00 00 20 86 47 dc 3f
       -0.5655611157417297 0.441865473985672
0007e0 00 00 00 40 61 87 e0 bf 00 00 00 00 6a 65 b1 bf
       -0.5165258646011353 -0.06795370578765869
0007f0 00 00 00 60 f5 51 d0 3f 00 00 00 a0 6f e6 b0 bf
       0.25500234961509705 -0.06601617485284805

betas f8 [5, 26]
000000 00 00 00 40 d4 b6 dd 3f 00 00 00 60 86 79 eb 3f
       0.4642840027809143 0.8585845828056335
000010 00 00 00 c0 95 4d d4 bf 00 00 00 20 d5 63 fe bf
       -0.31723541021347046 -1.899373173713684
000020 00 00 00 a0 0e 24 e7 bf 00 00 00 a0 2d ef fe 3f
       -0.7231515049934387 1.933393120765686
000030 00 00 00 40 3c cc f9 bf 00 00 00 c0 29 09 d1 3f
       -1.6123621463775635 0.2661842703819275
000040 00 00 00 60 9c 3c fc 3f 00 00 00 a0 b9 88 f5 3f
       1.764797568321228 1.345880150794983
000050 00 00 00 a0 3b 82 f5 3f 00 00 00 a0 da d4 f8 bf
       1.3442951440811157 -1.5519663095474243
000060 00 00 00 60 34 45 03 40 00 00 00 e0 a0 d9 d4 3f
       2.4087913036346436 0.32578298449516296
000070 00 00 00 40 41 44 ec bf 00 00 00 e0 ca 24 eb 3f
       -0.8833318948745728 0.8482412695884705
000080 00 00 00 60 8a 9a f4 bf 00 00 00 20 75 87 02 c0
       -1.2877296209335327 -2.316141366958618
000090 00 00 00 40 48 d5 f1 3f 00 00 00 e0 17 14 fe 3f
       1.1145708560943604 1.8799055814743042
0000a0 00 00 00 a0 66 46 cf bf 00 00 00 a0 a3 58 ca bf
       -0.24433596432209015 -0.20583005249500275
0000b0 00 00 00 80 0b cb f0 bf 00 00 00 a0 08 9a d4 bf
       -1.0495715141296387 -0.32190147042274475
0000c0 00 00 00 a0 ce 31 b5 bf 00 00 00 40 b2 46 07 c0
       -0.08279124647378922 -2.909519672393799
0000d0 00 00 00 20 a5 9e d4 3f 00 00 00 c0 ee d8 f2 3f
       0.32218292355537415 1.177962064743042
0000e0 00 00 00 40 62 3f f2 bf 00 00 00 40 84 2a d5 bf
       -1.140474557876587 -0.3307200074195862
0000f0 00 00 00 80 62 7a 8e 3f 00 00 00 60 45 bc 02 c0
       0.014881867915391922 -2.3419291973114014
000100 00 00 00 80 0c 5d ec 3f 00 00 00 40 35 24 da bf
       0.8863584995269775 -0.40845996141433716
000110 00 00 00 60 20 9f e2 bf 00 00 00 20 08 e9 b8 3f
       -0.5819246172904968 0.0973057821393013
000120 00 00 00 20 87 7a d4 3f 00 00 00 a0 07 e4 e9 bf
       0.3199785053730011 -0.8090856671333313
000130 00 00 00 a0 f1 cc 0b 40 00 00 00 20 ed 13 e8 3f
       3.4750702381134033 0.7524324059486389
000140 00 00 00 c0 2e 68 9a 3f 00 00 00 60 b8 fa b2 3f
       0.025788050144910812 0.07413818687200546
000150 00 00 00 20 54 dd f4 bf 00 00 00 20 30 f1 12 c0
       -1.3040353059768677 -4.735535144805908
000160 00 00 00 60 04 5e e3 3f 00 00 00 a0 86 44 ea 3f
       0.6052266955375671 0.8208649754524231
000170 00 00 00 20 4a 8a e5 bf 00 00 00 60 25 b7 90 3f
       -0.6731310486793518 0.016323646530508995
000180 00 00 00 a0 bf 1d ea bf 00 00 00 80 29 f1 e9 bf
       -0.8161314129829407 -0.8106887340545654
000190 00 00 00 60 3c ef 9b bf 00 00 00 c0 f9 72 10 c0
       -0.027279799804091454 -4.11228084564209
0001a0 00 00 00 c0 12 bf d5 bf 00 00 00 a0 bf 55 ee 3f
       -0.33978718519210815 0.9479673504829407
0001b0 00 00 00 20 22 ac e5 3f 00 00 00 20 9b 7c fc bf
       0.6772623658180237 -1.7804213762283325
0001c0 00 00 00 40 69 1a c8 3f 00 00 00 60 7b 71 ea bf
       0.18830600380897522 -0.8263527750968933
0001d0 00 00 00 80 6d e5 e8 bf 00 00 00 00 f6 36 f5 3f
       -0.7780063152313232 1.325918197631836
0001e0 00 00 00 c0 ac 5a f3 3f 00 00 00 60 51 36 d7 bf
       1.2096374034881592 -0.3626902997493744
0001f0 00 00 00 60 bd ef eb 3f 00 00 00 40 48 05 e6 bf
       0.8730151057243347 -0.6881448030471802
000200 00 00 00 80 17 b5 f1 3f 00 00 00 00 64 d8 ee 3f
       1.1067118644714355 0.9639148712158203
000210 00 00 00 c0 68 c9 c7 3f 00 00 00 a0 93 e3 d1 bf
       0.18583402037620544 -0.27951517701148987
000220 00 00 00 60 9a dd fa bf 00 00 00 20 64 6f 02 c0
       -1.6791023015975952 -2.3043901920318604
000230 00 00 00 80 04 6d e0 3f 00 00 00 e0 52 4d f0 3f
       0.5133078098297119 1.0188778638839722
000240 00 00 00 20 4e 1b e0 bf 00 00 00 a0 5f de db bf
       -0.5033331513404846 -0.4354476034641266
000250 00 00 00 00 c6 17 e7 bf 00 00 00 00 65 ce f7 bf
       -0.7216520309448242 -1.487889289855957
000260 00 00 00 40 b1 a7 aa bf 00 00 00 20 b4 3c 01 c0
       -0.05206064134836197 -2.1546404361724854
000270 00 00 00 80 67 10 be 3f 00 00 00 e0 a8 ab c2 3f
       0.11743780970573425 0.1458636373281479
000280 00 00 00 e0 92 02 f0 bf 00 00 00 80 d5 cd cf bf
       -1.0006283521652222 -0.2484690546989441
000290 00 00 00 20 75 60 e0 bf 00 00 00 a0 3c 5f e3 3f
       -0.5117745995521545 0.6053755879402161
0002a0 00 00 00 a0 6c 17 dc bf 00 00 00 e0 5f fe de 3f
       -0.4389297068119049 0.48427578806877136
0002b0 00 00 00 40 f4 be e0 3f 00 00 00 80 a5 9d f9 3f
       0.5233098268508911 1.6009879112243652
0002c0 00 00 00 c0 fe 36 f1 3f 00 00 00 a0 e5 0c f4 bf
       1.0759265422821045 -1.2531486749649048
0002d0 00 00 00 00 c8 8b fa 3f 00 00 00 00 e4 d0 ea 3f
       1.6591262817382812 0.8379993438720703
0002e0 00 00 00 20 66 b9 eb bf 00 00 00 e0 42 83 ea 3f
       -0.8663817048072815 0.8285230994224548
0002f0 00 00 00 60 a9 d5 f3 bf 00 00 00 60 02 83 09 c0
       -1.2396634817123413 -3.188969373703003
000300 00 00 00 c0 6b 8c e0 3f 00 00 00 80 e2 4c fb 3f
       0.5171412229537964 1.706270694732666
000310 00 00 00 a0 a1 38 cf bf 00 00 00 80 3e 31 c5 bf
       -0.24391575157642365 -0.16556531190872192
000320 00 00 00 60 9c 36 ec bf 00 00 00 80 e0 77 f8 bf
       -0.881666362285614 -1.5292668342590332
000330 00 00 00 60 12 a6 c8 bf 00 00 00 20 98 7a 10 c0
       -0.1925681084394455 -4.119720935821533
000340 00 00 00 00 f7 50 be 3f 00 00 00 00 3c 11 e6 3f
       0.11842292547225952 0.6896038055419922
000350 00 00 00 40 1f 3e c3 3f 00 00 00 a0 4f c2 ef bf
       0.15033331513404846 -0.9924696087837219
000360 00 00 00 e0 27 f6 d8 3f 00 00 00 40 58 68 99 3f
       0.3900241553783417 0.024812106043100357
000370 00 00 00 80 dc 17 ce bf 00 00 00 60 bf ff dd 3f
       -0.23510318994522095 0.46873459219932556
000380 00 00 00 00 9f 71 c0 3f 00 00 00 40 ef 38 95 3f
       0.12846744060516357 0.020725000649690628
000390 00 00 00 c0 15 a6 75 3f 00 00 00 40 6b 31 ed bf
       0.005285344086587429 -0.9122825860977173
0003a0 00 00 00 00 37 39 f8 3f 00 00 00 40 d0 66 fa 3f
       1.5139684677124023 1.6501009464263916
0003b0 00 00 00 20 44 71 e7 bf 00 00 00 80 7c 5f f0 bf
       -0.7325764298439026 -1.0233120918273926
0003c0 00 00 00 c0 55 d5 00 c0 00 00 00 80 f6 db 01 c0
       -2.1041674613952637 -2.2324037551879883
0003d0 00 00 00 a0 3a 17 e8 3f 00 00 00 20 b1 c2 f4 3f
       0.7528355717658997 1.2975322008132935
0003e0 00 00 00 20 39 d4 d8 bf 00 00 00 00 9b ff c3 bf
       -0.3879530727863312 -0.15623795986175537
0003f0 00 00 00 80 23 4e df bf 00 00 00 60 c8 85 fa bf
       -0.4891442060470581 -1.65766179561615
000400 00 00 00 20 fa 2d d9 bf 00 00 00 a0 39 32 e5 bf
       -0.3934312164783478 -0.6623809933662415

camera f8 [5, 3]
000000 00 00 00 80 ca ba 0a c0 00 00 00 00 00 00 5c 40
       -3.3412065505981445 112.0
000010 00 00 00 00 00 00 5c 40 00 00 00 80 86 76 0c c0
       112.0 -3.5578737258911133
000020 00 00 00 00 00 00 5c 40 00 00 00 00 00 00 5c 40
       112.0 112.0
000030 00 00 00 e0 8f 14 0b c0 00 00 00 00 00 00 5c 40
       -3.385040044784546 112.0
000040 00 00 00 00 00 00 5c 40 00 00 00 00 96 19 0a c0
       112.0 -3.262493133544922
000050 00 00 00 00 00 00 5c 40 00 00 00 00 00 00 5c 40
       112.0 112.0
000060 00 00 00 40 e8 77 0a c0 00 00 00 00 00 00 5c 40
       -3.3085484504699707 112.0
000070 00 00 00 00 00 00 5c 40
       112.0

joints3d f8 [5, 26, 3]
000000 00 00 00 80 85 f3 d0 bf 00 00 00 00 0a 5b d3 bf
       -0.26486337184906006 -0.302431583404541
000010 00 00 00 00 66 06 12 40 00 00 00 a0 cc 6d d7 bf
       4.506248474121094 -0.36607661843299866
000020 00 00 00 80 5e d8 d2 bf 00 00 00 80 77 10 12 40
       -0.2944561243057251 4.516080856323242
000030 00 00 00 80 6c 28 d4 bf 00 00 00 a0 f9 2e cd bf
       -0.3149672746658325 -0.2279960662126541
000040 00 00 00 c0 8c ba 11 40 00 00 00 60 6a 48 cc bf
       4.432177543640137 -0.22095994651317596
000050 00 00 00 00 3a 94 d5 3f 00 00 00 40 65 66 13 40
       0.3371720314025879 4.8499956130981445
000060 00 00 00 c0 a1 72 c6 bf 00 00 00 40 de b1 d1 3f
       -0.17537328600883484 0.2764812111854553
000070 00 00 00 a0 e4 d2 13 40 00 00 00 40 04 86 d1 3f
       4.9559502601623535 0.2738047242164612
000080 00 00 00 60 d7 3e d1 3f 00 00 00 40 e4 de 15 40
       0.269460529088974 5.467667579650879
000090 00 00 00 00 04 10 cc 3f 00 00 00 00 17 29 cb 3f
       0.2192387580871582 0.21219146251678467
0000a0 00 00 00 e0 8a fe 16 40 00 00 00 a0 26 e9 cf 3f
       5.748576641082764 0.2493027001619339
0000b0 00 00 00 20 74 55 c8 bf 00 00 00 60 f7 f0 15 40
       -0.19010783731937408 5.485318660736084
0000c0 00 00 00 80 f7 1d c1 bf 00 00 00 80 57 69 b3 3f
       -0.13372701406478882 0.07582613825798035
0000d0 00 00 00 a0 e6 67 13 40 00 00 00 80 1f 4b ce bf
       4.851465702056885 -0.23666757345199585
0000e0 00 00 00 c0 53 70 a3 3f 00 00 00 c0 fb e9 13 40
       0.03796636313199997 4.978499412536621
0000f0 00 00 00 00 ef dd d1 3f 00 00 00 80 df cf ae 3f
       0.2791707515716553 0.0601796954870224
000100 00 00 00 a0 6c 97 15 40 00 00 00 80 bc 72 c3 3f
       5.3978753089904785 0.15193897485733032
000110 00 00 00 00 7b 98 92 3f 00 00 00 60 c6 62 16 40
       0.018159791827201843 5.596459865570068
000120 00 00 00 80 91 3d b9 bf 00 00 00 80 d0 44 bd bf
       -0.09859570860862732 -0.11433127522468567
000130 00 00 00 c0 bc fd 12 40 00 00 00 40 8d f3 d0 bf
       4.747790336608887 -0.2648652195930481
000140 00 00 00 20 ba e7 c3 bf 00 00 00 20 e8 78 13 40
       -0.15550924837589264 4.868072986602783
000150 00 00 00 e0 b1 11 c6 bf 00 00 00 e0 08 f7 d1 3f
       -0.17241500318050385 0.2807027995586395
000160 00 00 00 20 b6 a8 13 40 00 00 00 80 d4 14 cb bf
       4.914757251739502 -0.21157318353652954
000170 00 00 00 00 43 12 d0 3f 00 00 00 20 d9 17 14 40
       0.2511146068572998 5.023289203643799
000180 00 00 00 00 27 69 d1 3f 00 00 00 a0 38 46 c7 3f
       0.27204298973083496 0.1818304806947708
000190 00 00 00 40 38 32 16 40 00 00 00 40 aa 50 d0 3f
       5.549042701721191 0.25492340326309204
0001a0 00 00 00 80 65 6d be 3f 00 00 00 c0 a9 d9 16 40
       0.1188567578792572 5.71256160736084
0001b0 00 00 00 00 48 79 d2 bf 00 00 00 c0 5c c5 cb bf
       -0.2886524200439453 -0.21696051955223083
0001c0 00 00 00 60 39 8f 12 40 00 00 00 e0 7a 29 dc 3f
       4.639867305755615 0.4400317370891571
0001d0 00 00 00 20 41 95 c1 bf 00 00 00 a0 83 eb 16 40
       -0.137367382645607 5.729994297027588
0001e0 00 00 00 60 9e da cd bf 00 00 00 60 2f b7 d4 bf
       -0.2332342118024826 -0.32368072867393494
0001f0 00 00 00 c0 b4 69 12 40 00 00 00 c0 3e 4c d8 bf
       4.603228569030762 -0.3796536326408386
000200 00 00 00 e0 c5 3e d4 bf 00 00 00 20 d8 85 12 40
       -0.3163313567638397 4.630707263946533
000210 00 00 00 00 e2 f8 d2 bf 00 00 00 c0 4d 88 ca bf
       -0.29644060134887695 -0.20728465914726257
000220 00 00 00 60 77 f1 11 40 00 00 00 40 fb c1 d6 bf
       4.485806941986084 -0.35558968782424927
000230 00 00 00 a0 74 78 ca bf 00 00 00 c0 3d fd 11 40
       -0.20680101215839386 4.497305870056152
000240 00 00 00 a0 c3 a8 d4 bf 00 00 00 c0 38 82 d1 bf
       -0.32280054688453674 -0.273573100566864
000250 00 00 00 c0 46 a2 11 40 00 00 00 e0 05 af d4 3f
       4.408473014831543 0.3231825530529022
000260 00 00 00 e0 7b 5b bf bf 00 00 00 80 9b 73 16 40
       -0.12248968333005905 5.612897872924805
000270 00 00 00 c0 0f d7 cd 3f 00 00 00 00 3c 11 c6 bf
       0.23312565684318542 -0.17240095138549805
000280 00 00 00 c0 4f e1 11 40 00 00 00 40 54 87 c1 3f
       4.470030784606934 0.13694241642951965
000290 00 00 00 c0 cf 5c c6 bf 00 00 00 00 bf 9d 11 40
       -0.17470738291740417 4.404048919677734
0002a0 00 00 00 80 10 14 ce 3f 00 00 00 00 a9 f5 ab bf
       0.2349873185157776 -0.05460861325263977
0002b0 00 00 00 c0 61 54 11 40 00 00 00 80 73 83 d6 3f
       4.332404136657715 0.35177314281463623
0002c0 00 00 00 60 6b d4 cf 3f 00 00 00 a0 9f 1a 13 40
       0.24867002665996552 4.775999546051025
0002d0 00 00 00 a0 cd 4d d0 3f 00 00 00 e0 8d a7 d0 3f
       0.25474873185157776 0.26022669672966003
0002e0 00 00 00 40 c2 43 13 40 00 00 00 e0 18 fa b5 bf
       4.816170692443848 -0.08584742993116379
0002f0 00 00 00 e0 a6 10 ad 3f 00 00 00 a0 4e ae 15 40
       0.05676766857504845 5.42022180557251
000300 00 00 00 80 6f 80 cc bf 00 00 00 40 89 38 bc 3f
       -0.2226695418357849 0.11023767292499542
000310 00 00 00 e0 78 1c 15 40 00 00 00 40 3b 00 cd bf
       5.277804851531982 -0.22656956315040588
000320 00 00 00 60 07 2e b7 bf 00 00 00 c0 ad 1e 15 40
       -0.09054609388113022 5.279959678649902
000330 00 00 00 40 08 03 c8 3f 00 00 00 00 a4 94 b7 3f
       0.1875925362110138 0.09211182594299316
000340 00 00 00 c0 49 7d 13 40 00 00 00 c0 7b f8 91 bf
       4.87235164642334 -0.01754945144057274
000350 00 00 00 40 1c 6f c9 3f 00 00 00 a0 8a 15 13 40
       0.1987033188343048 4.771036624908447
000360 00 00 00 80 a8 ce a9 bf 00 00 00 00 78 d5 8e bf
       -0.05040480196475983 -0.015055596828460693
000370 00 00 00 e0 10 76 15 40 00 00 00 40 b2 75 d1 bf
       5.365298748016357 -0.27280861139297485
000380 00 00 00 40 e6 9d b5 3f 00 00 00 e0 07 d9 14 40
       0.08444060385227203 5.211944103240967
000390 00 00 00 00 77 b8 bf 3f 00 00 00 e0 d3 8a aa bf
       0.12390846014022827 -0.05184042081236839
0003a0 00 00 00 c0 4f 01 13 40 00 00 00 80 6a 47 b3 bf
       4.751280784606934 -0.07530847191810608
0003b0 00 00 00 20 7a 30 94 3f 00 00 00 80 54 a7 12 40
       0.0197161752730608 4.663408279418945
0003c0 00 00 00 00 b5 ce d3 3f 00 00 00 e0 c2 8a ca 3f
       0.3094913959503174 0.2073596566915512
0003d0 00 00 00 60 3c 70 13 40 00 00 00 40 d7 c2 c5 3f
       4.859605312347412 0.1700085699558258
0003e0 00 00 00 40 d6 3b d2 3f 00 00 00 00 5a 5a 13 40
       0.2849021553993225 4.838233947753906
0003f0 00 00 00 a0 81 cf c4 bf 00 00 00 00 41 b5 91 3f
       -0.16258259117603302 0.017292991280555725
000400 00 00 00 c0 59 e8 15 40 00 00 00 80 e5 14 d2 bf
       5.47690486907959 -0.2825254201889038
000410 00 00 00 80 b9 b6 ae 3f 00 00 00 c0 06 7a 15 40
       0.05998782813549042 5.369166374206543
000420 00 00 00 c0 c3 3b bd 3f 00 00 00 40 00 a4 b5 bf
       0.11419318616390228 -0.0845337063074112
000430 00 00 00 20 15 13 12 40 00 00 00 e0 7c 87 d0 bf
       4.518635272979736 -0.2582695186138153
000440 00 00 00 a0 f0 68 a6 3f 00 00 00 40 3c ee 15 40
       0.04376937821507454 5.482651710510254
000450 00 00 00 c0 ec bb c6 3f 00 00 00 40 d5 11 cd bf
       0.17761000990867615 -0.2271067202091217
000460 00 00 00 e0 91 45 12 40 00 00 00 a0 19 b6 b0 3f
       4.567939281463623 0.06527862697839737
000470 00 00 00 c0 8d d0 cc bf 00 00 00 a0 15 f7 11 40
       -0.22511455416679382 4.491293430328369
000480 00 00 00 c0 5f 20 cb 3f 00 00 00 e0 3e 5e a6 bf
       0.2119254767894745 -0.043687786906957626
000490 00 00 00 c0 2c b3 11 40 00 00 00 20 6f 09 c7 3f
       4.424975395202637 0.17997540533542633
0004a0 00 00 00 a0 89 d0 a6 bf 00 00 00 80 37 9c 11 40
       -0.04455976560711861 4.402555465698242
0004b0 00 00 00 00 a2 ff d0 3f 00 00 00 20 91 61 b9 bf
       0.26560258865356445 -0.09914500266313553
0004c0 00 00 00 40 55 41 11 40 00 00 00 c0 62 27 d0 bf
       4.3138017654418945 -0.2524039149284363
0004d0 00 00 00 80 2e ad 52 bf 00 00 00 a0 89 87 15 40
       -0.00113992253318429 5.382360935211182
0004e0 00 00 00 40 b3 cf a2 3f 00 00 00 40 7b 42 c2 bf
       0.036740876734256744 -0.14265385270118713
0004f0 00 00 00 c0 89 5e 03 40 00 00 00 c0 49 b7 a3 bf
       2.42116117477417 -0.03850775212049484
000500 00 00 00 40 bd 47 c0 bf 00 00 00 c0 c6 03 03 40
       -0.12718930840492249 2.3768439292907715
000510 00 00 00 00 8a 8e a5 3f 00 00 00 80 5f 16 b0 bf
       0.042103111743927 -0.06284138560295105
000520 00 00 00 00 85 bb 02 40 00 00 00 80 ac e9 9e 3f
       2.341562271118164 0.030188269913196564
000530 00 00 00 00 ad 82 d0 3f 00 00 00 60 fd 2d 06 40
       0.25797581672668457 2.772455930709839
000540 00 00 00 80 90 28 c2 bf 00 00 00 20 4c 6d d1 3f
       -0.1418629288673401 0.2722959816455841
000550 00 00 00 a0 4d 33 06 40 00 00 00 00 ff 02 8d 3f
       2.775050401687622 0.01416587084531784
000560 00 00 00 40 ee 7b be 3f 00 00 00 a0 f4 8b 0a 40
       0.11907853186130524 3.3183376789093018
000570 00 00 00 e0 35 b1 b9 bf 00 00 00 20 11 76 bf 3f
       -0.10036026686429977 0.12289530783891678
000580 00 00 00 80 b8 0c 0a 40 00 00 00 40 97 ad b0 bf
       3.256211280822754 -0.06514878571033478
000590 00 00 00 40 17 f3 c6 bf 00 00 00 a0 a5 53 0a 40
       -0.17929354310035706 3.2908432483673096
0005a0 00 00 00 c0 36 b0 85 3f 00 00 00 00 d5 64 b7 3f
       0.010590007528662682 0.09138232469558716
0005b0 00 00 00 c0 a9 1f 06 40 00 00 00 c0 e4 7a c4 bf
       2.76546049118042 -0.16000041365623474
0005c0 00 00 00 80 c2 e2 b8 3f 00 00 00 c0 dd 18 06 40
       0.09721007943153381 2.762141704559326
0005d0 00 00 00 00 46 a5 a0 3f 00 00 00 00 16 51 9d bf
       0.03251093626022339 -0.02862963080406189
0005e0 00 00 00 20 a8 52 0a 40 00 00 00 40 18 1b c2 bf
       3.2903597354888916 -0.1414518654346466
0005f0 00 00 00 00 4c 23 8a bf 00 00 00 40 2a 29 0a 40
       -0.012762635946273804 3.2701001167297363
000600 00 00 00 00 e0 51 78 3f 00 00 00 00 2b 27 ad bf
       0.005937457084655762 -0.05693945288658142
000610 00 00 00 a0 62 73 05 40 00 00 00 60 8e 72 c5 bf
       2.681340456008911 -0.1675584763288498
000620 00 00 00 a0 c2 28 ac bf 00 00 00 00 d1 5d 05 40
       -0.054998476058244705 2.670808792114258
000630 00 00 00 00 a7 4d a1 3f 00 00 00 80 72 3e ce 3f
       0.033795565366744995 0.23628073930740356
000640 00 00 00 c0 59 83 06 40 00 00 00 a0 f9 a8 c3 bf
       2.814136028289795 -0.1535942107439041
000650 00 00 00 00 4a bd cf 3f 00 00 00 00 21 83 06 40
       0.24796414375305176 2.814027786254883
000660 00 00 00 00 20 aa 4a 3f 00 00 00 80 f8 bd a5 3f
       0.0008137375116348267 0.04246498644351959
000670 00 00 00 c0 a0 d4 0a 40 00 00 00 40 20 ff b9 bf
       3.3538222312927246 -0.1015491634607315
000680 00 00 00 c0 f8 6e ae 3f 00 00 00 c0 17 9a 0a 40
       0.05944039672613144 3.3252406120300293
000690 00 00 00 80 4e fc aa bf 00 00 00 40 7b c7 b2 bf
       -0.052706196904182434 -0.07335634529590607
0006a0 00 00 00 e0 bd 17 04 40 00 00 00 a0 aa d8 83 bf
       2.5115926265716553 -0.00969060231000185
0006b0 00 00 00 20 f0 fe c7 bf 00 00 00 80 7c d8 0b 40
       -0.18746758997440338 3.480706214904785
0006c0 00 00 00 00 c0 4b 7d 3f 00 00 00 40 99 a2 c6 bf
       0.0071523189544677734 -0.17683711647987366
0006d0 00 00 00 c0 9d 09 04 40 00 00 00 40 79 b0 bb bf
       2.504695415496826 -0.10816152393817902
0006e0 00 00 00 00 5b 74 c3 bf 00 00 00 80 07 87 03 40
       -0.15198838710784912 2.440932273864746
0006f0 00 00 00 00 45 5e a4 3f 00 00 00 a0 80 c2 a5 bf
       0.03978171944618225 -0.04249956086277962
000700 00 00 00 00 2c 36 03 40 00 00 00 80 7f 55 88 bf
       2.4014511108398438 -0.01188182458281517
000710 00 00 00 c0 5b 03 a2 bf 00 00 00 00 a3 ff 02 40
       -0.03518187254667282 2.3748226165771484
000720 00 00 00 00 f8 64 ad 3f 00 00 00 20 01 1f be bf
       0.05741095542907715 -0.11766058951616287
000730 00 00 00 e0 f6 74 02 40 00 00 00 00 a9 d0 a9 bf
       2.3071115016937256 -0.05042007565498352
000740 00 00 00 00 b3 fd c4 bf 00 00 00 80 61 3c 0b 40
       -0.1639922857284546 3.404482841491699
000750 00 00 00 c0 cb 2e d5 3f 00 00 00 60 17 e1 d1 bf
       0.33098119497299194 -0.2793634831905365
000760 00 00 00 60 e3 38 11 40 00 00 00 40 48 d0 d0 3f
       4.3055548667907715 0.2627125382423401
000770 00 00 00 80 c0 82 d2 bf 00 00 00 e0 9b 04 11 40
       -0.28923046588897705 4.254500865936279
000780 00 00 00 20 1f 58 d5 3f 00 00 00 40 7c a8 cb bf
       0.33350351452827454 -0.21607926487922668
000790 00 00 00 40 f1 d6 10 40 00 00 00 00 05 26 c7 3f
       4.209904670715332 0.18084776401519775
0007a0 00 00 00 40 55 3f d4 3f 00 00 00 e0 e7 58 12 40
       0.3163655400276184 4.586822032928467
0007b0 00 00 00 c0 cd d3 bd 3f 00 00 00 60 6c f1 d6 3f
       0.11651311814785004 0.35848531126976013
0007c0 00 00 00 40 2d ec 11 40 00 00 00 60 6b ae b8 bf
       4.4806413650512695 -0.09641142934560776
0007d0 00 00 00 a0 f1 a0 d1 3f 00 00 00 00 a1 00 15 40
       0.2754482328891754 5.250614166259766
0007e0 00 00 00 20 0f 82 d0 bf 00 00 00 c0 b5 2f d2 3f
       -0.2579381763935089 0.2841619849205017
0007f0 00 00 00 a0 2c 20 14 40 00 00 00 e0 b7 5c c2 bf
       5.0314202308654785 -0.14345453679561615
