demo_out/run3/epoch4/params.npz (npz, 11215 bytes, 4 tensors)

pose f8 [5, 105]
0.9791139960289001 1.5852972269058228 -1.3370023965835571 -0.015629323199391365 -0.029172662645578384 0.14252296090126038 0.04847005009651184 0.006359076127409935
-0.1820862889289856 -0.1422540843486786 -0.17648905515670776 -0.043946996331214905 -0.10317534953355789 0.2375166267156601 0.024098772555589676 0.001305416226387024
0.06364530324935913 -0.006817825138568878 0.03325415402650833 0.17021186649799347 0.003603719174861908 -0.6389378905296326 -0.05937673896551132 -0.03420231491327286
0.4651167690753937 0.17991088330745697 0.35665807127952576 -0.3246447443962097 -0.5862537026405334 -0.2890239655971527 0.6571887135505676 -0.3294854760169983
-0.19663012027740479 0.38440343737602234 0.1103440374135971 0.05749049782752991 -0.4058976173400879 0.008887950330972672 -0.04324996471405029 0.009829699993133545
-0.6239469051361084 0.6905094385147095 -0.7904500365257263 -0.5659305453300476 0.3294369578361511 0.19145125150680542 -0.3298538029193878 -0.003323368728160858
0.34533458948135376 -0.5672842264175415 0.21569344401359558 -0.009181801229715347 0.10710759460926056 -0.30021148920059204 -0.10084179788827896 0.22499680519104004
0.1688343584537506 0.16495385766029358 -0.5175104141235352 0.15341921150684357 -0.06422671675682068 -0.6182219982147217 0.15378437936306 0.1524088978767395
0.4883818030357361 0.17203378677368164 0.020661313086748123 -0.07760439068078995 -0.2598697245121002 -0.17412741482257843 -0.14539708197116852 -0.21009069681167603
-0.4118800759315491 -1.0421462059020996 0.009189300239086151 -0.14310136437416077 -0.09949100762605667 0.012935563921928406 -0.29572594165802 0.2855718731880188
-0.009624980390071869 -0.04323892667889595 0.008463457226753235 -0.09363692998886108 -0.045441001653671265 -0.06989096105098724 0.06905684620141983 -0.017033714801073074
0.16971136629581451 0.053334858268499374 -0.20693886280059814 0.014027118682861328 -0.00929274782538414 -0.2214249223470688 -0.11616046726703644 0.025432202965021133
-0.4051095247268677 0.015243768692016602 -0.007461555302143097 -0.8909110426902771 0.9025483727455139 -0.7213878631591797 0.3320666551589966 1.4184859991073608
1.4176136255264282 1.6712183952331543 0.6426724791526794 -0.9938085079193115 0.09364362806081772 0.07651880383491516 -0.3043674826622009 -0.23992490768432617
0.010674497112631798 0.2330741435289383 0.17744223773479462 -0.15940052270889282 0.15019868314266205 0.15953171253204346 0.15210095047950745 -0.20891723036766052
-0.012723475694656372 0.02399090677499771 0.03581956773996353 0.019768403843045235 0.1784801036119461 -0.04179158806800842 -0.24551592767238617 0.1720081865787506
-0.04713989794254303 0.6882761716842651 -0.46133294701576233 0.2012145221233368 -0.22377163171768188 -0.029732942581176758 -0.32201075553894043 0.24786247313022614
0.670592188835144 -0.28515487909317017 0.6483820676803589 -0.12331432104110718 -0.18515002727508545 0.057565316557884216 0.29255518317222595 -0.12670662999153137
0.20501823723316193 0.16472236812114716 0.7466018199920654 -0.7025548815727234 -0.30114609003067017 0.1756075918674469 -0.39508089423179626 -0.14430321753025055
0.32083559036254883 -0.35919851064682007 -0.6325733661651611 -0.1699180006980896 0.28531983494758606 0.3900427222251892 -0.23040150105953217 -0.04084871709346771
0.46317553520202637 -0.051963768899440765 0.13565674424171448 -0.5401330590248108 0.15169300138950348 0.09455696493387222 -0.630608856678009 -0.04749554395675659
-0.03331591188907623 -0.004358455538749695 0.12591028213500977 0.39902806282043457 0.6745674014091492 -0.04792596027255058 -0.1236288845539093 -0.7719495892524719
-0.014571063220500946 0.03693921118974686 -0.09648431092500687 0.01520005613565445 -0.1632709503173828 -0.5543067455291748 -0.3528667688369751 0.3187485337257385
0.1291261911392212 -0.6798629760742188 0.26353269815444946 -0.12584790587425232 -0.046722784638404846 -0.020894603803753853 -0.35996562242507935 -0.09524265676736832
-0.0077733248472213745 0.11784987151622772 -0.34905359148979187 -0.07365228980779648 -0.03989148139953613 0.18894608318805695 0.08370813727378845 -0.41142481565475464
-0.43550482392311096 0.16819623112678528 -0.22921796143054962 0.12050779163837433 -1.6002393960952759 1.0706229209899902 -0.8159159421920776 0.37463444471359253
1.6631073951721191 0.9123838543891907 1.4484105110168457 1.2562675476074219 -1.1494231224060059 -0.040933720767498016 0.08513708412647247 -0.20340992510318756
-0.10106898844242096 0.0073898788541555405 0.06813852488994598 0.07110412418842316 -0.22778333723545074 0.026038531213998795 0.06591919809579849 0.20329196751117706
-0.016200590878725052 -0.00836849957704544 -0.012353554368019104 0.021463222801685333 -0.0851505920290947 0.1675555258989334 0.040879055857658386 -0.25208330154418945
0.15478986501693726 0.2576829791069031 0.44321656227111816 0.02741948515176773 0.28427043557167053 -0.26882538199424744 -0.6771815419197083 -0.4689434766769409
0.5317829847335815 -0.04810194671154022 -0.2923988401889801 0.3767291307449341 0.07254599779844284 -0.2466661036014557 -0.44448935985565186 0.18220122158527374
-0.32324516773223877 0.37863457202911377 -0.6930025815963745 0.3853623569011688 -0.5690008401870728 -0.1417362242937088 0.30767884850502014 -0.12397709488868713
00000000: 0000 00e0 e654 ef3f 0000 00a0 605d f93f
00000010: 0000 00a0 5c64 f5bf 0000 0020 2201 90bf
00000020: 0000 0040 70df 9dbf 0000 0040 313e c23f
00000030: 0000 0000 11d1 a83f 0000 0080 f90b 7a3f
00000040: 0000 0080 9a4e c7bf 0000 00c0 6135 c2bf
00000050: 0000 0080 3197 c6bf 0000 0080 3880 a6bf
00000060: 0000 0020 b369 babf 0000 00e0 f166 ce3f
00000070: 0000 0040 59ad 983f 0000 0000 5063 553f
00000080: 0000 0000 0f4b b03f 0000 0000 02ed 7bbf
00000090: 0000 0040 b006 a13f 0000 00a0 80c9 c53f
000000a0: 0000 0000 8c85 6d3f 0000 00e0 2d72 e4bf
000000b0: 0000 00c0 a066 aebf 0000 0040 f782 a1bf
000000c0: 0000 0020 79c4 dd3f 0000 00e0 5107 c73f
000000d0: 0000 0060 7cd3 d63f 0000 00c0 fac6 d4bf
000000e0: 0000 0020 97c2 e2bf 0000 0060 5e7f d2bf
000000f0: 0000 00a0 b007 e53f 0000 0040 4a16 d5bf
00000100: 0000 0000 2d2b c9bf 0000 00e0 109a d83f
00000110: 0000 00c0 813f bc3f 0000 0000 656f ad3f
00000120: 0000 0000 3afa d9bf 0000 0080 d833 823f
00000130: 0000 0000 dc24 a6bf 0000 0000 9821 843f
00000140: 0000 0080 5ff7 e3bf 0000 0040 a718 e63f
00000150: 0000 00e0 5d4b e9bf 0000 0060 1a1c e2bf
00000160: 0000 00c0 7e15 d53f 0000 0080 7981 c83f
00000170: 0000 0020 531c d5bf 0000 0000 9c39 6bbf
00000180: 0000 0040 f619 d63f 0000 0040 3127 e2bf
00000190: 0000 00c0 d79b cb3f 0000 0080 e8cd 82bf
000001a0: 0000 0040 676b bb3f 0000 0040 aa36 d3bf
000001b0: 0000 00a0 c4d0 b9bf 0000 0000 b2cc cc3f
000001c0: 0000 0040 5d9c c53f 0000 0040 351d c53f
000001d0: 0000 0000 728f e0bf 0000 00a0 3da3 c33f
000001e0: 0000 0080 2971 b0bf 0000 0080 79c8 e3bf
000001f0: 0000 00e0 34af c33f 0000 0080 2282 c33f
00000200: 0000 00c0 a541 df3f 0000 0000 3405 c63f
00000210: 0000 0040 3d28 953f 0000 00a0 e1dd b3bf
00000220: 0000 00a0 b4a1 d0bf 0000 00a0 ce49 c6bf
00000230: 0000 0020 5f9c c2bf 0000 0080 40e4 cabf
00000240: 0000 0040 3e5c dabf 0000 0080 a1ac f0bf
00000250: 0000 0000 d7d1 823f 0000 0040 2551 c2bf
00000260: 0000 0020 3e78 b9bf 0000 0000 f67d 8a3f
00000270: 0000 0080 2ced d2bf 0000 0040 cf46 d23f
00000280: 0000 0000 43b6 83bf 0000 00a0 6923 a6bf
00000290: 0000 0000 4a55 813f 0000 0000 97f8 b7bf
000002a0: 0000 0000 0b44 a7bf 0000 00c0 5fe4 b1bf
000002b0: 0000 00a0 b5ad b13f 0000 0040 4971 91bf
000002c0: 0000 0020 1ab9 c53f 0000 00e0 b44e ab3f
000002d0: 0000 0000 f97c cabf 0000 0000 40ba 8c3f
000002e0: 0000 0080 1308 83bf 0000 00e0 a657 ccbf
000002f0: 0000 0040 b1bc bdbf 0000 0040 e60a 9a3f
00000300: 0000 0080 50ed d9bf 0000 0000 2038 8f3f
00000310: 0000 0000 0290 7ebf 0000 00e0 5782 ecbf
00000320: 0000 0020 ade1 ec3f 0000 0000 9c15 e7bf
00000330: 0000 0080 9440 d53f 0000 0060 1eb2 f63f
00000340: 0000 00a0 8bae f63f 0000 0080 4fbd fa3f
00000350: 0000 00e0 c590 e43f 0000 0080 47cd efbf
00000360: 0000 0060 07f9 b73f 0000 0080 bc96 b33f
00000370: 0000 00c0 c17a d3bf 0000 0000 dcb5 cebf
00000380: 0000 00c0 82dc 853f 0000 00a0 5fd5 cd3f
00000390: 0000 0060 6db6 c63f 0000 0080 3c67 c4bf
000003a0: 0000 00e0 b539 c33f 0000 0000 896b c43f
000003b0: 0000 0040 0b78 c33f 0000 00c0 ccbd cabf
000003c0: 0000 0000 c40e 8abf 0000 0080 1291 983f
000003d0: 0000 0040 f156 a23f 0000 0020 2b3e 943f
000003e0: 0000 00a0 6fd8 c63f 0000 0000 b565 a5bf
000003f0: 0000 00e0 106d cfbf 0000 0040 5d04 c63f
00000400: 0000 0080 b822 a8bf 0000 00c0 5b06 e63f
00000410: 0000 00a0 7a86 ddbf 0000 00c0 65c1 c93f
00000420: 0000 0080 8ca4 ccbf 0000 0000 5072 9ebf
00000430: 0000 0000 d39b d4bf 0000 0020 f5b9 cf3f
00000440: 0000 00c0 7d75 e53f 0000 0040 fa3f d2bf
00000450: 0000 00c0 8bbf e43f 0000 0000 8791 bfbf
00000460: 0000 0000 ffb2 c7bf 0000 0080 3379 ad3f
00000470: 0000 0060 39b9 d23f 0000 0040 ec37 c0bf
00000480: 0000 00a0 093e ca3f 0000 0060 9f15 c53f
00000490: 0000 0080 29e4 e73f 0000 0060 547b e6bf
000004a0: 0000 0040 fa45 d3bf 0000 0040 4f7a c63f
000004b0: 0000 0060 0149 d9bf 0000 0020 8778 c2bf
000004c0: 0000 0000 9288 d43f 0000 00c0 1bfd d6bf
000004d0: 0000 0080 0a3e e4bf 0000 0080 dfbf c5bf
000004e0: 0000 0020 ae42 d23f 0000 00c0 75f6 d83f
000004f0: 0000 00e0 cb7d cdbf 0000 0080 1fea a4bf
00000500: 0000 0000 aba4 dd3f 0000 00c0 fe9a aabf
00000510: 0000 0040 335d c13f 0000 0020 c548 e1bf
00000520: 0000 0020 ad6a c33f 0000 00a0 e234 b83f
00000530: 0000 00a0 f22d e4bf 0000 0000 5651 a8bf
00000540: 0000 0080 c80e a1bf 0000 0000 2cda 71bf
00000550: 0000 0000 d41d c03f 0000 0000 ad89 d93f
00000560: 0000 0060 0e96 e53f 0000 0060 c089 a8bf
00000570: 0000 0080 24a6 bfbf 0000 00a0 cfb3 e8bf
00000580: 0000 0000 6fd7 8dbf 0000 0040 b2e9 a23f
00000590: 0000 0020 32b3 b8bf 0000 0000 3521 8f3f
000005a0: 0000 0000 10e6 c4bf 0000 0080 e1bc e1bf
000005b0: 0000 0080 5e95 d6bf 0000 0040 6066 d43f
000005c0: 0000 0000 3587 c03f 0000 0000 70c1 e5bf
000005d0: 0000 0040 b8dd d03f 0000 00c0 c81b c0bf
000005e0: 0000 0080 0cec a7bf 0000 0020 6565 95bf
000005f0: 0000 0040 ad09 d7bf 0000 00a0 d261 b8bf
00000600: 0000 0000 ecd6 7fbf 0000 00c0 682b be3f
00000610: 0000 00e0 e456 d6bf 0000 0060 e0da b2bf
00000620: 0000 0000 a86c a4bf 0000 00a0 622f c83f
00000630: 0000 0080 e56d b53f 0000 00c0 c854 dabf
00000640: 0000 00a0 4fdf dbbf 0000 0040 7487 c53f
00000650: 0000 00a0 0357 cdbf 0000 0040 99d9 be3f
00000660: 0000 00a0 949a f9bf 0000 0080 4521 f13f
00000670: 0000 00c0 fb1b eabf 0000 00c0 02fa d73f
00000680: 0000 0080 169c fa3f 0000 00a0 3f32 ed3f
00000690: 0000 0080 b02c f73f 0000 0000 ac19 f43f
000006a0: 0000 0080 0964 f2bf 0000 00c0 43f5 a4bf
000006b0: 0000 0040 8bcb b53f 0000 0020 5609 cabf
000006c0: 0000 0040 a8df b9bf 0000 0080 d944 7e3f
000006d0: 0000 00c0 8671 b13f 0000 0040 e133 b23f
000006e0: 0000 0020 0128 cdbf 0000 0040 d8a9 9a3f
000006f0: 0000 00a0 14e0 b03f 0000 00a0 7805 ca3f
00000700: 0000 0040 e396 90bf 0000 0000 8123 81bf
00000710: 0000 0000 d24c 89bf 0000 0080 74fa 953f
00000720: 0000 00e0 6dcc b5bf 0000 00a0 7572 c53f
00000730: 0000 0080 19ee a43f 0000 0000 2222 d0bf
00000740: 0000 0080 27d0 c33f 0000 00c0 e07d d03f
00000750: 0000 0000 a95d dc3f 0000 0080 da13 9c3f
00000760: 0000 00a0 7c31 d23f 0000 0060 6f34 d1bf
00000770: 0000 00a0 78ab e5bf 0000 0080 2b03 debf
00000780: 0000 00c0 5d04 e13f 0000 0080 d1a0 a8bf
00000790: 0000 00a0 a9b6 d2bf 0000 0080 541c d83f
000007a0: 0000 00e0 5f92 b23f 0000 0040 c192 cfbf
000007b0: 0000 0080 8372 dcbf 0000 00a0 5e52 c73f
000007c0: 0000 0080 0cb0 d4bf 0000 0080 8c3b d83f
000007d0: 0000 00c0 132d e6bf 0000 00e0 c6a9 d83f
000007e0: 0000 0040 4135 e2bf 0000 00a0 6924 c2bf
000007f0: 0000 00a0 02b1 d33f 0000 0080 f6bc bfbf

betas f8 [5, 41]
-0.10717251151800156 0.3480275571346283 -0.2203070968389511 -0.6985052824020386 -0.3639008700847626 0.03540153056383133 -0.3339199125766754 1.4443578720092773
-0.31025055050849915 1.1704915761947632 1.2356518507003784 -1.9673488140106201 2.899488687515259 -0.604950487613678 -3.0837998390197754 1.5638834238052368
-2.7696807384490967 -5.026947021484375 -0.9923470616340637 1.0042686462402344 -0.4990551471710205 -0.7347778081893921 -1.075608491897583 -1.2859336137771606
-1.2519800662994385 -0.11794116348028183 0.0009172153659164906 0.0010419200407341123 -0.0018352223560214043 -0.0010253069922327995 0.0005060455296188593 -0.0023172996006906033
-0.002235868014395237 -0.0015370133332908154 -0.0017057921504601836 0.0009405147866345942 -0.0002197740541305393 0.002700168639421463 0.002601885236799717 0.00011371586879249662
-0.0010907676769420505 -0.2530309557914734 0.9809267520904541 -1.271806001663208 0.24096564948558807 0.22939510643482208 -3.3505003452301025 1.8008970022201538
-0.162851482629776 -2.0677568912506104 0.3745601773262024 0.2067011296749115 -0.5754622220993042 4.690611362457275 -0.49722379446029663 -2.353769302368164
1.2685531377792358 -2.1232950687408447 -7.472393989562988 -0.8335473537445068 0.13787679374217987 -0.5704497694969177 -0.4168168902397156 -0.7492906451225281
-1.3797719478607178 -1.3093218803405762 -0.3321109414100647 0.0009116092114709318 0.0014564520679414272 -0.0021184063516557217 -0.00048529362538829446 0.0003423290909267962
-0.002112751826643944 -0.0023471254389733076 -0.0025492305867373943 -0.002060533035546541 0.0010533921886235476 -0.00010241250856779516 0.0030901895370334387 0.002315743826329708
0.0006471387459896505 -0.0016317475819960237 -0.8463797569274902 1.042254090309143 0.5149436593055725 -1.7439731359481812 0.38648757338523865 -2.2649621963500977
1.0309603214263916 2.069993019104004 1.1477857828140259 -1.280766487121582 0.8240029811859131 -0.6171318888664246 2.171715497970581 -0.18092694878578186
-1.2063764333724976 -0.07077372819185257 -3.3013970851898193 -5.425200939178467 -0.7124525308609009 0.538518488407135 -0.8006596565246582 -0.7854474186897278
-1.1306298971176147 -1.5080418586730957 -1.295323133468628 -0.2444332242012024 0.0009744414710439742 0.0013890874106436968 -0.0018591182306408882 -0.000668034132104367
0.0005680170725099742 -0.0023430027067661285 -0.002257268875837326 -0.0018571896944195032 -0.001616767724044621 0.0012658078921958804 -0.000166357058333233 0.0024592806585133076
0.002694034483283758 0.0003624006640166044 -0.001270090346224606 -0.5667872428894043 -0.11349678784608841 -0.9883135557174683 0.8354540467262268 -0.2172451913356781
-0.9494137763977051 0.4559794068336487 0.47918957471847534 -1.5007076263427734 1.5429356098175049 1.3278923034667969 -0.6773329377174377 2.2102482318878174
-0.2831212282180786 -3.0692226886749268 1.8141018152236938 -2.9459068775177 -5.85392427444458 -1.15833580493927 1.198087215423584 -0.4745010733604431
-0.3929385244846344 -0.6966779828071594 -1.3648735284805298 -1.308661937713623 -0.21171928942203522 0.000909833237528801 0.0017420303774997592 -0.0019379905425012112
-0.0005587636260315776 9.667553240433335e-05 -0.0022804623004049063 -0.002141504315659404 -0.002145468257367611 -0.0023150136694312096 0.0012749067973345518 4.154341877438128e-05
0.003316952148452401 0.0026043462567031384 0.0004536822088994086 -0.0012889379868283868 -0.5006990432739258 0.5198666453361511 -0.03687741234898567 -0.6058036684989929
0.23030954599380493 -2.076509475708008 1.3395664691925049 2.3985562324523926 -0.8500800728797913 -0.07866092026233673 1.2372312545776367 -0.8059375286102295
1.0384477376937866 0.13287417590618134 -1.5305980443954468 0.32719478011131287 -4.183779716491699 -5.35300350189209 -1.1821067333221436 1.161867380142212
-0.7292985320091248 -0.8563913106918335 -1.1965118646621704 -1.3900378942489624 -1.263753056526184 -0.2272161841392517 0.0013714993838220835 0.0014021459501236677
-0.0019533326849341393 -0.0007858140743337572 0.0010687927715480328 -0.0024301516823470592 -0.002414533169940114 -0.0012938155559822917 -0.0014556368114426732 0.0013469366822391748
-0.00016824400518089533 0.002625680761411786 0.0025591407902538776 0.0005661931936629117 -0.0013512942241504788
00000000: 0000 0060 a86f bbbf 0000 0060 1546 d63f
00000010: 0000 00e0 0533 ccbf 0000 00c0 275a e6bf
00000020: 0000 00e0 264a d7bf 0000 0040 2620 a23f
00000030: 0000 00a0 f15e d5bf 0000 0000 171c f73f
00000040: 0000 0020 25db d3bf 0000 0060 55ba f23f
00000050: 0000 00e0 3ac5 f33f 0000 00c0 427a ffbf
00000060: 0000 0020 2732 0740 0000 0020 c15b e3bf
00000070: 0000 0040 9fab 08c0 0000 00a0 aa05 f93f
00000080: 0000 0060 4e28 06c0 0000 0000 981b 14c0
00000090: 0000 00a0 4ec1 efbf 0000 0000 7c11 f03f
000000a0: 0000 0000 85f0 dfbf 0000 00c0 4c83 e7bf
000000b0: 0000 0040 b135 f1bf 0000 0020 2f93 f4bf
000000c0: 0000 0040 1c08 f4bf 0000 0060 6431 bebf
000000d0: 0000 0000 290e 4e3f 0000 0020 2112 513f
000000e0: 0000 0000 7b11 5ebf 0000 0000 73cc 50bf
000000f0: 0000 0080 0495 403f 0000 00c0 bafb 62bf
00000100: 0000 0080 f450 62bf 0000 0080 b32e 59bf
00000110: 0000 0060 9cf2 5bbf 0000 0020 9cd1 4e3f
00000120: 0000 00c0 64ce 2cbf 0000 0000 aa1e 663f
00000130: 0000 0080 8c50 653f 0000 00c0 57cf 1d3f
00000140: 0000 00e0 02df 51bf 0000 00c0 a831 d0bf
00000150: 0000 0080 c063 ef3f 0000 0040 5159 f4bf
00000160: 0000 0060 f6d7 ce3f 0000 00a0 d15c cd3f
00000170: 0000 0020 d3cd 0ac0 0000 0060 79d0 fc3f
00000180: 0000 0040 51d8 c4bf 0000 0020 c48a 00c0
00000190: 0000 0040 cbf8 d73f 0000 00c0 2e75 ca3f
000001a0: 0000 00c0 2f6a e2bf 0000 00a0 2fc3 1240
000001b0: 0000 00c0 83d2 dfbf 0000 0000 85d4 02c0
000001c0: 0000 0060 fe4b f43f 0000 0020 82fc 00c0
000001d0: 0000 0040 bbe3 1dc0 0000 0080 6bac eabf
000001e0: 0000 0060 f2a5 c13f 0000 00e0 1f41 e2bf
000001f0: 0000 00c0 20ad dabf 0000 0060 30fa e7bf
00000200: 0000 00c0 8b13 f6bf 0000 0080 fbf2 f4bf
00000210: 0000 0040 4e41 d5bf 0000 00e0 21df 4d3f
00000220: 0000 0080 cddc 573f 0000 00c0 9e5a 61bf
00000230: 0000 0040 e0cd 3fbf 0000 0040 546f 363f
00000240: 0000 0000 c34e 61bf 0000 0060 473a 63bf
00000250: 0000 00c0 1fe2 64bf 0000 0040 40e1 60bf
00000260: 0000 0040 3f42 513f 0000 0080 c9d8 1abf
00000270: 0000 00e0 9850 693f 0000 0080 77f8 623f
00000280: 0000 00e0 9734 453f 0000 00a0 0bbc 5abf
00000290: 0000 0000 8b15 ebbf 0000 00a0 12ad f03f
000002a0: 0000 0020 6b7a e03f 0000 0060 50e7 fbbf
000002b0: 0000 0060 36bc d83f 0000 0080 a41e 02c0
000002c0: 0000 0040 d07e f03f 0000 0080 588f 0040
000002d0: 0000 00a0 545d f23f 0000 0000 057e f4bf
000002e0: 0000 0080 3b5e ea3f 0000 0060 8bbf e3bf
000002f0: 0000 0060 ac5f 0140 0000 0040 9d28 c7bf
00000300: 0000 0060 514d f3bf 0000 0020 3a1e b2bf
00000310: 0000 00e0 4269 0ac0 0000 00e0 67b3 15c0
00000320: 0000 0040 69cc e6bf 0000 0020 8b3b e13f
00000330: 0000 0000 019f e9bf 0000 00a0 6222 e9bf
00000340: 0000 0060 0f17 f2bf 0000 0080 f020 f8bf
00000350: 0000 00c0 a4b9 f4bf 0000 0080 9649 cfbf
00000360: 0000 0020 35ee 4f3f 0000 0040 41c2 563f
00000370: 0000 0000 b575 5ebf 0000 0060 e0e3 45bf
00000380: 0000 0060 df9c 423f 0000 0000 a231 63bf
00000390: 0000 0000 d67d 62bf 0000 0040 9e6d 5ebf
000003a0: 0000 0020 377d 5abf 0000 00e0 2ebd 543f
000003b0: 0000 0040 04ce 25bf 0000 0040 7c25 643f
000003c0: 0000 00c0 cc11 663f 0000 0000 13c0 373f
000003d0: 0000 0020 25cf 54bf 0000 0000 1f23 e2bf
000003e0: 0000 0020 200e bdbf 0000 00c0 43a0 efbf
000003f0: 0000 0020 0abc ea3f 0000 00c0 b0ce cbbf
00000400: 0000 0000 9961 eebf 0000 0040 c42e dd3f
00000410: 0000 00c0 0aab de3f 0000 0000 e602 f8bf
00000420: 0000 0040 ddaf f83f 0000 0000 0c3f f53f
00000430: 0000 0020 b6ac e5bf 0000 00a0 96ae 0140
00000440: 0000 0080 a81e d2bf 0000 00a0 c48d 08c0
00000450: 0000 00a0 8f06 fd3f 0000 00a0 3791 07c0
00000460: 0000 0020 6b6a 17c0 0000 0020 8b88 f2bf
00000470: 0000 0080 5d2b f33f 0000 00c0 395e debf
00000480: 0000 00a0 e725 d9bf 0000 00a0 2f4b e6bf
00000490: 0000 00a0 85d6 f5bf 0000 0080 47f0 f4bf
000004a0: 0000 0020 9e19 cbbf 0000 0000 3cd0 4d3f
000004b0: 0000 00e0 9a8a 5c3f 0000 0080 85c0 5fbf
000004c0: 0000 00c0 3f4f 42bf 0000 0000 c957 193f
000004d0: 0000 00e0 79ae 62bf 0000 0060 0f8b 61bf
000004e0: 0000 0080 5f93 61bf 0000 0080 eff6 62bf
000004f0: 0000 00c0 58e3 543f 0000 0000 ddc7 053f
00000500: 0000 0020 272c 6b3f 0000 00c0 b555 653f
00000510: 0000 0040 86bb 3d3f 0000 00a0 321e 55bf
00000520: 0000 0000 ba05 e0bf 0000 0060 bfa2 e03f
00000530: 0000 00a0 98e1 a2bf 0000 0060 be62 e3bf
00000540: 0000 0080 c87a cd3f 0000 0000 b19c 00c0
00000550: 0000 0040 dd6e f53f 0000 0040 3e30 0340
00000560: 0000 0020 db33 ebbf 0000 0040 1f23 b4bf
00000570: 0000 0000 b3cb f33f 0000 0080 3dca e9bf
00000580: 0000 0060 7b9d f03f 0000 0060 0502 c13f
00000590: 0000 0060 547d f8bf 0000 0060 c2f0 d43f
000005a0: 0000 00c0 30bc 10c0 0000 00c0 7969 15c0
000005b0: 0000 00c0 e8e9 f2bf 0000 0040 0297 f23f
000005c0: 0000 00e0 6956 e7bf 0000 00c0 8e67 ebbf
000005d0: 0000 00a0 e924 f3bf 0000 0060 983d f6bf
000005e0: 0000 0020 5538 f4bf 0000 0080 6b15 cdbf
000005f0: 0000 0040 7c78 563f 0000 00c0 06f9 563f
00000600: 0000 0080 6f00 60bf 0000 00e0 e2bf 49bf
00000610: 0000 0080 d782 513f 0000 00c0 65e8 63bf
00000620: 0000 00a0 a4c7 63bf 0000 00e0 a732 55bf
00000630: 0000 0020 62d9 57bf 0000 0040 7611 563f
00000640: 0000 0000 550d 26bf 0000 00a0 7382 653f
00000650: 0000 0040 e8f6 643f 0000 00a0 928d 423f
00000660: 0000 0020 bd23 56bf

camera f8 [5, 3]
-3.546887159347534 112.0 112.0 -3.619094133377075 112.0 112.0 -3.3504772186279297 112.0
112.0 -3.4885623455047607 112.0 112.0 -3.4784514904022217 112.0 112.0
00000000: 0000 0060 0660 0cc0 0000 0000 0000 5c40
00000010: 0000 0000 0000 5c40 0000 00a0 e7f3 0cc0
00000020: 0000 0000 0000 5c40 0000 0000 0000 5c40
00000030: 0000 0000 c7cd 0ac0 0000 0000 0000 5c40
00000040: 0000 0000 0000 5c40 0000 0060 93e8 0bc0
00000050: 0000 0000 0000 5c40 0000 0000 0000 5c40
00000060: 0000 0060 ded3 0bc0 0000 0000 0000 5c40
00000070: 0000 0000 0000 5c40

joints3d f8 [5, 26, 3]
-0.20370498299598694 -0.2566937208175659 2.9032094478607178 -0.30733025074005127 -0.23893128335475922 2.9210429191589355 -0.278217077255249 -0.1514168381690979
2.7922935485839844 -0.18078938126564026 0.2741645872592926 3.381349802017212 -0.17265303432941437 0.27240580320358276 3.422934055328369 0.22590239346027374
0.2512376308441162 4.0065813064575195 0.1552332490682602 0.2185380458831787 4.143357753753662 0.1924205869436264 -0.11806800216436386 4.003264904022217
-0.05747874826192856 0.14654988050460815 3.343116283416748 -0.2096078246831894 0.09609675407409668 3.436330795288086 0.24621129035949707 0.07835796475410461
3.952212333679199 0.10978734493255615 0.04805678129196167 4.066784858703613 0.007674902677536011 -0.03087596595287323 3.2223761081695557 -0.21292902529239655
-0.09617902338504791 3.328099489212036 -0.13258548080921173 0.24647417664527893 3.42000675201416 -0.19344861805438995 0.23645609617233276 3.472228765487671
0.23052668571472168 0.1726798117160797 4.054314613342285 0.18061426281929016 0.13827180862426758 4.13144588470459 -0.20780865848064423 -0.1323603242635727
3.035602331161499 0.3164890706539154 -0.14514793455600739 4.2520928382873535 -0.16157519817352295 -0.2596440315246582 3.012787342071533 -0.2937949299812317
-0.2375137209892273 3.0469512939453125 -0.22598405182361603 -0.1233213022351265 2.8758223056793213 -0.28083425760269165 -0.11832942813634872 2.8898985385894775
-0.2742946147918701 -0.22430987656116486 2.783606767654419 0.24734675884246826 -0.09995850920677185 4.132328510284424 0.2556910216808319 -0.19739621877670288
5.3774213790893555 0.14570802450180054 -0.20715878903865814 5.307072639465332 0.2962064743041992 -0.08127598464488983 5.2148847579956055 0.35488197207450867
0.3189333975315094 5.8553643226623535 0.2608541250228882 0.2190956175327301 5.812626361846924 -0.10249055176973343 0.0680597797036171 6.41356897354126
-0.24170580506324768 0.18151114881038666 6.239343643188477 -0.25443515181541443 -0.08263551443815231 6.1805338859558105 0.16690897941589355 0.1065073013305664
5.830809593200684 -0.011649040505290031 0.23159876465797424 5.708677291870117 -0.09651987254619598 -0.018492743372917175 6.303272724151611 -0.3013632893562317
0.09895838797092438 6.1429924964904785 0.10440521687269211 -0.049976594746112823 5.687687873840332 -0.11376414448022842 0.06929938495159149 5.55851936340332
0.2983853816986084 0.23190870881080627 5.8660478591918945 0.18474233150482178 0.25021374225616455 5.817079544067383 -0.17059841752052307 0.00892515480518341
6.4258012771606445 -0.31209495663642883 0.097306028008461 6.283551216125488 0.1330191045999527 -0.07485006749629974 5.403912544250488 -0.13086611032485962
-0.03915076702833176 6.381350994110107 0.20477335155010223 -0.21774135529994965 5.479213237762451 0.08441314101219177 -0.22654645144939423 5.402644634246826
0.2371683269739151 -0.050651825964450836 5.314913749694824 0.20028482377529144 -0.05264181271195412 5.288701057434082 0.28093644976615906 -0.1381881982088089
5.200615882873535 -0.23675979673862457 -0.023643575608730316 6.313655853271484 0.04116591066122055 -0.17369362711906433 2.5857040882110596 -0.06714405864477158
-0.176884725689888 2.5625340938568115 0.007322818040847778 -0.07222156226634979 2.457646608352661 0.02583320438861847 0.27305909991264343 3.0203659534454346
-0.15184234082698822 0.27216044068336487 3.0116076469421387 0.04260825365781784 0.026231028139591217 3.5775418281555176 -0.10239332169294357 0.05128274857997894
3.522629737854004 -0.045856475830078125 -0.18082398176193237 3.4838953018188477 0.024241536855697632 0.145248144865036 3.008563756942749 -0.17046360671520233
0.14973759651184082 2.998556137084961 0.03498882055282593 -0.08926723152399063 3.5115299224853516 -0.11235755681991577 -0.07015451788902283 3.4941978454589844
0.012710578739643097 0.0031905099749565125 2.913292646408081 -0.1776341199874878 0.0009966902434825897 2.8975882530212402 0.03449268639087677 0.24324040114879608
3.0565760135650635 -0.16189801692962646 0.24653542041778564 3.0494866371154785 0.025869220495224 -0.03986918926239014 3.5881643295288086 -0.088380366563797
-0.013784848153591156 3.5591812133789062 -0.043537333607673645 -0.03902296721935272 2.685805082321167 0.0033654042053967714 -0.2122662365436554 3.645979642868042
0.04208029434084892 -0.15323477983474731 2.696354627609253 -0.1031297966837883 -0.15821585059165955 2.6699962615966797 0.02170548401772976 -0.03707244619727135
2.5460729598999023 -0.045204587280750275 -0.040194906294345856 2.5320539474487305 0.011560354381799698 -0.1746678203344345 2.4477505683898926 -0.03297542780637741
-0.18396899104118347 3.5856471061706543 0.305298388004303 -0.26039087772369385 5.49637508392334 0.2201118916273117 -0.29244744777679443 5.455358505249023
0.3257119059562683 -0.22525298595428467 5.355497360229492 0.1624794900417328 0.2815490961074829 5.823227405548096 0.11710695922374725 0.3330453336238861
5.685317039489746 -0.09871005266904831 0.2145017683506012 6.418102264404297 -0.2599306106567383 0.2624051570892334 6.160928249359131 -0.13267074525356293
00000000: 0000 0040 0113 cabf 0000 0080 ab6d d0bf
00000010: 0000 00e0 c539 0740 0000 0080 4cab d3bf
00000020: 0000 00e0 4c95 cebf 0000 00c0 4b5e 0740
00000030: 0000 0000 4fce d1bf 0000 0080 a061 c3bf
00000040: 0000 0000 9e56 0640 0000 0040 1b24 c7bf
00000050: 0000 00a0 e98b d13f 0000 0020 010d 0b40
00000060: 0000 00a0 7e19 c6bf 0000 00c0 186f d13f
00000070: 0000 0040 2b62 0b40 0000 00a0 5eea cc3f
00000080: 0000 0000 4714 d03f 0000 0040 bd06 1040
00000090: 0000 00e0 aede c33f 0000 0000 0ef9 cb3f
000000a0: 0000 0060 cc92 1040 0000 00e0 3ca1 c83f
000000b0: 0000 0060 b439 bebf 0000 00e0 5703 1040
000000c0: 0000 00c0 da6d adbf 0000 0080 25c2 c23f
000000d0: 0000 00c0 b3be 0a40 0000 00e0 6dd4 cabf
000000e0: 0000 0000 cc99 b83f 0000 0000 9b7d 0b40
000000f0: 0000 0000 da83 cf3f 0000 0080 440f b43f
00000100: 0000 0080 219e 0f40 0000 0000 061b bc3f
00000110: 0000 0000 e69a a83f 0000 0040 6344 1040
00000120: 0000 0000 b86f 7f3f 0000 0000 f39d 9fbf
00000130: 0000 0020 6dc7 0940 0000 0020 4241 cbbf
00000140: 0000 0040 309f b8bf 0000 00a0 f29f 0a40
00000150: 0000 00a0 8ff8 c0bf 0000 0040 778c cf3f
00000160: 0000 0080 2c5c 0b40 0000 00a0 ecc2 c8bf
00000170: 0000 0080 3144 ce3f 0000 00e0 1fc7 0b40
00000180: 0000 0000 e681 cd3f 0000 0040 5f1a c63f
00000190: 0000 0040 9e37 1040 0000 0040 5e1e c73f
000001a0: 0000 0000 e4b2 c13f 0000 00c0 9986 1040
000001b0: 0000 0060 7999 cabf 0000 00e0 2ef1 c0bf
000001c0: 0000 00e0 e948 0840 0000 0060 5b41 d43f
000001d0: 0000 0020 3594 c2bf 0000 00a0 2402 1140
000001e0: 0000 0000 7fae c4bf 0000 0000 029e d0bf
000001f0: 0000 0040 301a 0840 0000 0040 89cd d2bf
00000200: 0000 0080 d966 cebf 0000 0000 2860 0840
00000210: 0000 00a0 0bed ccbf 0000 0020 fc91 bfbf
00000220: 0000 0020 af01 0740 0000 0040 30f9 d1bf
00000230: 0000 0060 d64a bebf 0000 0020 831e 0740
00000240: 0000 0000 0b8e d1bf 0000 00a0 2fb6 ccbf
00000250: 0000 00a0 d344 0640 0000 0000 0fa9 cf3f
00000260: 0000 0080 e196 b9bf 0000 0020 8187 1040
00000270: 0000 00e0 3d5d d03f 0000 0080 4744 c9bf
00000280: 0000 00c0 7a82 1540 0000 0080 8fa6 c23f
00000290: 0000 00e0 2d84 cabf 0000 0040 713a 1540
000002a0: 0000 0000 0cf5 d23f 0000 00c0 80ce b4bf
000002b0: 0000 00c0 0adc 1440 0000 00e0 62b6 d63f
000002c0: 0000 00a0 6769 d43f 0000 00a0 e46b 1740
000002d0: 0000 0080 d5b1 d03f 0000 0040 530b cc3f
000002e0: 0000 0020 2140 1740 0000 0020 d23c babf
000002f0: 0000 00a0 5d6c b13f 0000 00a0 7ea7 1940
00000300: 0000 0040 37f0 cebf 0000 00e0 c13b c73f
00000310: 0000 0080 16f5 1840 0000 0060 aa48 d0bf
00000320: 0000 00e0 9927 b5bf 0000 00e0 ddb8 1840
00000330: 0000 0000 465d c53f 0000 0000 1044 bb3f
00000340: 0000 00c0 bf52 1740 0000 00c0 73db 87bf
00000350: 0000 0040 07a5 cd3f 0000 0080 afd5 1640
00000360: 0000 00c0 86b5 b8bf 0000 0000 c3ef 92bf
00000370: 0000 0020 8d36 1940 0000 0040 8949 d3bf
00000380: 0000 0040 5655 b93f 0000 00a0 6c92 1840
00000390: 0000 00e0 4cba ba3f 0000 0040 8896 a9bf
000003a0: 0000 0040 31c0 1640 0000 00a0 a51f bdbf
000003b0: 0000 00c0 9abd b13f 0000 0080 ec3b 1640
000003c0: 0000 0000 bf18 d33f 0000 0040 2faf cd3f
000003d0: 0000 0040 d576 1740 0000 0000 a3a5 c73f
000003e0: 0000 0080 8003 d03f 0000 0080 b044 1740
000003f0: 0000 0040 2bd6 c5bf 0000 0000 5a47 823f
00000400: 0000 0040 05b4 1940 0000 0020 5df9 d3bf
00000410: 0000 0040 0ce9 b83f 0000 0040 5b22 1940
00000420: 0000 0020 c506 c13f 0000 00c0 5f29 b3bf
00000430: 0000 0040 9b9d 1540 0000 0080 38c0 c0bf
00000440: 0000 00c0 910b a4bf 0000 00e0 8086 1940
00000450: 0000 0060 0336 ca3f 0000 00e0 f2de cbbf
00000460: 0000 00e0 b6ea 1540 0000 0080 199c b53f
00000470: 0000 0060 79ff ccbf 0000 00e0 4e9c 1540
00000480: 0000 0020 885b ce3f 0000 0040 09ef a9bf
00000490: 0000 00c0 7842 1540 0000 00e0 eea2 c93f
000004a0: 0000 0020 def3 aabf 0000 0040 a127 1540
000004b0: 0000 00e0 dcfa d13f 0000 00a0 26b0 c1bf
000004c0: 0000 0040 6ecd 1440 0000 0020 254e cebf
000004d0: 0000 0080 0536 98bf 0000 0000 2f41 1940
000004e0: 0000 00c0 b213 a53f 0000 00c0 973b c6bf
000004f0: 0000 00a0 85af 0440 0000 0060 5a30 b1bf
00000500: 0000 00a0 28a4 c6bf 0000 00e0 1180 0440
00000510: 0000 0000 88fe 7d3f 0000 00c0 1c7d b2bf
00000520: 0000 00a0 42a9 0340 0000 0000 0574 9a3f
00000530: 0000 00e0 cc79 d13f 0000 00a0 b529 0840
00000540: 0000 00e0 916f c3bf 0000 00a0 136b d13f
00000550: 0000 00c0 c517 0840 0000 00c0 bfd0 a53f
00000560: 0000 0080 4edc 9a3f 0000 0040 ce9e 0c40
00000570: 0000 00e0 7236 babf 0000 0080 bb41 aa3f
00000580: 0000 0080 582e 0c40 0000 0000 807a a7bf
00000590: 0000 0080 3d25 c7bf 0000 0080 04df 0b40
000005a0: 0000 0000 c6d2 983f 0000 00c0 7d97 c23f
000005b0: 0000 00e0 8911 0840 0000 0060 c0d1 c5bf
000005c0: 0000 0000 9a2a c33f 0000 0000 0bfd 0740
000005d0: 0000 0000 0eea a13f 0000 00a0 37da b6bf
000005e0: 0000 0000 9d17 0c40 0000 0000 77c3 bcbf
000005f0: 0000 0080 a5f5 b1bf 0000 0000 1ef4 0b40
00000600: 0000 0000 0108 8a3f 0000 0000 fc22 6a3f
00000610: 0000 0060 6c4e 0740 0000 0000 b7bc c6bf
00000620: 0000 0000 6c54 503f 0000 00c0 422e 0740
00000630: 0000 0080 06a9 a13f 0000 0060 8022 cf3f
00000640: 0000 0020 de73 0840 0000 0000 13b9 c4bf
00000650: 0000 0000 798e cf3f 0000 0040 5965 0840
00000660: 0000 0000 767d 9a3f 0000 0000 bc69 a4bf
00000670: 0000 0080 8fb4 0c40 0000 0080 18a0 b6bf
00000680: 0000 0000 3b3b 8cbf 0000 0000 3479 0c40
00000690: 0000 0080 864a a6bf 0000 0080 d1fa a3bf
000006a0: 0000 0060 877c 0540 0000 00a0 c391 6b3f
000006b0: 0000 0040 8a2b cbbf 0000 0060 f72a 0d40
000006c0: 0000 0060 8c8b a53f 0000 0080 329d c3bf
000006d0: 0000 0060 2292 0540 0000 00e0 b666 babf
000006e0: 0000 00c0 6a40 c4bf 0000 0000 275c 0540
000006f0: 0000 0060 f639 963f 0000 00e0 28fb a2bf
00000700: 0000 0080 5b5e 0440 0000 0040 0e25 a7bf
00000710: 0000 0040 6d94 a4bf 0000 0080 a541 0440
00000720: 0000 0080 f4ac 873f 0000 00e0 835b c6bf
00000730: 0000 0040 fe94 0340 0000 00c0 27e2 a0bf
00000740: 0000 00c0 4b8c c7bf 0000 00c0 67af 0c40
00000750: 0000 0040 028a d33f 0000 0080 3eaa d0bf
00000760: 0000 00c0 49fc 1540 0000 0060 a02c cc3f
00000770: 0000 0080 75b7 d2bf 0000 0080 49d2 1540
00000780: 0000 00c0 76d8 d43f 0000 0000 17d5 ccbf
00000790: 0000 0080 076c 1540 0000 00c0 20cc c43f
000007a0: 0000 0080 e604 d23f 0000 0020 fc4a 1740
000007b0: 0000 00c0 b8fa bd3f 0000 0060 9d50 d53f
000007c0: 0000 00c0 c3bd 1640 0000 00e0 0f45 b9bf
000007d0: 0000 0040 cb74 cb3f 0000 0000 23ac 1940
000007e0: 0000 0000 b4a2 d0bf 0000 0000 3fcb d03f
000007f0: 0000 0060 caa4 1840 0000 00e0 5afb c0bf
