demo_out/run5/epoch100/params.npz (npz, 10615 bytes, 4 tensors)

pose f8 [5, 105]
000000 00 00 00 80 55 2c f4 3f 00 00 00 80 8b be f9 3f
       1.2608237266540527 1.6090197563171387
000010 00 00 00 80 2f f0 f1 bf 00 00 00 40 27 d7 b0 bf
       -1.1211390495300293 -0.06578297913074493
000020 00 00 00 80 6e 8b b2 3f 00 00 00 00 ea 40 9f bf
       0.07244005799293518 -0.03052106499671936
000030 00 00 00 00 8a 37 63 3f 00 00 00 a0 30 69 c0 3f
       0.0023458190262317657 0.1282101422548294
000040 00 00 00 c0 62 3d bf bf 00 00 00 c0 c3 d2 b2 bf
       -0.12203042209148407 -0.07352851331233978
000050 00 00 00 40 09 ed a3 3f 00 00 00 40 c0 04 c4 bf
       0.038917817175388336 -0.15639498829841614
000060 00 00 00 00 a7 0b b0 bf 00 00 00 c0 24 d5 da 3f
       -0.06267780065536499 0.419259250164032
000070 00 00 00 00 d3 68 93 3f 00 00 00 40 1c e7 bc bf
       0.018954560160636902 -0.1129014641046524
000080 00 00 00 80 ce 6a d5 3f 00 00 00 00 8a 18 7b 3f
       0.3346439599990845 0.006615199148654938
000090 00 00 00 40 72 52 bb bf 00 00 00 c0 5e 1b e4 3f
       -0.10672678053379059 0.6283410787582397
0000a0 00 00 00 c0 8c 03 b3 bf 00 00 00 00 7c fa ef bf
       -0.07427291572093964 -0.9993267059326172
0000b0 00 00 00 a0 e4 08 cc bf 00 00 00 40 0d 53 bf 3f
       -0.21902139484882355 0.12236101925373077
0000c0 00 00 00 40 1b 63 ed 3f 00 00 00 60 2b ea c0 bf
       0.918347954750061 -0.13214628398418427
0000d0 00 00 00 60 d9 30 d3 bf 00 00 00 40 3c d7 bb bf
       -0.2998565137386322 -0.10875298082828522
0000e0 00 00 00 80 17 54 da bf 00 00 00 60 c9 52 d4 bf
       -0.4113825559616089 -0.3175528943538666
0000f0 00 00 00 e0 4c 8d ae 3f 00 00 00 20 59 72 b4 bf
       0.059671785682439804 -0.0798698142170906
000100 00 00 00 20 9d a0 b5 bf 00 00 00 c0 cb 0b d0 bf
       -0.08448202162981033 -0.25071996450424194
000110 00 00 00 c0 69 81 da bf 00 00 00 c0 c9 a4 c4 bf
       -0.41414874792099 -0.16127893328666687
000120 00 00 00 40 b8 37 ed bf 00 00 00 a0 e4 f5 91 bf
       -0.9130517244338989 -0.01753957010805607
000130 00 00 00 80 a2 c5 a2 3f 00 00 00 c0 8a 68 d8 3f
       0.03666408360004425 0.38138073682785034
000140 00 00 00 c0 f4 1e da bf 00 00 00 40 9b 01 d3 3f
       -0.4081394076347351 0.2969730496406555
000150 00 00 00 40 f3 4f c5 3f 00 00 00 00 48 22 6d 3f
       0.16650238633155823 0.003556385636329651
000160 00 00 00 20 85 dc c4 3f 00 00 00 c0 b2 62 b2 3f
       0.16297973692417145 0.0718185156583786
000170 00 00 00 40 62 82 e4 3f 00 00 00 80 76 bd cf bf
       0.6409159898757935 -0.24796944856643677
000180 00 00 00 c0 1a 40 cd 3f 00 00 00 60 e8 d2 f0 3f
       0.22851881384849548 1.051491141319275
000190 00 00 00 40 97 ae c5 bf 00 00 00 00 23 3f 99 bf
       -0.16939058899879456 -0.02465490996837616
0001a0 00 00 00 40 14 ea e3 3f 00 00 00 e0 27 e0 bf 3f
       0.6223241090774536 0.12451409548521042
0001b0 00 00 00 40 05 f3 e1 bf 00 00 00 c0 b0 23 d8 3f
       -0.5609155893325806 0.3771783709526062
0001c0 00 00 00 20 18 00 d1 3f 00 00 00 20 37 85 d3 3f
       0.2656307518482208 0.305005818605423
0001d0 00 00 00 a0 01 91 d9 3f 00 00 00 00 b6 00 56 3f
       0.39947548508644104 0.00134294293820858
0001e0 00 00 00 e0 fd 2c 97 3f 00 00 00 40 cd b3 9e 3f
       0.022632567211985588 0.029982764273881912
0001f0 00 00 00 c0 24 5f 8c 3f 00 00 00 a0 7d fe de 3f
       0.013853346928954124 0.48428288102149963
000200 00 00 00 40 78 49 e4 3f 00 00 00 40 19 96 e3 3f
       0.6339684724807739 0.6120725870132446
000210 00 00 00 c0 cf fb d1 bf 00 00 00 80 d2 1a e7 3f
       -0.28099435567855835 0.7220242023468018
000220 00 00 00 60 0e 9b e0 3f 00 00 00 40 56 a8 e0 3f
       0.5189277529716492 0.520548939704895
000230 00 00 00 e0 8f dc d2 bf 00 00 00 00 ea 78 8a bf
       -0.29471203684806824 -0.01292593777179718
000240 00 00 00 c0 42 09 b7 3f 00 00 00 00 1d 67 a8 bf
       0.08998505771160126 -0.04766169190406799
000250 00 00 00 00 e6 85 74 3f 00 00 00 00 10 1c b7 3f
       0.0050105080008506775 0.0902719497680664
000260 00 00 00 00 fd 19 d8 bf 00 00 00 00 63 c7 c2 bf
       -0.3765861988067627 -0.14670979976654053
000270 00 00 00 00 88 36 7a bf 00 00 00 80 13 5b dd 3f
       -0.006399661302566528 0.4586838483810425
000280 00 00 00 20 9b 71 b1 bf 00 00 00 80 4f 51 94 3f
       -0.06813973933458328 0.019841425120830536
000290 00 00 00 00 c8 ee 6a 3f 00 00 00 80 d9 56 b3 bf
       0.00328768789768219 -0.07554396986961365
0002a0 00 00 00 80 c6 a9 83 3f 00 00 00 40 6d 93 b8 3f
       0.009601164609193802 0.09599955379962921
0002b0 00 00 00 a0 0e fc a6 bf 00 00 00 e0 a4 f4 a0 bf
       -0.04489179328083992 -0.03311648592352867
0002c0 00 00 00 a0 97 d3 ca 3f 00 00 00 60 f8 08 a6 bf
       0.20958228409290314 -0.043037187308073044
0002d0 00 00 00 00 92 33 ad 3f 00 00 00 80 71 75 af 3f
       0.057034075260162354 0.06144289672374725
0002e0 00 00 00 00 94 d0 aa bf 00 00 00 40 07 47 b0 3f
       -0.05237257480621338 0.06358380615711212
0002f0 00 00 00 00 a5 4e 85 3f 00 00 00 e0 f4 55 8c bf
       0.010403908789157867 -0.013835824094712734
000300 00 00 00 00 18 e4 d0 3f 00 00 00 80 d9 18 f1 bf
       0.26392173767089844 -1.0685667991638184
000310 00 00 00 e0 ee 0f cb bf 00 00 00 40 70 16 b0 bf
       -0.21142373979091644 -0.06284238398075104
000320 00 00 00 60 31 46 f0 bf 00 00 00 e0 c3 22 01 c0
       -1.0171369314193726 -2.141975164413452
000330 00 00 00 20 d3 dc db bf 00 00 00 00 60 96 e9 bf
       -0.4353530704975128 -0.7996063232421875
000340 00 00 00 e0 84 92 02 40 00 00 00 20 d6 ee f4 3f
       2.321542501449585 1.3083096742630005
000350 00 00 00 80 4f 45 fb 3f 00 00 00 e0 41 72 f0 bf
       1.7044215202331543 -1.0278948545455933
000360 00 00 00 e0 67 d4 b4 bf 00 00 00 c0 eb 97 99 3f
       -0.08136605471372604 0.024993594735860825
000370 00 00 00 40 f6 74 bc bf 00 00 00 00 42 64 b0 3f
       -0.11115969717502594 0.06402981281280518
000380 00 00 00 e0 b4 5d b7 3f 00 00 00 c0 4d 64 bd bf
       0.09127359837293625 -0.11481176316738129
000390 00 00 00 20 fd 0b bc bf 00 00 00 c0 fb e2 a9 3f
       -0.10955793410539627 0.0505598708987236
0003a0 00 00 00 e0 30 1f bd bf 00 00 00 e0 ed 88 b9 bf
       -0.1137571856379509 -0.09974562376737595
0003b0 00 00 00 c0 d4 86 da 3f 00 00 00 40 d5 cc 91 bf
       0.41447943449020386 -0.017382938414812088
0003c0 00 00 00 80 f1 a1 bf bf 00 00 00 a0 26 ba d5 3f
       -0.12356480956077576 0.3394867479801178
0003d0 00 00 00 80 f3 68 a3 bf 00 00 00 80 1d 91 a6 bf
       -0.037910088896751404 -0.04407589137554169
0003e0 00 00 00 80 52 6c e4 3f 00 00 00 c0 08 e8 9f bf
       0.6382229328155518 -0.031158577650785446
0003f0 00 00 00 a0 fe 7e f0 bf 00 00 00 20 c2 84 d2 bf
       -1.031004548072815 -0.2893529236316681
000400 00 00 00 20 3a 3e c1 3f 00 00 00 e0 e6 34 f0 3f
       0.13471151888370514 1.0129154920578003
000410 00 00 00 40 34 2c d2 bf 00 00 00 e0 80 dd cf bf
       -0.28394800424575806 -0.24894724786281586
000420 00 00 00 80 da db b9 bf 00 00 00 00 f2 ad d9 bf
       -0.10101094841957092 -0.4012417793273926
000430 00 00 00 a0 1a b6 d0 bf 00 00 00 60 b9 dc 9a 3f
       -0.2611147463321686 0.02623262070119381
000440 00 00 00 e0 61 d2 b6 bf 00 00 00 20 fb 28 c5 bf
       -0.08914767950773239 -0.16531313955783844
000450 00 00 00 a0 ad 98 bd bf 00 00 00 80 9c 32 dc bf
       -0.11561093479394913 -0.4405890703201294
000460 00 00 00 80 e5 d8 c1 bf 00 00 00 60 6c b2 eb bf
       -0.1394316554069519 -0.8655301928520203
000470 00 00 00 00 b4 f4 b4 bf 00 00 00 40 17 a2 c2 3f
       -0.08185887336730957 0.14557161927223206
000480 00 00 00 80 d3 13 cd 3f 00 00 00 00 ee f0 e0 bf
       0.227167546749115 -0.5294103622436523
000490 00 00 00 60 0b 20 d4 3f 00 00 00 00 0b 2f 83 3f
       0.3144558370113373 0.009367071092128754
0004a0 00 00 00 40 d6 0a d0 bf 00 00 00 00 32 cc c5 3f
       -0.2506614327430725 0.17029404640197754
0004b0 00 00 00 80 9c 52 8e 3f 00 00 00 40 5f 44 e5 3f
       0.014806006103754044 0.6645961999893188
0004c0 00 00 00 00 e7 33 ca bf 00 00 00 a0 03 e0 b8 3f
       -0.20470893383026123 0.09716818481683731
0004d0 00 00 00 40 b2 94 eb 3f 00 00 00 c0 13 6a b4 bf
       0.8619014024734497 -0.07974360883235931
0004e0 00 00 00 00 5e 32 a5 bf 00 00 00 20 ac ee e1 3f
       -0.04139989614486694 0.5603848099708557
0004f0 00 00 00 80 b2 47 9b 3f 00 00 00 80 4f ff df bf
       0.026640690863132477 -0.4999579191207886
000500 00 00 00 40 5b 7e c3 3f 00 00 00 40 6e f0 c4 3f
       0.1522935926914215 0.16358736157417297
000510 00 00 00 c0 f7 99 cc 3f 00 00 00 60 90 c4 dc 3f
       0.2234487235546112 0.4494973123073578
000520 00 00 00 c0 5b b8 aa 3f 00 00 00 80 67 fd 7a 3f
       0.05218779295682907 0.006589321419596672
000530 00 00 00 e0 b4 36 a2 3f 00 00 00 c0 77 b0 af bf
       0.035573627799749374 -0.061893217265605927
000540 00 00 00 e0 7e 4b e0 3f 00 00 00 80 e3 f4 e2 3f
       0.509215772151947 0.5923936367034912
000550 00 00 00 e0 fb 07 e3 3f 00 00 00 20 65 46 d3 bf
       0.5947245955467224 -0.30117157101631165
000560 00 00 00 a0 26 76 e2 3f 00 00 00 60 7d 05 df 3f
       0.5769227147102356 0.48471006751060486
000570 00 00 00 40 28 d3 de 3f 00 00 00 e0 c2 20 ca bf
       0.48163801431655884 -0.2041247934103012
000580 00 00 00 c0 53 56 a9 bf 00 00 00 c0 38 e2 b3 3f
       -0.04948674887418747 0.077670618891716
000590 00 00 00 00 68 99 62 3f 00 00 00 00 39 e3 87 bf
       0.002270415425300598 -0.011663861572742462
0005a0 00 00 00 40 84 ae b0 bf 00 00 00 20 5d 53 c5 bf
       -0.06516291201114655 -0.16660656034946442
0005b0 00 00 00 80 9d d8 81 3f 00 00 00 c0 12 d8 c4 3f
       0.008713942021131516 0.16284403204917908
0005c0 00 00 00 c0 4d 05 df 3f 00 00 00 00 8d 12 9f 3f
       0.48469871282577515 0.030344203114509583
0005d0 00 00 00 80 03 fe c0 3f 00 00 00 00 6e de a3 3f
       0.13275188207626343 0.038806378841400146
0005e0 00 00 00 a0 e1 ae b4 3f 00 00 00 60 e9 dc af 3f
       0.08079347759485245 0.06223229691386223
0005f0 00 00 00 00 d3 55 c2 3f 00 00 00 00 10 0e aa 3f
       0.14324414730072021 0.0508885383605957
000600 00 00 00 a0 e6 51 a7 3f 00 00 00 60 aa 13 c5 3f
       0.04554672911763191 0.16466264426708221
000610 00 00 00 20 a6 eb a3 3f 00 00 00 00 7c 99 41 bf
       0.038907233625650406 -0.0005370955914258957
000620 00 00 00 a0 14 e8 ba 3f 00 00 00 80 f9 be b6 3f
       0.10510376840829849 0.08885154128074646
000630 00 00 00 20 03 95 a7 bf 00 00 00 00 a6 53 72 bf
       -0.04605874791741371 -0.004474304616451263
000640 00 00 00 40 29 53 a1 bf 00 00 00 00 22 34 c2 3f
       -0.03383759409189224 0.14221596717834473
000650 00 00 00 60 da 1e f0 bf 00 00 00 00 68 9d d4 bf
       -1.0075324773788452 -0.32210731506347656
000660 00 00 00 00 9e 8f 86 bf 00 00 00 00 5c 69 ec bf
       -0.011016115546226501 -0.8878612518310547
000670 00 00 00 c0 2a 05 00 c0 00 00 00 c0 05 04 e0 bf
       -2.0025229454040527 -0.5004910230636597
000680 00 00 00 00 ac 06 f0 bf 00 00 00 a0 9d 6f 01 40
       -1.0016288757324219 2.179499864578247
000690 00 00 00 a0 4c 2e f4 3f 00 00 00 a0 1f 3e fb 3f
       1.2613035440444946 1.7026668787002563
0006a0 00 00 00 a0 6c 99 f0 bf 00 00 00 80 c4 ec ab bf
       -1.0374571084976196 -0.05454076826572418
0006b0 00 00 00 40 c6 a5 94 bf 00 00 00 40 b6 0e c9 bf
       -0.020163629204034805 -0.19576147198677063
0006c0 00 00 00 80 13 24 a1 3f 00 00 00 60 de 2b c1 3f
       0.03347836434841156 0.13415126502513885
0006d0 00 00 00 40 97 da aa bf 00 00 00 00 f4 2a c1 bf
       -0.05244896560907364 -0.1341233253479004
0006e0 00 00 00 e0 8c 23 b0 3f 00 00 00 80 54 70 b3 bf
       0.06304245442152023 -0.07593277096748352
0006f0 00 00 00 80 07 5f bc bf 00 00 00 40 82 ad d7 3f
       -0.11082503199577332 0.369965136051178
000700 00 00 00 40 f3 88 b2 bf 00 00 00 40 58 29 c4 bf
       -0.07240219414234161 -0.15751174092292786
000710 00 00 00 e0 2b 89 d8 3f 00 00 00 e0 6d fe b1 bf
       0.3833722770214081 -0.0702885314822197
000720 00 00 00 20 e1 85 9d 3f 00 00 00 00 ae 69 e4 3f
       0.02883102186024189 0.6379003524780273
000730 00 00 00 c0 e1 66 b6 bf 00 00 00 00 fb cd ee bf
       -0.08750735223293304 -0.962644100189209
000740 00 00 00 c0 00 13 be bf 00 00 00 c0 87 42 c5 3f
       -0.11747746169567108 0.16609284281730652
000750 00 00 00 20 ab 18 f2 3f 00 00 00 00 35 f6 cf bf
       1.131022572517395 -0.2497011423110962
000760 00 00 00 00 13 5c c8 bf 00 00 00 c0 93 ea c3 bf
       -0.19030988216400146 -0.15559622645378113
000770 00 00 00 40 ac 30 d4 bf 00 00 00 a0 77 6e bf bf
       -0.31547075510025024 -0.12277934700250626
000780 00 00 00 c0 87 b6 8e 3f 00 00 00 80 3c d3 9c 3f
       0.014996586367487907 0.028149552643299103
000790 00 00 00 80 ea 2f bf bf 00 00 00 c0 d9 2d a3 3f
       -0.12182489037513733 0.03745918720960617
0007a0 00 00 00 c0 87 b6 d6 bf 00 00 00 e0 c9 48 d0 bf
       -0.35489076375961304 -0.25444266200065613
0007b0 00 00 00 a0 6a 02 e8 bf 00 00 00 00 0b 01 a8 3f
       -0.7502949833869934 0.046882957220077515
0007c0 00 00 00 80 9c 6f c8 3f 00 00 00 40 85 7b d2 3f
       0.1909061074256897 0.2887890934944153
0007d0 00 00 00 00 1f 00 d9 bf 00 00 00 e0 3f 23 de 3f
       -0.39063239097595215 0.4709014594554901
0007e0 00 00 00 20 29 3e b9 bf 00 00 00 40 22 8b b1 bf
       -0.09860474616289139 -0.06852926313877106
0007f0 00 00 00 40 b5 5b c3 3f 00 00 00 00 2d 0c b2 bf
       0.15123620629310608 -0.07049828767776489

betas f8 [5, 26]
000000 00 00 00 00 cf 36 f8 bf 00 00 00 e0 a2 e2 fe 3f
       -1.513381004333496 1.9303311109542847
000010 00 00 00 80 78 d9 01 c0 00 00 00 60 a6 54 08 c0
       -2.231186866760254 -3.041332960128784
000020 00 00 00 00 d2 71 14 40 00 00 00 00 35 2d f1 bf
       5.111152648925781 -1.0735368728637695
000030 00 00 00 60 b6 6c 04 40 00 00 00 e0 af 68 f6 3f
       2.553082227706909 1.400558352470398
000040 00 00 00 80 41 2b e6 bf 00 00 00 c0 07 2b 14 c0
       -0.6927802562713623 -5.042021751403809
000050 00 00 00 40 35 5f d0 3f 00 00 00 a0 b5 c8 14 c0
       0.25581103563308716 -5.196005344390869
000060 00 00 00 80 32 2b 26 40 00 00 00 20 1b a5 04 40
       11.084369659423828 2.580618143081665
000070 00 00 00 c0 d1 e0 13 c0 00 00 00 c0 5a 8c 11 c0
       -4.969550132751465 -4.3870649337768555
000080 00 00 00 00 24 50 d3 3f 00 00 00 c0 cd 26 0b c0
       0.30176639556884766 -3.393947124481201
000090 00 00 00 e0 e9 30 f6 bf 00 00 00 00 d1 40 0d 40
       -1.3869417905807495 3.656648635864258
0000a0 00 00 00 c0 4f 97 01 c0 00 00 00 60 3e f0 13 c0
       -2.198882579803467 -4.984612941741943
0000b0 00 00 00 80 b7 8f 17 c0 00 00 00 c0 ce 74 11 c0
       -5.890348434448242 -4.364069938659668
0000c0 00 00 00 00 7c d8 00 40 00 00 00 a0 66 5f e6 3f
       2.1057052612304688 0.6991456151008606
0000d0 00 00 00 80 1f c4 f8 bf 00 00 00 e0 98 f6 f8 3f
       -1.5478816032409668 1.5602043867111206
0000e0 00 00 00 a0 60 d1 fa bf 00 00 00 00 65 8e 03 c0
       -1.6761175394058228 -2.444528579711914
0000f0 00 00 00 60 ca 64 14 40 00 00 00 80 fc cb c2 bf
       5.098428249359131 -0.14685016870498657
000100 00 00 00 c0 d4 2d 05 40 00 00 00 e0 37 0d 04 40
       2.647378444671631 2.5064542293548584
000110 00 00 00 00 9c c6 e8 bf 00 00 00 e0 80 02 11 c0
       -0.7742443084716797 -4.252444744110107
000120 00 00 00 00 f8 74 ef 3f 00 00 00 e0 51 3d 12 c0
       0.9830284118652344 -4.559882640838623
000130 00 00 00 80 b4 1f 21 40 00 00 00 a0 16 09 f6 3f
       8.56192398071289 1.3772188425064087
000140 00 00 00 20 14 15 10 c0 00 00 00 a0 05 ec 0c c0
       -4.020584583282471 -3.6152451038360596
000150 00 00 00 20 78 ad b2 3f 00 00 00 40 1d 88 0b c0
       0.07295943051576614 -3.4414620399475098
000160 00 00 00 c0 6b 37 f4 bf 00 00 00 40 aa 9a 11 40
       -1.2635304927825928 4.401040077209473
000170 00 00 00 20 43 81 01 c0 00 00 00 a0 ba f2 11 c0
       -2.1881163120269775 -4.487040042877197
000180 00 00 00 20 5d 1c 16 c0 00 00 00 60 4a 85 0f c0
       -5.527698993682861 -3.9400832653045654
000190 00 00 00 a0 ed e7 fe 3f 00 00 00 60 75 b4 ee 3f
       1.931623101234436 0.9595286250114441
0001a0 00 00 00 20 65 23 f8 bf 00 00 00 80 6a a6 fb 3f
       -1.5086413621902466 1.7281289100646973
0001b0 00 00 00 c0 bd 29 fc bf 00 00 00 a0 2e 26 06 c0
       -1.760190725326538 -2.768643617630005
0001c0 00 00 00 80 08 95 14 40 00 00 00 40 b3 f3 e5 bf
       5.145540237426758 -0.6859985589981079
0001d0 00 00 00 00 d6 b1 01 40 00 00 00 80 7b b5 0a 40
       2.211833953857422 3.3386144638061523
0001e0 00 00 00 20 82 dc f5 bf 00 00 00 c0 8a 3d 0e c0
       -1.3663350343704224 -3.7800498008728027
0001f0 00 00 00 c0 24 ca f8 3f 00 00 00 e0 35 01 12 c0
       1.549351453781128 -4.5011820793151855
000200 00 00 00 20 81 f4 21 40 00 00 00 c0 c6 74 fb 3f
       8.977547645568848 1.7160098552703857
000210 00 00 00 20 d6 9f 10 c0 00 00 00 20 9e 2d 08 c0
       -4.156090259552002 -3.0222742557525635
000220 00 00 00 40 be 50 e3 3f 00 00 00 80 75 89 06 c0
       0.6036063432693481 -2.8171186447143555
000230 00 00 00 e0 50 35 fb bf 00 00 00 80 a4 df 11 40
       -1.7005165815353394 4.468400955200195
000240 00 00 00 20 ce 8f 02 c0 00 00 00 00 39 aa 11 c0
       -2.3202173709869385 -4.416233062744141
000250 00 00 00 40 38 be 15 c0 00 00 00 a0 a3 c2 11 c0
       -5.435761451721191 -4.440077304840088
000260 00 00 00 e0 3f f3 fa 3f 00 00 00 c0 65 9f e9 3f
       1.6843870878219604 0.8007076978683472
000270 00 00 00 20 68 d6 f9 bf 00 00 00 80 94 2e f8 3f
       -1.6148453950881958 1.5113720893859863
000280 00 00 00 60 87 56 fb bf 00 00 00 20 d3 94 03 c0
       -1.7086251974105835 -2.4476683139801025
000290 00 00 00 00 5d c2 14 40 00 00 00 20 80 53 a9 bf
       5.189807891845703 -0.04946518316864967
0002a0 00 00 00 e0 5a 31 04 40 00 00 00 a0 ad ec 01 40
       2.524099111557007 2.240565538406372
0002b0 00 00 00 00 a2 23 f2 bf 00 00 00 e0 b8 1d 11 c0
       -1.1336994171142578 -4.279025554656982
0002c0 00 00 00 c0 62 a1 e3 3f 00 00 00 a0 4c 0a 14 c0
       0.6134504079818726 -5.0100579261779785
0002d0 00 00 00 40 c9 6f 21 40 00 00 00 e0 91 3a fd 3f
       8.718332290649414 1.8267992734909058
0002e0 00 00 00 c0 5a c2 11 c0 00 00 00 a0 01 50 10 c0
       -4.4397993087768555 -4.078131198883057
0002f0 00 00 00 80 3f d5 8a 3f 00 00 00 e0 93 26 08 c0
       0.013102050870656967 -3.018836736679077
000300 00 00 00 60 d6 50 f2 bf 00 00 00 20 98 8d 11 40
       -1.1447356939315796 4.388275623321533
000310 00 00 00 00 dd 11 01 c0 00 00 00 e0 89 90 12 c0
       -2.1337223052978516 -4.641150951385498
000320 00 00 00 c0 57 8f 16 c0 00 00 00 e0 2a 9c 10 c0
       -5.639983177185059 -4.152507305145264
000330 00 00 00 80 0c c9 fc 3f 00 00 00 c0 e4 8b f0 3f
       1.799084186553955 1.034153699874878
000340 00 00 00 c0 3c 3a f8 bf 00 00 00 80 aa b4 00 40
       -1.5142180919647217 2.0882158279418945
000350 00 00 00 e0 0e 3b 06 c0 00 00 00 e0 ef f7 0c c0
       -2.778836965560913 -3.621062994003296
000360 00 00 00 00 7a f4 15 40 00 00 00 00 2e b7 fd bf
       5.488746643066406 -1.8572216033935547
000370 00 00 00 40 18 d1 02 40 00 00 00 c0 3b ba f5 3f
       2.3520970344543457 1.3579671382904053
000380 00 00 00 80 9a 55 f7 bf 00 00 00 60 28 ba 17 c0
       -1.4583992958068848 -5.9317946434021
000390 00 00 00 20 f7 1c e0 bf 00 00 00 60 df cd 14 c0
       -0.503535807132721 -5.201047420501709
0003a0 00 00 00 c0 85 65 2a 40 00 00 00 40 07 35 0d 40
       13.198286056518555 3.650892734527588
0003b0 00 00 00 40 b4 f8 18 c0 00 00 00 40 95 f4 14 c0
       -6.242875099182129 -5.2388505935668945
0003c0 00 00 00 a0 5c 43 e3 3f 00 00 00 e0 06 81 06 c0
       0.6019728779792786 -2.8130013942718506
0003d0 00 00 00 40 7e 62 fd bf 00 00 00 20 87 12 09 40
       -1.8365461826324463 3.134046792984009
0003e0 00 00 00 20 5d ee 01 c0 00 00 00 20 b2 4e 15 c0
       -2.2413885593414307 -5.3268513679504395
0003f0 00 00 00 20 14 f9 17 c0 00 00 00 e0 bd a9 11 c0
       -5.993240833282471 -4.4157633781433105
000400 00 00 00 40 c3 56 fd 3f 00 00 00 60 17 4a de 3f
       1.8336822986602783 0.4732721745967865

camera f8 [5, 3]
000000 00 00 00 e0 83 07 0f c0 00 00 00 00 00 00 5c 40
       -3.878669500350952 112.0
000010 00 00 00 00 00 00 5c 40 00 00 00 80 e1 c6 0c c0
       112.0 -3.597109794616699
000020 00 00 00 00 00 00 5c 40 00 00 00 00 00 00 5c 40
       112.0 112.0
000030 00 00 00 60 1c ad 0c c0 00 00 00 00 00 00 5c 40
       -3.584526777267456 112.0
000040 00 00 00 00 00 00 5c 40 00 00 00 20 4f 6b 0c c0
       112.0 -3.5523970127105713
000050 00 00 00 00 00 00 5c 40 00 00 00 00 00 00 5c 40
       112.0 112.0
000060 00 00 00 80 39 44 10 c0 00 00 00 00 00 00 5c 40
       -4.066625595092773 112.0
000070 00 00 00 00 00 00 5c 40
       112.0

joints3d f8 [5, 26, 3]
000000 00 00 00 00 0f a9 d2 3f 00 00 00 20 19 74 c8 bf
       0.2915685176849365 -0.19104303419589996
000010 00 00 00 80 b9 a3 13 40 00 00 00 80 c5 07 d0 3f
       4.909887313842773 0.25047433376312256
000020 00 00 00 c0 b0 1b d0 bf 00 00 00 20 b2 8c 13 40
       -0.2516900897026062 4.8873982429504395
000030 00 00 00 40 db 29 d6 3f 00 00 00 c0 3d 3c d1 bf
       0.346304714679718 -0.2693018317222595
000040 00 00 00 c0 37 69 13 40 00 00 00 e0 f0 af d6 3f
       4.852751731872559 0.3544885814189911
000050 00 00 00 00 e2 7e d6 bf 00 00 00 c0 8d 50 13 40
       -0.35149431228637695 4.828665733337402
000060 00 00 00 60 a8 64 d6 3f 00 00 00 a0 27 da d6 bf
       0.3498936593532562 -0.3570651113986969
000070 00 00 00 40 77 4d 13 40 00 00 00 00 49 3d d7 3f
       4.825650215148926 0.3631155490875244
000080 00 00 00 60 f5 d0 d6 bf 00 00 00 00 61 bb 12 40
       -0.35650381445884705 4.682987213134766
000090 00 00 00 00 e8 31 d7 3f 00 00 00 a0 e6 9a d6 bf
       0.36242103576660156 -0.3532043993473053
0000a0 00 00 00 80 58 bf 12 40 00 00 00 40 a6 95 d7 3f
       4.686861038208008 0.36850887537002563
0000b0 00 00 00 40 e1 98 d7 bf 00 00 00 a0 45 5d 12 40
       -0.3687060475349426 4.591085910797119
0000c0 00 00 00 60 11 ae d8 3f 00 00 00 c0 35 f3 d6 bf
       0.3856242597103119 -0.3585943579673767
0000d0 00 00 00 40 ca 45 13 40 00 00 00 00 88 98 d8 3f
       4.818154335021973 0.3843097686767578
0000e0 00 00 00 60 11 0a d7 bf 00 00 00 40 94 50 13 40
       -0.3599894940853119 4.828690528869629
0000f0 00 00 00 a0 73 58 d8 3f 00 00 00 20 5a df d6 bf
       0.3803986608982086 -0.35738232731819153
000100 00 00 00 00 51 94 12 40 00 00 00 00 57 9c d7 3f
       4.644840240478516 0.36891722679138184
000110 00 00 00 c0 dc e9 d6 bf 00 00 00 40 0d 96 12 40
       -0.35802382230758667 4.6465349197387695
000120 00 00 00 a0 62 1e d7 3f 00 00 00 00 06 56 d4 bf
       0.3612295687198639 -0.3177504539489746
000130 00 00 00 80 5e e2 12 40 00 00 00 00 4d e6 d7 3f
       4.721063613891602 0.3734314441680908
000140 00 00 00 40 f0 c7 d3 bf 00 00 00 80 22 e2 12 40
       -0.30907827615737915 4.720834732055664
000150 00 00 00 00 5d f1 d6 3f 00 00 00 c0 8f b4 d6 bf
       0.35848164558410645 -0.35477060079574585
000160 00 00 00 20 d7 43 13 40 00 00 00 a0 41 e4 d6 3f
       4.816250324249268 0.35768166184425354
000170 00 00 00 80 3a d5 d6 bf 00 00 00 e0 1c 42 13 40
       -0.35676443576812744 4.814563274383545
000180 00 00 00 e0 b1 94 d7 3f 00 00 00 c0 0e 9d d6 bf
       0.3684506118297577 -0.35333603620529175
000190 00 00 00 e0 2b a6 12 40 00 00 00 40 34 0f d7 3f
       4.662276744842529 0.36030298471450806
0001a0 00 00 00 00 bc 9d d6 bf 00 00 00 c0 75 a8 12 40
       -0.3533773422241211 4.664511680603027
0001b0 00 00 00 c0 bd 17 d0 3f 00 00 00 40 8a 24 c6 bf
       0.2514490485191345 -0.1729901134967804
0001c0 00 00 00 80 bb 1d 13 40 00 00 00 40 5e cc d7 3f
       4.779035568237305 0.3718486428260803
0001d0 00 00 00 80 b4 07 d7 bf 00 00 00 a0 cc 75 12 40
       -0.35984528064727783 4.6150383949279785
0001e0 00 00 00 c0 38 44 cb 3f 00 00 00 60 10 6e 9c bf
       0.213019460439682 -0.0277636107057333
0001f0 00 00 00 80 70 81 13 40 00 00 00 c0 22 74 b4 3f
       4.876405715942383 0.07989709079265594
000200 00 00 00 60 44 d6 c9 bf 00 00 00 80 f8 52 13 40
       -0.20185141265392303 4.831026077270508
000210 00 00 00 20 a8 51 d6 3f 00 00 00 00 0b cf d0 bf
       0.34873393177986145 -0.2626368999481201
000220 00 00 00 00 ea 89 13 40 00 00 00 20 1f ff d5 3f
       4.884681701660156 0.34369638562202454
000230 00 00 00 a0 97 3c d1 bf 00 00 00 80 b2 8a 13 40
       -0.2693232595920563 4.885446548461914
000240 00 00 00 20 21 e7 d6 3f 00 00 00 40 7e 26 d2 bf
       0.35785701870918274 -0.2835994362831116
000250 00 00 00 a0 3d 90 13 40 00 00 00 a0 2b cb d7 3f
       4.890860080718994 0.3717755377292633
000260 00 00 00 40 fc fd d6 bf 00 00 00 c0 c2 75 12 40
       -0.35925203561782837 4.6150007247924805
000270 00 00 00 e0 c3 1a d5 3f 00 00 00 80 8b 62 d0 bf
       0.3297586143016815 -0.25601470470428467
000280 00 00 00 60 a4 4d 13 40 00 00 00 00 e4 3e d2 3f
       4.825822353363037 0.28508853912353516
000290 00 00 00 00 ed e2 d3 bf 00 00 00 20 7e 42 13 40
       -0.31072545051574707 4.814934253692627
0002a0 00 00 00 40 72 79 d6 3f 00 00 00 40 a1 9b d5 bf
       0.35116249322891235 -0.3376238942146301
0002b0 00 00 00 a0 a4 38 13 40 00 00 00 40 b4 59 d9 3f
       4.8053154945373535 0.39610010385513306
0002c0 00 00 00 20 6e 1f d9 bf 00 00 00 e0 fb cb 12 40
       -0.39254334568977356 4.699203014373779
0002d0 00 00 00 40 ba 02 d9 3f 00 00 00 40 4d 93 d9 bf
       0.39079147577285767 -0.3996155858039856
0002e0 00 00 00 80 77 cf 12 40 00 00 00 40 92 43 d9 3f
       4.702604293823242 0.3947492241859436
0002f0 00 00 00 e0 33 c9 d8 bf 00 00 00 40 5a 46 12 40
       -0.3872804343700409 4.568703651428223
000300 00 00 00 80 95 37 d9 3f 00 00 00 20 92 d1 d8 bf
       0.3940175771713257 -0.3877911865711212
000310 00 00 00 60 94 49 12 40 00 00 00 80 94 5a d9 3f
       4.571855068206787 0.3961535692214966
000320 00 00 00 c0 0e 01 da bf 00 00 00 40 a1 e9 11 40
       -0.40631455183029175 4.478154182434082
000330 00 00 00 60 6f 04 db 3f 00 00 00 60 57 e6 d9 bf
       0.42214569449424744 -0.404683917760849
000340 00 00 00 40 50 c1 12 40 00 00 00 60 fb da da 3f
       4.688782691955566 0.41961559653282166
000350 00 00 00 00 69 2f da bf 00 00 00 e0 9b cb 12 40
       -0.40914368629455566 4.698836803436279
000360 00 00 00 c0 2b 17 da 3f 00 00 00 40 ba 03 d9 bf
       0.4076642394065857 -0.39085251092910767
000370 00 00 00 20 6c 21 12 40 00 00 00 a0 f7 59 d9 3f
       4.532639026641846 0.3961161673069
000380 00 00 00 40 98 1c d9 bf 00 00 00 e0 d8 22 12 40
       -0.3923702836036682 4.534030437469482
000390 00 00 00 a0 bb d8 d8 3f 00 00 00 a0 d9 b2 d7 bf
       0.38822832703590393 -0.370291143655777
0003a0 00 00 00 80 d3 67 12 40 00 00 00 00 b7 36 d9 3f
       4.60139274597168 0.3939645290374756
0003b0 00 00 00 00 bc 60 d7 bf 00 00 00 c0 69 67 12 40
       -0.3652791976928711 4.60098934173584
0003c0 00 00 00 40 19 85 d9 3f 00 00 00 80 48 80 d9 bf
       0.3987486958503723 -0.39845478534698486
0003d0 00 00 00 40 8e be 12 40 00 00 00 00 ec 80 d9 3f
       4.686089515686035 0.39849376678466797
0003e0 00 00 00 c0 5c c4 d9 bf 00 00 00 40 29 c3 12 40
       -0.40261000394821167 4.690587043762207
0003f0 00 00 00 a0 d7 86 d9 3f 00 00 00 e0 db b7 d8 bf
       0.3988551199436188 -0.38622185587882996
000400 00 00 00 c0 92 30 12 40 00 00 00 20 81 03 d9 3f
       4.5474348068237305 0.3908388912677765
000410 00 00 00 80 ed df d8 bf 00 00 00 00 ad 32 12 40
       -0.3886674642562866 4.549488067626953
000420 00 00 00 e0 f6 d1 d1 3f 00 00 00 e0 92 1d cf bf
       0.2784402072429657 -0.24309001863002777
000430 00 00 00 00 17 b6 12 40 00 00 00 00 08 71 d9 3f
       4.677822113037109 0.3975238800048828
000440 00 00 00 a0 7d 2b d9 bf 00 00 00 60 7e fe 11 40
       -0.39327946305274963 4.498528957366943
000450 00 00 00 60 18 c6 ca 3f 00 00 00 80 58 d5 bc bf
       0.2091703861951828 -0.11263039708137512
000460 00 00 00 a0 66 4d 13 40 00 00 00 c0 70 93 c0 3f
       4.825586795806885 0.12949952483177185
000470 00 00 00 00 b7 4e c9 bf 00 00 00 80 8f 2c 13 40
       -0.1977146863937378 4.793516159057617
000480 00 00 00 a0 c9 c9 d7 3f 00 00 00 a0 ed b7 d5 bf
       0.37169113755226135 -0.339351087808609
000490 00 00 00 80 d9 3e 13 40 00 00 00 80 69 f4 d7 3f
       4.811376571655273 0.3742927312850952
0004a0 00 00 00 a0 c4 8a d5 bf 00 00 00 60 c1 40 13 40
       -0.33659473061561584 4.81323766708374
0004b0 00 00 00 a0 79 e8 d8 3f 00 00 00 00 1d fc d6 bf
       0.3891891539096832 -0.35913777351379395
0004c0 00 00 00 a0 e4 61 13 40 00 00 00 a0 d9 73 d9 3f
       4.8455986976623535 0.397695928812027
0004d0 00 00 00 80 5e 20 d9 bf 00 00 00 c0 b1 fe 11 40
       -0.3926006555557251 4.498724937438965
0004e0 00 00 00 00 d8 0a d0 3f 00 00 00 40 58 ec cb bf
       0.25066184997558594 -0.21815016865730286
0004f0 00 00 00 a0 aa b4 11 40 00 00 00 40 6a f4 cc 3f
       4.426432132720947 0.22620895504951477
000500 00 00 00 60 b0 ca d0 bf 00 00 00 80 7c b4 11 40
       -0.26237115263938904 4.42625617980957
000510 00 00 00 80 ae ee d1 3f 00 00 00 40 44 f8 d1 bf
       0.2801929712295532 -0.2807779908180237
000520 00 00 00 40 0a c0 11 40 00 00 00 c0 32 3e d9 3f
       4.437539100646973 0.3944212794303894
000530 00 00 00 60 7d 52 d9 bf 00 00 00 20 d3 37 11 40
       -0.39565977454185486 4.304516315460205
000540 00 00 00 c0 26 af d9 3f 00 00 00 c0 3f 22 d9 bf
       0.4013153910636902 -0.3927153944969177
000550 00 00 00 60 f4 3b 11 40 00 00 00 80 12 e7 d8 3f
       4.308549404144287 0.3891035318374634
000560 00 00 00 60 89 8b d8 bf 00 00 00 e0 00 b1 10 40
       -0.3835166394710541 4.172854900360107
000570 00 00 00 20 cd e8 d8 3f 00 00 00 40 31 b4 d8 bf
       0.3892090618610382 -0.38599807024002075
000580 00 00 00 40 e8 b1 10 40 00 00 00 60 10 b8 d8 3f
       4.173737525939941 0.3862343728542328
000590 00 00 00 40 a3 25 d9 bf 00 00 00 00 c3 5d 10 40
       -0.39292222261428833 4.091564178466797
0005a0 00 00 00 c0 71 30 da 3f 00 00 00 80 59 88 d9 bf
       0.4092068076133728 -0.3989471197128296
0005b0 00 00 00 60 51 2f 11 40 00 00 00 c0 e7 9a da 3f
       4.29620885848999 0.4157046675682068
0005c0 00 00 00 40 79 24 d9 bf 00 00 00 80 07 35 11 40
       -0.39285117387771606 4.301786422729492
0005d0 00 00 00 c0 8a 61 d9 3f 00 00 00 80 45 57 d8 bf
       0.39657849073410034 -0.38032662868499756
0005e0 00 00 00 40 2b 8e 10 40 00 00 00 c0 ed db d8 3f
       4.138836860656738 0.3884233832359314
0005f0 00 00 00 e0 00 68 d8 bf 00 00 00 00 01 8f 10 40
       -0.3813478648662567 4.139652252197266
000600 00 00 00 00 06 04 d7 3f 00 00 00 60 65 9a d7 bf
       0.3596205711364746 -0.3687985837459564
000610 00 00 00 00 b4 db 10 40 00 00 00 40 4e b0 d7 3f
       4.2145538330078125 0.3701358437538147
000620 00 00 00 a0 22 d9 d6 bf 00 00 00 c0 60 d9 10 40
       -0.3570028841495514 4.212283134460449
000630 00 00 00 80 36 28 d9 3f 00 00 00 40 16 80 d9 bf
       0.39307940006256104 -0.398442804813385
000640 00 00 00 60 7a 2b 11 40 00 00 00 00 66 bc d9 3f
       4.292459011077881 0.40212392807006836
000650 00 00 00 00 d2 14 d9 bf 00 00 00 40 3b 2f 11 40
       -0.39189577102661133 4.296124458312988
000660 00 00 00 c0 81 f5 d8 3f 00 00 00 e0 c4 4a d8 bf
       0.3899845480918884 -0.3795635402202606
000670 00 00 00 40 29 9d 10 40 00 00 00 40 f3 94 d8 3f
       4.153477668762207 0.38409119844436646
000680 00 00 00 20 e2 7d d8 bf 00 00 00 e0 a9 9d 10 40
       -0.38268330693244934 4.153968334197998
000690 00 00 00 40 6b 71 cc 3f 00 00 00 e0 4e d9 ce bf
       0.22221127152442932 -0.24100671708583832
0006a0 00 00 00 40 c2 2b 11 40 00 00 00 20 6e d6 d8 3f
       4.292733192443848 0.38808777928352356
0006b0 00 00 00 80 dc 4d d8 bf 00 00 00 80 98 70 10 40
       -0.3797522783279419 4.109956741333008
0006c0 00 00 00 c0 f7 ac bd 3f 00 00 00 00 08 df bc bf
       0.1159205287694931 -0.1127781867980957
0006d0 00 00 00 60 34 9b 11 40 00 00 00 c0 88 d2 b3 3f
       4.401566982269287 0.07743124663829803
0006e0 00 00 00 00 ca fb c5 bf 00 00 00 c0 0b 8d 11 40
       -0.17174649238586426 4.387740135192871
0006f0 00 00 00 40 2c 9c d3 3f 00 00 00 e0 72 0e d3 bf
       0.30640703439712524 -0.2977568805217743
000700 00 00 00 60 29 d5 11 40 00 00 00 60 8a 5a d4 3f
       4.458165645599365 0.3180261552333832
000710 00 00 00 60 e2 fc d1 bf 00 00 00 c0 58 d5 11 40
       -0.2810598313808441 4.458346366882324
000720 00 00 00 a0 c3 a1 d3 3f 00 00 00 60 1a 01 d2 bf
       0.30674830079078674 -0.2813173234462738
000730 00 00 00 e0 da de 11 40 00 00 00 a0 15 d6 d8 3f
       4.467631816864014 0.38806667923927307
000740 00 00 00 40 07 46 d8 bf 00 00 00 00 9a 70 10 40
       -0.3792741894721985 4.109962463378906
000750 00 00 00 e0 18 74 d5 3f 00 00 00 80 a8 41 d1 bf
       0.33521100878715515 -0.2696324586868286
000760 00 00 00 40 33 57 12 40 00 00 00 e0 46 7e d2 3f
       4.585156440734863 0.2889573276042938
000770 00 00 00 e0 b6 72 d4 bf 00 00 00 c0 86 4d 12 40
       -0.3195016086101532 4.575709342956543
000780 00 00 00 60 08 e2 d6 3f 00 00 00 80 d9 ae d6 bf
       0.3575459420681 -0.3544219732284546
000790 00 00 00 c0 3e 44 12 40 00 00 00 00 fb 14 da 3f
       4.566645622253418 0.4075305461883545
0007a0 00 00 00 40 47 40 da bf 00 00 00 a0 f3 e6 11 40
       -0.410173237323761 4.475538730621338
0007b0 00 00 00 00 7c eb d9 3f 00 00 00 80 87 49 da bf
       0.4049978256225586 -0.41073787212371826
0007c0 00 00 00 c0 2a ee 11 40 00 00 00 00 59 a6 d9 3f
       4.4825849533081055 0.40077805519104004
0007d0 00 00 00 00 71 6e d9 bf 00 00 00 80 31 63 11 40
       -0.3973658084869385 4.346868515014648
0007e0 00 00 00 20 e0 47 d9 3f 00 00 00 40 56 a9 d9 bf
       0.39501193165779114 -0.4009605050086975
0007f0 00 00 00 40 66 66 11 40 00 00 00 20 fd 8a d9 3f
       4.34999942779541 0.3991082012653351
