demo_out/run4/epoch8/params.npz (npz, 10615 bytes, 4 tensors)

pose f8 [5, 105]
0.8592745661735535 1.750400424003601 -1.3771897554397583 0.01822015456855297 -0.05402442067861557 0.2196352332830429 0.11171145737171173 -0.039234843105077744
-0.2616392970085144 -0.20849169790744781 -0.16257983446121216 -0.04427460581064224 -0.09516794979572296 0.3090534508228302 0.0179593563079834 -0.038111500442028046
0.050426267087459564 -0.0441073477268219 0.10753325372934341 0.10667333006858826 0.020888138562440872 -0.564688503742218 -0.15296223759651184 -0.08350998163223267
0.7522693276405334 0.1782071590423584 0.6011062264442444 -0.28713446855545044 -0.4238080084323883 -0.005890250205993652 0.4591090679168701 -0.15826159715652466
-0.20513364672660828 0.2787022292613983 0.13162298500537872 -0.054989270865917206 -0.3833125829696655 0.06024300307035446 0.03261914104223251 -0.175481915473938
-0.6426268219947815 0.8171254396438599 -0.8553224205970764 -0.8414435386657715 0.33313894271850586 0.12708860635757446 -0.39576444029808044 0.05265270546078682
0.34172290563583374 -0.34837478399276733 0.4252333343029022 0.040074609220027924 0.051351018249988556 -0.38298285007476807 -0.06807573139667511 0.3000694513320923
0.29066503047943115 0.2673306465148926 -0.4927216172218323 0.1857762336730957 0.026342783123254776 -0.6320511698722839 0.2432045340538025 0.2293102890253067
0.7161452174186707 0.2476787269115448 -0.12235318124294281 -0.1398763656616211 -0.17141970992088318 -0.15604554116725922 0.0392799898982048 -0.3137968182563782
-0.34947535395622253 -1.1050063371658325 -0.24391904473304749 -0.24025149643421173 -0.22165732085704803 0.009375374764204025 -0.28711947798728943 0.29969853162765503
-0.1751103699207306 0.019487176090478897 -0.08117517828941345 -0.09484902769327164 -0.08031518012285233 -0.12714014947414398 0.106383316218853 -0.0026493147015571594
0.08979550004005432 0.02272018976509571 -0.46556171774864197 0.1020430475473404 -0.009924170561134815 -0.4597399830818176 0.36569076776504517 -0.10177375376224518
-0.4832821190357208 0.06791139394044876 0.03531477600336075 -1.2093501091003418 0.8721941113471985 -0.796721875667572 0.7384524941444397 1.4046266078948975
1.5563316345214844 1.577993631362915 0.644389808177948 -1.0372775793075562 0.12542569637298584 0.05240040272474289 -0.2117685079574585 -0.19296614825725555
0.013005168177187443 0.16054297983646393 0.15839585661888123 -0.1478126496076584 0.15082792937755585 0.08110260963439941 0.18587476015090942 -0.1650315672159195
-0.004607796669006348 0.027250614017248154 -0.0059143975377082825 0.029610557481646538 0.18630412220954895 -0.06542570888996124 -0.25235405564308167 0.14163315296173096
-0.08040396124124527 0.6968514323234558 -0.4468819499015808 0.29870396852493286 -0.15695598721504211 -0.156171053647995 -0.19304272532463074 0.2650183141231537
0.5170862674713135 -0.22885629534721375 0.5187162160873413 -0.17037433385849 -0.18247422575950623 -0.02067132294178009 0.28926360607147217 -0.03748475760221481
0.055849626660346985 0.24509479105472565 0.6393259763717651 -0.5457059741020203 -0.33016660809516907 0.12949396669864655 -0.3376532793045044 -0.1250569373369217
0.23112852871418 -0.2034830003976822 -0.5087378621101379 -0.025536224246025085 0.2560454308986664 0.23278877139091492 -0.25079959630966187 -0.11248628795146942
0.5243725180625916 0.08686111867427826 0.1361074596643448 -0.6032379865646362 0.17699898779392242 0.19526848196983337 -0.38409802317619324 -0.01448577269911766
0.11322201788425446 -0.047794684767723083 0.1604066789150238 0.40982869267463684 0.7016315460205078 -0.08803541958332062 -0.21803395450115204 -0.8390220403671265
-0.02002183347940445 -0.17425763607025146 -0.031189486384391785 -0.025400377810001373 -0.1144123375415802 -0.5618805885314941 -0.13993234932422638 0.4596613645553589
0.1642334908246994 -0.4410859942436218 0.3645721971988678 -0.08559116721153259 0.0712098628282547 0.09349069744348526 -0.25807124376296997 -0.005618869327008724
0.0981510579586029 0.16286425292491913 -0.2726037800312042 -0.18852384388446808 -0.014265835285186768 0.05714263394474983 -0.08871978521347046 -0.8151388764381409
-0.4991442859172821 0.19280150532722473 -0.18913954496383667 0.028905536979436874 -1.3587770462036133 0.7698814272880554 -0.8268665075302124 0.5210564732551575
1.577446460723877 1.0108885765075684 1.357421875 1.1878618001937866 -1.1429369449615479 -0.06341136991977692 0.0009145289659500122 -0.10960755497217178
-0.027387019246816635 0.02416948229074478 -0.04106588661670685 -0.008741774596273899 -0.182450532913208 0.0023268102668225765 0.03988264501094818 0.2146526575088501
0.0335499569773674 0.025140129029750824 0.05245189368724823 -0.0159161314368248 -0.03281056135892868 0.22954340279102325 0.047709185630083084 -0.3379819393157959
0.11387614905834198 0.21923522651195526 0.5412443280220032 -0.07453659176826477 0.3773409426212311 -0.23815006017684937 -0.6265755295753479 -0.3102540075778961
0.5028237104415894 -0.04996711015701294 -0.2547040283679962 0.3167082667350769 0.00403781421482563 -0.325655072927475 -0.4139968156814575 0.08812561631202698
-0.2366200089454651 0.25143173336982727 -0.5559112429618835 0.4553121030330658 -0.5618674755096436 -0.04937928915023804 0.25960013270378113 -0.06580682843923569
00000000: 0000 0060 2d7f eb3f 0000 00e0 a301 fc3f
00000010: 0000 0020 f808 f6bf 0000 00e0 4da8 923f
00000020: 0000 00c0 16a9 abbf 0000 00e0 011d cc3f
00000030: 0000 0040 1f99 bc3f 0000 00e0 9616 a4bf
00000040: 0000 00c0 b2be d0bf 0000 0020 dbaf cabf
00000050: 0000 0080 6acf c4bf 0000 0040 29ab a6bf
00000060: 0000 0040 ed5c b8bf 0000 0020 88c7 d33f
00000070: 0000 0000 f063 923f 0000 00c0 5983 a3bf
00000080: 0000 00c0 78d1 a93f 0000 0000 3d95 a6bf
00000090: 0000 00a0 4c87 bb3f 0000 0080 f14e bb3f
000000a0: 0000 0040 b363 953f 0000 00a0 ed11 e2bf
000000b0: 0000 0040 4494 c3bf 0000 0000 e960 b5bf
000000c0: 0000 0020 9712 e83f 0000 0000 7ecf c63f
000000d0: 0000 0020 433c e33f 0000 0040 6960 d2bf
000000e0: 0000 00a0 ab1f dbbf 0000 0000 6020 78bf
000000f0: 0000 0000 0b62 dd3f 0000 0080 ea41 c4bf
00000100: 0000 00c0 d141 cabf 0000 00e0 41d6 d13f
00000110: 0000 00a0 05d9 c03f 0000 00c0 8d27 acbf
00000120: 0000 0080 3188 d8bf 0000 00c0 2bd8 ae3f
00000130: 0000 00c0 74b3 a03f 0000 0000 3176 c6bf
00000140: 0000 0020 6690 e4bf 0000 0040 e425 ea3f
00000150: 0000 0020 cd5e ebbf 0000 0000 1bed eabf
00000160: 0000 0000 2652 d53f 0000 0080 7044 c03f
00000170: 0000 0060 3454 d9bf 0000 00a0 4bf5 aa3f
00000180: 0000 00c0 c9de d53f 0000 00c0 c54b d6bf
00000190: 0000 00e0 0537 db3f 0000 00c0 a884 a43f
000001a0: 0000 0040 ae4a aa3f 0000 0080 ca82 d8bf
000001b0: 0000 0040 696d b1bf 0000 0080 5634 d33f
000001c0: 0000 0080 419a d23f 0000 0000 f21b d13f
000001d0: 0000 0040 c088 dfbf 0000 0000 84c7 c73f
000001e0: 0000 0040 9af9 9a3f 0000 0060 c339 e4bf
000001f0: 0000 0080 5321 cf3f 0000 0020 0a5a cd3f
00000200: 0000 0060 a9ea e63f 0000 00c0 efb3 cf3f
00000210: 0000 00c0 8952 bfbf 0000 0000 78e7 c1bf
00000220: 0000 00c0 14f1 c5bf 0000 00e0 4cf9 c3bf
00000230: 0000 00c0 811c a43f 0000 0040 3f15 d4bf
00000240: 0000 00e0 cd5d d6bf 0000 0020 1bae f1bf
00000250: 0000 0040 bd38 cfbf 0000 00a0 8fc0 cebf
00000260: 0000 0060 445f ccbf 0000 0080 6533 833f
00000270: 0000 0060 2a60 d2bf 0000 00c0 422e d33f
00000280: 0000 0040 046a c6bf 0000 0040 72f4 933f
00000290: 0000 0080 e5c7 b4bf 0000 00a0 0648 b8bf
000002a0: 0000 0020 898f b4bf 0000 00e0 2046 c0bf
000002b0: 0000 00e0 ef3b bb3f 0000 0000 04b4 65bf
000002c0: 0000 0080 d6fc b63f 0000 0020 f643 973f
000002d0: 0000 0060 c3cb ddbf 0000 0040 7e1f ba3f
000002e0: 0000 00a0 1f53 84bf 0000 0040 616c ddbf
000002f0: 0000 0040 7a67 d73f 0000 0040 d80d babf
00000300: 0000 0020 18ee debf 0000 0020 a462 b13f
00000310: 0000 0040 c714 a23f 0000 0080 7f59 f3bf
00000320: 0000 00a0 03e9 eb3f 0000 00e0 be7e e9bf
00000330: 0000 0020 67a1 e73f 0000 00c0 5979 f63f
00000340: 0000 0000 bce6 f83f 0000 0040 763f f93f
00000350: 0000 0060 d79e e43f 0000 0060 b098 f0bf
00000360: 0000 0000 f30d c03f 0000 00c0 39d4 aa3f
00000370: 0000 0000 3b1b cbbf 0000 0060 1db3 c8bf
00000380: 0000 0020 74a2 8a3f 0000 0020 ac8c c43f
00000390: 0000 00c0 5046 c43f 0000 0060 86eb c2bf
000003a0: 0000 0060 544e c33f 0000 0000 24c3 b43f
000003b0: 0000 0080 beca c73f 0000 0020 c11f c5bf
000003c0: 0000 0000 a0df 72bf 0000 00c0 95e7 9b3f
000003d0: 0000 0000 b239 78bf 0000 00e0 3a52 9e3f
000003e0: 0000 0040 d0d8 c73f 0000 0040 bdbf b0bf
000003f0: 0000 00a0 9126 d0bf 0000 0000 0921 c23f
00000400: 0000 00a0 5a95 b4bf 0000 0060 9b4c e63f
00000410: 0000 00c0 b699 dcbf 0000 0040 f71d d33f
00000420: 0000 0040 2217 c4bf 0000 00c0 69fd c3bf
00000430: 0000 00c0 9fb5 c8bf 0000 0060 0ff6 d03f
00000440: 0000 0080 f88b e03f 0000 00c0 294b cdbf
00000450: 0000 00c0 5299 e03f 0000 0080 d3ce c5bf
00000460: 0000 00c0 505b c7bf 0000 0000 dd2a 95bf
00000470: 0000 0080 4b83 d23f 0000 00c0 3331 a3bf
00000480: 0000 0080 5298 ac3f 0000 0020 445f cf3f
00000490: 0000 00c0 5b75 e43f 0000 0060 6c76 e1bf
000004a0: 0000 0020 7321 d5bf 0000 0020 4293 c03f
000004b0: 0000 0080 1c9c d5bf 0000 00a0 dd01 c0bf
000004c0: 0000 00a0 9e95 cd3f 0000 0020 bb0b cabf
000004d0: 0000 00a0 9447 e0bf 0000 0000 2b26 9abf
000004e0: 0000 0060 0c63 d03f 0000 00c0 05cc cd3f
000004f0: 0000 00c0 190d d0bf 0000 00c0 e6cb bcbf
00000500: 0000 00e0 a8c7 e03f 0000 00c0 873c b63f
00000510: 0000 0020 f86b c13f 0000 00c0 b94d e3bf
00000520: 0000 0020 e7a7 c63f 0000 00c0 8efe c83f
00000530: 0000 00e0 0f95 d8bf 0000 0080 b7aa 8dbf
00000540: 0000 0040 1efc bc3f 0000 0080 8b78 a8bf
00000550: 0000 00c0 3488 c43f 0000 0020 a23a da3f
00000560: 0000 0000 c473 e63f 0000 0040 7d89 b6bf
00000570: 0000 0060 89e8 cbbf 0000 00c0 44d9 eabf
00000580: 0000 0080 9a80 94bf 0000 0000 134e c6bf
00000590: 0000 0000 23f0 9fbf 0000 0080 8e02 9abf
000005a0: 0000 0080 204a bdbf 0000 0000 edfa e1bf
000005b0: 0000 00a0 4de9 c1bf 0000 0080 176b dd3f
000005c0: 0000 0060 9a05 c53f 0000 00c0 c03a dcbf
000005d0: 0000 00a0 2655 d73f 0000 0080 4de9 b5bf
000005e0: 0000 0040 cf3a b23f 0000 00a0 01ef b73f
000005f0: 0000 0040 3d84 d0bf 0000 00c0 cf03 77bf
00000600: 0000 0080 6d20 b93f 0000 0060 bcd8 c43f
00000610: 0000 0020 5772 d1bf 0000 00a0 8c21 c8bf
00000620: 0000 0000 6837 8dbf 0000 00a0 cc41 ad3f
00000630: 0000 0000 57b6 b6bf 0000 0020 9e15 eabf
00000640: 0000 00e0 faf1 dfbf 0000 0040 b8ad c83f
00000650: 0000 0080 b935 c8bf 0000 00c0 6999 9d3f
00000660: 0000 0000 8dbd f5bf 0000 0060 dea2 e83f
00000670: 0000 00c0 b075 eabf 0000 00a0 7eac e03f
00000680: 0000 0080 383d f93f 0000 0080 992c f03f
00000690: 0000 0000 00b8 f53f 0000 0060 7b01 f33f
000006a0: 0000 0040 7849 f2bf 0000 0040 ba3b b0bf
000006b0: 0000 0000 a0f7 4d3f 0000 00a0 3d0f bcbf
000006c0: 0000 00c0 570b 9cbf 0000 0080 e2bf 983f
000006d0: 0000 0080 9606 a5bf 0000 0020 35e7 81bf
000006e0: 0000 0000 8a5a c7bf 0000 00c0 ac0f 633f
000006f0: 0000 0080 7f6b a43f 0000 0000 bd79 cb3f
00000700: 0000 00c0 752d a13f 0000 0080 55be 993f
00000710: 0000 0080 f9da aa3f 0000 0080 514c 90bf
00000720: 0000 00c0 8bcc a0bf 0000 00a0 ad61 cd3f
00000730: 0000 00a0 566d a83f 0000 0000 7fa1 d5bf
00000740: 0000 00c0 fc26 bd3f 0000 0060 e60f cc3f
00000750: 0000 00a0 df51 e13f 0000 0080 d414 b3bf
00000760: 0000 00a0 5a26 d83f 0000 0080 b37b cebf
00000770: 0000 0020 e80c e4bf 0000 00a0 33db d3bf
00000780: 0000 00c0 2117 e03f 0000 0000 4a95 a9bf
00000790: 0000 0020 124d d0bf 0000 00c0 f244 d43f
000007a0: 0000 0080 f489 703f 0000 0060 88d7 d4bf
000007b0: 0000 0080 ec7e dabf 0000 0080 668f b63f
000007c0: 0000 0080 9049 cebf 0000 0020 7517 d03f
000007d0: 0000 0060 06ca e1bf 0000 0060 d523 dd3f
000007e0: 0000 0080 d1fa e1bf 0000 0000 3e48 a9bf
000007f0: 0000 00e0 499d d03f 0000 0060 b7d8 b0bf

betas f8 [5, 26]
0.5022081136703491 0.7672145366668701 -0.38174113631248474 -1.9478846788406372 -0.8610139489173889 2.1934001445770264 -1.4983868598937988 0.147059828042984
1.7623424530029297 1.3901296854019165 1.5969154834747314 -1.785038709640503 2.495671033859253 0.037667907774448395 -1.8815269470214844 1.3113058805465698
-1.7845921516418457 -2.694957733154297 0.4342864155769348 1.9814101457595825 -0.17009525001049042 -0.13248416781425476 -1.1735413074493408 -0.47247159481048584
-0.13479967415332794 -3.009732961654663 0.4048983156681061 1.1843470335006714 -1.198648452758789 -0.4515515863895416 -0.07651342451572418 -2.2910969257354736
1.042238712310791 -0.6289355158805847 -0.6106114387512207 -0.024835169315338135 0.4174765944480896 -0.8107742071151733 3.7453441619873047 0.2666952908039093
-0.91472989320755 0.8872495293617249 -1.4741921424865723 -5.195489406585693 -0.18242637813091278 0.6883708238601685 -0.6745222210884094 0.05682430788874626
-0.8201271295547485 -1.0842180252075195 0.003191385418176651 -4.486405372619629 -0.26686906814575195 1.0650278329849243 0.5821434855461121 -2.038956642150879
0.07159721106290817 -0.9632745385169983 -0.4285610616207123 1.2944931983947754 1.630290150642395 -0.7354736924171448 0.9020662307739258 -0.959293007850647
1.5141429901123047 0.6144672632217407 -0.3315567374229431 0.04130903631448746 -2.038442611694336 -2.8657114505767822 -0.011514052748680115 0.8186393976211548
-0.5828450322151184 -0.5383607745170593 -0.8236865997314453 -1.8944603204727173 -0.006304999813437462 -1.771077036857605 0.18663765490055084 0.12685737013816833
-1.0535253286361694 -0.3250008523464203 -0.6728296875953674 0.7847589254379272 -0.3709547817707062 0.3636532127857208 0.3652234375476837 1.585949420928955
1.3894908428192139 -1.3281885385513306 1.8311007022857666 0.3549087941646576 -1.4109857082366943 1.5332565307617188 -1.8733248710632324 -3.6800894737243652
0.0037578274495899677 1.7872062921524048 -0.2407407909631729 -0.11450611054897308 -0.9253477454185486 -1.7610039710998535 -0.21353839337825775 -4.241548538208008
0.18191052973270416 0.5207545757293701 0.11659722030162811 -0.9920414686203003 0.23577499389648438 0.027421696111559868 0.09843821823596954 0.5745569467544556
0.0344880148768425 -0.11938681453466415 0.24394801259040833 -0.8326548933982849 1.3808015584945679 1.1349502801895142 -1.3391790390014648 -0.5123311281204224
-2.6258256435394287 -2.8819284439086914 -0.008434770628809929 1.237244963645935 -0.4631514847278595 -0.1800333559513092 -0.6663368344306946 -1.7514265775680542
-0.42659991979599 -0.936764657497406
00000000: 0000 00c0 1612 e03f 0000 0080 058d e83f
00000010: 0000 0060 726e d8bf 0000 0020 892a ffbf
00000020: 0000 0020 6d8d ebbf 0000 0060 158c 0140
00000030: 0000 0080 64f9 f7bf 0000 0040 dbd2 c23f
00000040: 0000 0000 8e32 fc3f 0000 00a0 f83d f63f
00000050: 0000 0040 f78c f93f 0000 00c0 848f fcbf
00000060: 0000 0060 22f7 0340 0000 0040 3549 a33f
00000070: 0000 0000 bc1a febf 0000 00e0 1bfb f43f
00000080: 0000 0080 b08d fcbf 0000 0000 468f 05c0
00000090: 0000 0040 59cb db3f 0000 0020 dbb3 ff3f
000000a0: 0000 0060 aec5 c5bf 0000 00c0 3df5 c0bf
000000b0: 0000 0040 d3c6 f2bf 0000 0080 f93c debf
000000c0: 0000 00a0 1d41 c1bf 0000 00e0 ee13 08c0
000000d0: 0000 00a0 dae9 d93f 0000 00e0 15f3 f23f
000000e0: 0000 0000 aa2d f3bf 0000 00a0 38e6 dcbf
000000f0: 0000 0040 6296 b3bf 0000 00a0 2a54 02c0
00000100: 0000 0080 02ad f03f 0000 0060 3d20 e4bf
00000110: 0000 0000 218a e3bf 0000 0000 646e 99bf
00000120: 0000 00c0 efb7 da3f 0000 00c0 dcf1 e9bf
00000130: 0000 0000 77f6 0d40 0000 0020 8911 d13f
00000140: 0000 00a0 7745 edbf 0000 0020 5964 ec3f
00000150: 0000 0080 4a96 f7bf 0000 0060 2ec8 14c0
00000160: 0000 0060 bf59 c7bf 0000 0040 2207 e63f
00000170: 0000 00a0 af95 e5bf 0000 0060 1318 ad3f
00000180: 0000 0040 7b3e eabf 0000 0000 f558 f1bf
00000190: 0000 0000 d224 6a3f 0000 0040 14f2 11c0
000001a0: 0000 0000 6214 d1bf 0000 00a0 5a0a f13f
000001b0: 0000 0060 eba0 e23f 0000 0080 c84f 00c0
000001c0: 0000 00e0 3154 b23f 0000 0020 25d3 eebf
000001d0: 0000 0060 8b6d dbbf 0000 0080 3eb6 f43f
000001e0: 0000 0020 ab15 fa3f 0000 0020 0089 e7bf
000001f0: 0000 0000 badd ec3f 0000 0040 87b2 eebf
00000200: 0000 0000 ee39 f83f 0000 0040 b7a9 e33f
00000210: 0000 00c0 3938 d5bf 0000 0040 7526 a53f
00000220: 0000 0000 bb4e 00c0 0000 0020 faec 06c0
00000230: 0000 0000 ae94 87bf 0000 0040 4b32 ea3f
00000240: 0000 00a0 aaa6 e2bf 0000 0060 403a e1bf
00000250: 0000 0000 a45b eabf 0000 00a0 b54f febf
00000260: 0000 0080 45d3 79bf 0000 00e0 5456 fcbf
00000270: 0000 0020 bee3 c73f 0000 00c0 dc3c c03f
00000280: 0000 0060 3ddb f0bf 0000 0060 d0cc d4bf
00000290: 0000 0020 d287 e5bf 0000 00c0 be1c e93f
000002a0: 0000 0020 b9bd d7bf 0000 0020 1846 d73f
000002b0: 0000 0020 d25f d73f 0000 0080 0c60 f93f
000002c0: 0000 00c0 5a3b f63f 0000 00a0 4240 f5bf
000002d0: 0000 0040 304c fd3f 0000 0060 d3b6 d63f
000002e0: 0000 00c0 6593 f6bf 0000 0000 3888 f83f
000002f0: 0000 0080 23f9 fdbf 0000 00c0 d270 0dc0
00000300: 0000 0040 bcc8 6e3f 0000 00a0 6598 fc3f
00000310: 0000 0020 98d0 cebf 0000 00c0 4550 bdbf
00000320: 0000 00e0 729c edbf 0000 0080 122d fcbf
00000330: 0000 00e0 3955 cbbf 0000 0080 58f7 10c0
00000340: 0000 0020 d848 c73f 0000 0080 05aa e03f
00000350: 0000 00c0 50d9 bd3f 0000 00c0 cdbe efbf
00000360: 0000 0000 e02d ce3f 0000 00e0 6e14 9c3f
00000370: 0000 0040 3f33 b93f 0000 0040 c562 e23f
00000380: 0000 00c0 69a8 a13f 0000 0060 2290 bebf
00000390: 0000 0040 b039 cf3f 0000 00e0 1ba5 eabf
000003a0: 0000 0060 c317 f63f 0000 00a0 c128 f23f
000003b0: 0000 0000 476d f5bf 0000 0040 0465 e0bf
000003c0: 0000 00e0 b001 05c0 0000 0080 300e 07c0
000003d0: 0000 00c0 3f46 81bf 0000 0060 c1cb f33f
000003e0: 0000 0020 46a4 ddbf 0000 0040 550b c7bf
000003f0: 0000 00a0 a152 e5bf 0000 00e0 d705 fcbf
00000400: 0000 00c0 694d dbbf 0000 00e0 f9f9 edbf

camera f8 [5, 3]
-3.3423914909362793 112.0 112.0 -3.5310797691345215 112.0 112.0 -3.423438549041748 112.0
112.0 -3.2422876358032227 112.0 112.0 -3.4109787940979004 112.0 112.0
00000000: 0000 00c0 37bd 0ac0 0000 0000 0000 5c40
00000010: 0000 0000 0000 5c40 0000 00c0 a63f 0cc0
00000020: 0000 0000 0000 5c40 0000 0000 0000 5c40
00000030: 0000 00c0 3363 0bc0 0000 0000 0000 5c40
00000040: 0000 0000 0000 5c40 0000 0080 34f0 09c0
00000050: 0000 0000 0000 5c40 0000 0000 0000 5c40
00000060: 0000 0040 af49 0bc0 0000 0000 0000 5c40
00000070: 0000 0000 0000 5c40

joints3d f8 [5, 26, 3]
-0.26001617312431335 -0.2982950806617737 4.593870639801025 -0.3571128845214844 -0.2906576991081238 4.605411529541016 -0.3173542618751526 -0.21306338906288147
4.53236722946167 -0.20800746977329254 0.3616432845592499 4.981845855712891 -0.15884843468666077 0.3075447678565979 5.077281951904297 0.28020474314689636
0.3191046416759491 5.592977046966553 0.240287184715271 0.23540633916854858 5.89284610748291 0.24484948813915253 -0.1736658364534378 5.593650817871094
-0.13275477290153503 0.09254702180624008 4.971403121948242 -0.23376856744289398 0.048890918493270874 5.090057849884033 0.27722036838531494 0.08661860227584839
5.508364677429199 0.15411484241485596 0.03703092038631439 5.717074871063232 -0.08986575901508331 -0.10425099730491638 4.84547233581543 -0.25709596276283264
-0.1577180176973343 4.966996669769287 -0.16074493527412415 0.2962011396884918 5.055060386657715 -0.20737236738204956 0.269827663898468 5.147826194763184
0.27714213728904724 0.22286710143089294 5.677789688110352 0.275328665971756 0.14622627198696136 5.8437700271606445 -0.28005337715148926 -0.21485254168510437
4.731686115264893 0.44049665331840515 -0.11244598031044006 5.809778213500977 -0.224094420671463 -0.32313352823257446 4.6930694580078125 -0.3677990436553955
-0.3169921040534973 4.724359512329102 -0.2905810475349426 -0.19964084029197693 4.583576202392578 -0.34628984332084656 -0.20020313560962677 4.595892429351807
-0.3166681230068207 -0.2646782398223877 4.508695602416992 0.31691479682922363 -0.11107683926820755 5.712759971618652 0.2521199584007263 -0.18105971813201904
4.450519561767578 0.15641477704048157 -0.1805514097213745 4.38222599029541 0.2797586917877197 -0.04725442826747894 4.329002380371094 0.37971436977386475
0.28144145011901855 4.807897567749023 0.2803201973438263 0.26356959342956543 4.821420669555664 -0.08333735167980194 0.07332409918308258 5.406866550445557
-0.22548094391822815 0.12370797991752625 5.272986888885498 -0.23167230188846588 -0.05932419002056122 5.275086402893066 0.1929444521665573 0.09254717826843262
4.876765251159668 -0.0046315742656588554 0.21521219611167908 4.759968280792236 -0.048062220215797424 -0.0003197193145751953 5.351654529571533 -0.27925655245780945
0.10867922008037567 5.2021965980529785 0.13196991384029388 -0.04973682761192322 4.746023178100586 -0.06874321401119232 0.03813760355114937 4.640235424041748
0.31918156147003174 0.21012356877326965 4.876122951507568 0.18618354201316833 0.28945353627204895 4.840655326843262 -0.17257043719291687 0.03697255998849869
5.468841075897217 -0.2994235157966614 0.06778217107057571 5.368580341339111 0.13361042737960815 -0.08319282531738281 4.497247219085693 -0.21225440502166748
0.04842587187886238 5.511172294616699 0.19102005660533905 -0.23474638164043427 4.554588317871094 0.07662437856197357 -0.2289443016052246 4.4738240242004395
0.23234587907791138 -0.04410230368375778 4.411879539489746 0.19978561997413635 -0.04354960843920708 4.387465000152588 0.28331276774406433 -0.10393281280994415
4.301962375640869 -0.24271376430988312 0.025647029280662537 5.398679256439209 0.04060179740190506 -0.1505517065525055 2.3567538261413574 -0.04099278151988983
-0.13937918841838837 2.3198492527008057 0.03516203165054321 -0.06163027882575989 2.273258924484253 0.03539489954710007 0.25736352801322937 2.746485948562622
-0.14034655690193176 0.27011895179748535 2.73744797706604 0.01938749849796295 0.110070139169693 3.2759976387023926 -0.09571078419685364 0.1116541177034378
3.2393221855163574 -0.045676231384277344 -0.16605252027511597 3.239816427230835 0.01822584867477417 0.10202896595001221 2.7265021800994873 -0.15456828474998474
0.10522159188985825 2.7188212871551514 0.037068843841552734 -0.033279597759246826 3.2372872829437256 -0.12069642543792725 -0.026157289743423462 3.2303686141967773
0.015884079039096832 -0.041583314538002014 2.63281512260437 -0.15501828491687775 -0.04364471510052681 2.6212973594665527 0.03731035441160202 0.23358552157878876
2.7858479022979736 -0.15091609954833984 0.24493396282196045 2.7747724056243896 0.007013827562332153 0.037452295422554016 3.307530403137207 -0.08590450882911682
0.0454854741692543 3.2940902709960938 -0.040480904281139374 -0.0624997541308403 2.450562000274658 0.019042709842324257 -0.1868521124124527 3.437817096710205
0.022895142436027527 -0.17266610264778137 2.45416259765625 -0.10516224801540375 -0.1540069878101349 2.4018232822418213 0.03825918585062027 -0.0402958057820797
2.337761878967285 -0.016573037952184677 -0.03558044880628586 2.315744161605835 0.04480481892824173 -0.13107508420944214 2.2422091960906982 -0.026866216212511063
-0.15855960547924042 3.36114239692688 0.3345627784729004 -0.2756742537021637 4.29656982421875 0.2698967754840851 -0.2855980694293976 4.244806289672852
0.354792058467865 -0.2087886929512024 4.210710048675537 0.17286920547485352 0.3228376507759094 4.6137614250183105 0.12552355229854584 0.3690319061279297
4.495326042175293 -0.1072627454996109 0.2844090461730957 5.266426086425781 -0.2815576493740082 0.27936962246894836 5.076807022094727 -0.137962207198143
00000000: 0000 00e0 1aa4 d0bf 0000 0040 4417 d3bf
00000010: 0000 00a0 1f60 1240 0000 0000 f0da d6bf
00000020: 0000 00c0 229a d2bf 0000 0000 f16b 1240
00000030: 0000 0040 884f d4bf 0000 0040 a945 cbbf
00000040: 0000 00e0 2421 1240 0000 0020 fd9f cabf
00000050: 0000 00e0 2925 d73f 0000 0000 69ed 1340
00000060: 0000 0040 2555 c4bf 0000 0040 d0ae d33f
00000070: 0000 0000 234f 1440 0000 00e0 dfee d13f
00000080: 0000 00e0 356c d43f 0000 0060 355f 1640
00000090: 0000 0000 bbc1 ce3f 0000 0080 cb21 ce3f
000000a0: 0000 0040 4692 1740 0000 0060 3a57 cf3f
000000b0: 0000 00a0 ae3a c6bf 0000 0000 e65f 1640
000000c0: 0000 00c0 1bfe c0bf 0000 0060 29b1 b73f
000000d0: 0000 0080 b7e2 1340 0000 00e0 20ec cdbf
000000e0: 0000 0000 3b08 a93f 0000 0020 385c 1440
000000f0: 0000 0080 fabd d13f 0000 0000 a32c b63f
00000100: 0000 00c0 9008 1640 0000 0000 09ba c33f
00000110: 0000 0080 b7f5 a23f 0000 00e0 48de 1640
00000120: 0000 0040 7101 b7bf 0000 0080 31b0 babf
00000130: 0000 0080 c361 1340 0000 00a0 4274 d0bf
00000140: 0000 00a0 1a30 c4bf 0000 0060 34de 1340
00000150: 0000 0040 4a93 c4bf 0000 00a0 f5f4 d23f
00000160: 0000 00c0 6138 1440 0000 0080 2d8b cabf
00000170: 0000 0040 db44 d13f 0000 00c0 5f97 1440
00000180: 0000 0060 b2bc d13f 0000 00c0 e886 cc3f
00000190: 0000 0080 0eb6 1640 0000 0020 fc9e d13f
000001a0: 0000 00e0 8ab7 c23f 0000 0040 0560 1740
000001b0: 0000 0000 65ec d1bf 0000 00c0 4980 cbbf
000001c0: 0000 0020 3fed 1240 0000 00e0 1831 dc3f
000001d0: 0000 0080 42c9 bcbf 0000 0080 363d 1740
000001e0: 0000 0040 20af ccbf 0000 0040 38ae d4bf
000001f0: 0000 0000 b4c5 1240 0000 0000 058a d7bf
00000200: 0000 0040 9949 d4bf 0000 0080 bee5 1240
00000210: 0000 0040 e198 d2bf 0000 00c0 d48d c9bf
00000220: 0000 0000 9555 1240 0000 00e0 9c29 d6bf
00000230: 0000 00a0 41a0 c9bf 0000 00a0 3162 1240
00000240: 0000 0060 4a44 d4bf 0000 0000 7df0 d0bf
00000250: 0000 0080 e708 1240 0000 0000 5548 d43f
00000260: 0000 0020 886f bcbf 0000 00c0 ddd9 1640
00000270: 0000 00c0 bb22 d03f 0000 0000 f72c c7bf
00000280: 0000 0000 55cd 1140 0000 0040 6605 c43f
00000290: 0000 0000 4f1c c7bf 0000 0040 6687 1140
000002a0: 0000 0000 91e7 d13f 0000 0080 bb31 a8bf
000002b0: 0000 0000 e650 1140 0000 0080 3d4d d83f
000002c0: 0000 0000 2303 d23f 0000 0080 493b 1340
000002d0: 0000 0020 c4f0 d13f 0000 0000 53de d03f
000002e0: 0000 0080 2249 1340 0000 00c0 9855 b5bf
000002f0: 0000 0040 5ec5 b23f 0000 00a0 a1a0 1540
00000300: 0000 0040 8fdc ccbf 0000 0080 53ab bf3f
00000310: 0000 00e0 8917 1540 0000 0020 70a7 cdbf
00000320: 0000 0080 bd5f aebf 0000 0040 b019 1540
00000330: 0000 0060 67b2 c83f 0000 0000 2cb1 b73f
00000340: 0000 00c0 ce81 1340 0000 00c0 8ef8 72bf
00000350: 0000 00c0 128c cb3f 0000 0020 350a 1340
00000360: 0000 0080 9c9b a8bf 0000 0000 00f4 34bf
00000370: 0000 0020 1868 1540 0000 00e0 56df d1bf
00000380: 0000 00c0 66d2 bb3f 0000 00a0 0ccf 1440
00000390: 0000 00e0 63e4 c03f 0000 0000 1b77 a9bf
000003a0: 0000 0080 edfb 1240 0000 00c0 2799 b1bf
000003b0: 0000 00a0 c586 a33f 0000 00e0 998f 1240
000003c0: 0000 0080 786d d43f 0000 0040 54e5 ca3f
000003d0: 0000 0060 2681 1340 0000 00c0 dcd4 c73f
000003e0: 0000 0020 6886 d23f 0000 00c0 d45c 1340
000003f0: 0000 00c0 c916 c6bf 0000 0040 11ee a23f
00000400: 0000 00e0 17e0 1540 0000 0040 c129 d3bf
00000410: 0000 0020 2c5a b13f 0000 0020 6d79 1540
00000420: 0000 0080 251a c13f 0000 0000 204c b5bf
00000430: 0000 0060 2efd 1140 0000 0000 272b cbbf
00000440: 0000 00a0 46cb a83f 0000 00c0 700b 1640
00000450: 0000 0060 5873 c83f 0000 0060 2b0c cebf
00000460: 0000 0000 e637 1240 0000 00c0 a79d b33f
00000470: 0000 0000 0c4e cdbf 0000 0020 32e5 1140
00000480: 0000 0080 82bd cd3f 0000 00c0 9394 a6bf
00000490: 0000 00c0 c3a5 1140 0000 0040 9392 c93f
000004a0: 0000 0060 224c a6bf 0000 00a0 c38c 1140
000004b0: 0000 00e0 cb21 d23f 0000 0040 579b babf
000004c0: 0000 00a0 3535 1140 0000 00a0 3e11 cfbf
000004d0: 0000 0000 3743 9a3f 0000 0060 3f98 1540
000004e0: 0000 0040 c2c9 a43f 0000 0040 4745 c3bf
000004f0: 0000 00c0 a1da 0240 0000 0080 01fd a4bf
00000500: 0000 0060 2dd7 c1bf 0000 0020 0d8f 0240
00000510: 0000 0000 c200 a23f 0000 0000 018e afbf
00000520: 0000 0060 a22f 0240 0000 00c0 471f a23f
00000530: 0000 00e0 a478 d03f 0000 00a0 cdf8 0540
00000540: 0000 0040 e0f6 c1bf 0000 0000 a149 d13f
00000550: 0000 0020 4be6 0540 0000 0000 51da 933f
00000560: 0000 0080 8e2d bc3f 0000 0040 3e35 0a40
00000570: 0000 0080 8080 b8bf 0000 0040 5d95 bc3f
00000580: 0000 00c0 21ea 0940 0000 0000 e062 a7bf
00000590: 0000 0080 3541 c5bf 0000 00e0 24eb 0940
000005a0: 0000 0000 cca9 923f 0000 0000 921e ba3f
000005b0: 0000 0060 e0cf 0540 0000 00c0 e4c8 c3bf
000005c0: 0000 0060 cdef ba3f 0000 0060 25c0 0540
000005d0: 0000 0000 b0fa a23f 0000 0000 060a a1bf
000005e0: 0000 00e0 f6e5 0940 0000 0000 f6e5 bebf
000005f0: 0000 0000 fac8 9abf 0000 0080 cbd7 0940
00000600: 0000 0080 ea43 903f 0000 0080 684a a5bf
00000610: 0000 0060 0110 0540 0000 00a0 a3d7 c3bf
00000620: 0000 00a0 9958 a6bf 0000 00c0 6af8 0440
00000630: 0000 00c0 571a a33f 0000 0060 21e6 cd3f
00000640: 0000 00a0 6a49 0640 0000 0000 3851 c3bf
00000650: 0000 0000 ff59 cf3f 0000 00e0 bb32 0640
00000660: 0000 0000 88ba 7c3f 0000 0080 f22c a33f
00000670: 0000 0080 d275 0a40 0000 0080 d6fd b5bf
00000680: 0000 0040 df49 a73f 0000 0000 4c5a 0a40
00000690: 0000 00c0 e9b9 a4bf 0000 00c0 f7ff afbf
000006a0: 0000 0040 c09a 0340 0000 00a0 ee7f 933f
000006b0: 0000 0020 c5ea c7bf 0000 0040 a680 0b40
000006c0: 0000 0000 d371 973f 0000 0040 ec19 c6bf
000006d0: 0000 0000 20a2 0340 0000 00c0 e9eb babf
000006e0: 0000 0040 80b6 c3bf 0000 0020 ef36 0340
000006f0: 0000 0040 b596 a33f 0000 00e0 a6a1 a4bf
00000700: 0000 0080 bcb3 0240 0000 00c0 85f8 90bf
00000710: 0000 00c0 9937 a2bf 0000 00e0 a486 0240
00000720: 0000 0040 a8f0 a63f 0000 0080 11c7 c0bf
00000730: 0000 0060 0bf0 0140 0000 0040 d182 9bbf
00000740: 0000 0060 ae4b c4bf 0000 00a0 9ee3 0a40
00000750: 0000 0000 7a69 d53f 0000 00a0 a5a4 d1bf
00000760: 0000 0000 b02f 1140 0000 0020 fd45 d13f
00000770: 0000 0020 3d47 d2bf 0000 0080 aefa 1040
00000780: 0000 00c0 e9b4 d63f 0000 0080 96b9 cabf
00000790: 0000 0060 c4d7 1040 0000 0000 9420 c63f
000007a0: 0000 0040 5fa9 d43f 0000 00e0 7d74 1240
000007b0: 0000 00e0 2711 c03f 0000 0000 389e d73f
000007c0: 0000 00c0 36fb 1140 0000 0040 9275 bbbf
000007d0: 0000 0000 c233 d23f 0000 0000 d210 1540
000007e0: 0000 0060 0a05 d2bf 0000 0020 31e1 d13f
000007f0: 0000 0080 a64e 1440 0000 00e0 bea8 c1bf
