demo_out/run4/epoch100/params.npz (npz, 10615 bytes, 4 tensors)

pose f8 [5, 105]
0.8846848011016846 1.6771173477172852 -1.248010277748108 0.004875189624726772 -0.059385064989328384 0.04865682125091553 0.09982316941022873 -0.043585699051618576
-0.2223697453737259 -0.21939483284950256 -0.11381085962057114 0.003378774505108595 -0.16706788539886475 0.2211708277463913 0.01102503016591072 -0.12565606832504272
0.1396346092224121 -0.06398967653512955 0.09317238628864288 0.19368726015090942 0.048544567078351974 -0.5367864966392517 -0.08352071046829224 0.2200876623392105
0.6919330954551697 0.08584942668676376 0.5337973833084106 -0.24123765528202057 -0.442780077457428 -0.0397803969681263 0.3472604751586914 -0.09400226175785065
-0.09686581790447235 0.32827043533325195 0.1422273814678192 -0.02328905276954174 -0.3394538462162018 0.22707553207874298 0.10158705711364746 -0.09996639937162399
-0.658009946346283 0.7654487490653992 -0.3848612904548645 -0.5568377375602722 0.4581056833267212 0.23700672388076782 -0.2817838490009308 -0.12330827116966248
0.5034308433532715 -0.46320417523384094 0.1142829954624176 -0.062287647277116776 0.18506821990013123 -0.2421228587627411 0.12181361019611359 0.2739159166812897
0.1938953697681427 0.10138791799545288 -0.04566288739442825 -0.10519614815711975 -0.3163462281227112 -0.19174903631210327 -0.36575132608413696 0.2262938916683197
0.6894225478172302 0.21602453291416168 -0.14179356396198273 -0.12886282801628113 -0.48112753033638 -0.13055837154388428 0.4334467351436615 -0.32938504219055176
-0.6502044200897217 -0.7939140796661377 -0.32844626903533936 -0.21836711466312408 0.06768841296434402 -0.12227244675159454 -0.09775103628635406 0.31091588735580444
-0.1607547104358673 0.1031540259718895 -0.18929249048233032 0.024486474692821503 0.09057650715112686 -0.3739233911037445 0.20768815279006958 0.18072062730789185
0.018010646104812622 0.08172139525413513 -0.20040670037269592 0.30908679962158203 -0.1733679622411728 -0.36063826084136963 0.7259271740913391 -0.06952661275863647
-1.8350467681884766 -0.07603563368320465 0.21043172478675842 -0.2662995755672455 -0.28285762667655945 -0.7534705400466919 0.052591580897569656 0.4525102376937866
0.993964672088623 1.4307035207748413 1.423649787902832 -1.2630761861801147 0.0798511654138565 -0.18848519027233124 0.2561247646808624 0.007232584059238434
0.12999875843524933 -0.23607437312602997 -0.15474998950958252 -0.1383817493915558 0.023424595594406128 -0.10325664281845093 0.17550785839557648 -0.036235835403203964
-0.14086546003818512 0.06706215441226959 -0.12099043279886246 0.18145230412483215 0.3748040497303009 -0.12268407642841339 -0.4016392230987549 0.07604271918535233
0.45572206377983093 0.6230139136314392 -0.26506853103637695 0.477313756942749 -0.14745183289051056 0.019931653514504433 -0.15434539318084717 0.38507646322250366
0.5534833669662476 0.019718695431947708 0.41078200936317444 0.4060102105140686 -0.012650879099965096 -0.504241406917572 0.00849660113453865 0.03705138340592384
0.09343687444925308 -0.48060184717178345 0.6886786818504333 -0.0025706375017762184 -0.3929217457771301 0.24815161526203156 0.6119590997695923 0.10356907546520233
-0.917394757270813 0.8089801669120789 -0.5526688098907471 -0.9700015783309937 -0.09067921340465546 0.24969473481178284 0.05215846002101898 0.0638112723827362
0.5594081282615662 0.22417610883712769 0.08911507576704025 -0.17795628309249878 -0.18025732040405273 0.004708828404545784 0.4411736726760864 -0.4016168713569641
0.06493335962295532 0.5472238063812256 0.1888040453195572 -0.16495366394519806 0.5548111796379089 -0.3625057339668274 -0.056638553738594055 0.030333304777741432
-0.4490470290184021 -0.3480915129184723 -0.17226901650428772 -0.35335028171539307 -0.2399759441614151 -0.21952395141124725 -0.13945196568965912 -0.052173297852277756
0.4323515295982361 -0.07984188944101334 0.11773725599050522 -0.03784366697072983 -0.07791247218847275 0.27890217304229736 -0.2286767065525055 0.1397169977426529
0.18572130799293518 0.18124687671661377 0.29624268412590027 -0.5139447450637817 0.21164971590042114 0.025987185537815094 -0.5412856936454773 -0.18976877629756927
0.017508957535028458 -1.5636484622955322 -1.0818408727645874 0.2941238284111023 -0.16662108898162842 -0.0006344597786664963 -0.24634209275245667 -0.39621177315711975
0.21343450248241425 1.802040934562683 1.4391504526138306 1.2972606420516968 -1.1477209329605103 -0.09889436513185501 -0.03668865188956261 -0.2620382308959961
-0.1444670855998993 -0.054813235998153687 0.057457730174064636 0.08804517984390259 -0.10558575391769409 0.021930092945694923 0.02373965084552765 0.1557314693927765
-0.00903799757361412 0.02646450698375702 0.1016831025481224 0.04818122833967209 -7.347948849201202e-05 0.15638478100299835 0.10575729608535767 -0.36692872643470764
0.25665199756622314 0.24237796664237976 0.5704652667045593 -0.049639564007520676 0.22034552693367004 -0.08402708172798157 -0.4297730624675751 -0.29986101388931274
0.26405298709869385 0.2959390878677368 0.07586155831813812 0.32433196902275085 0.02646670863032341 -0.3594539761543274 -0.41674262285232544 0.06438636779785156
-0.19247651100158691 0.21351778507232666 -0.2152387499809265 0.5329076647758484 -0.49438101053237915 0.3382195830345154 0.15215714275836945 -0.09481507539749146
00000000: 0000 0080 564f ec3f 0000 0000 79d5 fa3f
00000010: 0000 00a0 d9f7 f3bf 0000 00c0 01f8 733f
00000020: 0000 0020 b867 aebf 0000 0000 8ce9 a83f
00000030: 0000 00e0 028e b93f 0000 0060 dd50 a6bf
00000040: 0000 00a0 9c76 ccbf 0000 0040 2115 ccbf
00000050: 0000 0060 b522 bdbf 0000 00c0 cdad 6b3f
00000060: 0000 0000 7b62 c5bf 0000 0060 534f cc3f
00000070: 0000 0080 4a94 863f 0000 0080 7f15 c0bf
00000080: 0000 0000 8cdf c13f 0000 00a0 a061 b0bf
00000090: 0000 0040 25da b73f 0000 0080 beca c83f
000000a0: 0000 0060 d5da a83f 0000 00e0 5a2d e1bf
000000b0: 0000 0000 9d61 b5bf 0000 0020 d52b cc3f
000000c0: 0000 00e0 5024 e63f 0000 0060 3afa b53f
000000d0: 0000 0040 de14 e13f 0000 0020 e0e0 cebf
000000e0: 0000 0040 8256 dcbf 0000 00a0 185e a4bf
000000f0: 0000 0000 8439 d63f 0000 0040 8810 b8bf
00000100: 0000 00c0 32cc b8bf 0000 0000 6202 d53f
00000110: 0000 00c0 8134 c23f 0000 00e0 15d9 97bf
00000120: 0000 00a0 9cb9 d5bf 0000 00a0 cf10 cd3f
00000130: 0000 0000 9c01 ba3f 0000 00e0 6597 b9bf
00000140: 0000 00e0 6a0e e5bf 0000 0060 8e7e e83f
00000150: 0000 0040 91a1 d8bf 0000 0060 9dd1 e1bf
00000160: 0000 0080 9a51 dd3f 0000 0080 3c56 ce3f
00000170: 0000 0020 bf08 d2bf 0000 0080 2191 bfbf
00000180: 0000 0000 1b1c e03f 0000 0020 23a5 ddbf
00000190: 0000 0080 a641 bd3f 0000 00a0 2ae4 afbf
000001a0: 0000 00c0 50b0 c73f 0000 00c0 e1fd cebf
000001b0: 0000 0040 2d2f bf3f 0000 00a0 d687 d13f
000001c0: 0000 0040 90d1 c83f 0000 0000 8ff4 b93f
000001d0: 0000 0040 2061 a7bf 0000 0080 22ee babf
000001e0: 0000 0040 043f d4bf 0000 0080 3b8b c8bf
000001f0: 0000 0040 7868 d7bf 0000 00c0 32f7 cc3f
00000200: 0000 00e0 bf0f e63f 0000 0020 b1a6 cb3f
00000210: 0000 00a0 4a26 c2bf 0000 00c0 937e c0bf
00000220: 0000 0020 cbca debf 0000 0000 23b6 c0bf
00000230: 0000 0060 97bd db3f 0000 0000 a514 d5bf
00000240: 0000 0080 79ce e4bf 0000 0080 be67 e9bf
00000250: 0000 0080 4305 d5bf 0000 0020 74f3 cbbf
00000260: 0000 0020 0754 b13f 0000 0040 3f4d bfbf
00000270: 0000 0040 3606 b9bf 0000 00c0 0be6 d33f
00000280: 0000 0040 9c93 c4bf 0000 0060 4d68 ba3f
00000290: 0000 0080 bc3a c8bf 0000 0080 fb12 993f
000002a0: 0000 00a0 0530 b73f 0000 0060 5cee d7bf
000002b0: 0000 0080 8695 ca3f 0000 0080 da21 c73f
000002c0: 0000 0000 6271 923f 0000 0080 b1eb b43f
000002d0: 0000 0040 eda6 c9bf 0000 0000 14c8 d33f
000002e0: 0000 00e0 eb30 c6bf 0000 0080 b214 d7bf
000002f0: 0000 00a0 cb3a e73f 0000 0000 7fcc b1bf
00000300: 0000 0000 5a5c fdbf 0000 0040 1277 b3bf
00000310: 0000 0040 6def ca3f 0000 0060 0d0b d1bf
00000320: 0000 00e0 561a d2bf 0000 0040 6e1c e8bf
00000330: 0000 00a0 48ed aa3f 0000 0080 edf5 dc3f
00000340: 0000 0000 8fce ef3f 0000 0060 29e4 f63f
00000350: 0000 0000 45c7 f63f 0000 0060 8f35 f4bf
00000360: 0000 0040 2071 b43f 0000 0060 4820 c8bf
00000370: 0000 0020 5964 d03f 0000 0000 ea9f 7d3f
00000380: 0000 00a0 cca3 c03f 0000 0060 af37 cebf
00000390: 0000 0000 d9ce c3bf 0000 0040 7eb6 c1bf
000003a0: 0000 0000 9efc 973f 0000 0000 076f babf
000003b0: 0000 00a0 0a77 c63f 0000 00e0 808d a2bf
000003c0: 0000 0020 e107 c2bf 0000 0040 fc2a b13f
000003d0: 0000 00a0 3af9 bebf 0000 0040 d439 c73f
000003e0: 0000 0020 cafc d73f 0000 0040 3968 bfbf
000003f0: 0000 0000 75b4 d9bf 0000 0020 8977 b33f
00000400: 0000 00e0 8c2a dd3f 0000 00e0 baef e33f
00000410: 0000 0000 e2f6 d0bf 0000 0000 4f8c de3f
00000420: 0000 00a0 b3df c2bf 0000 00a0 f668 943f
00000430: 0000 0000 97c1 c3bf 0000 00c0 17a5 d83f
00000440: 0000 00c0 22b6 e13f 0000 0040 2331 943f
00000450: 0000 00a0 404a da3f 0000 0040 12fc d93f
00000460: 0000 0040 b4e8 89bf 0000 00e0 be22 e0bf
00000470: 0000 0080 aa66 813f 0000 0020 66f8 a23f
00000480: 0000 00a0 7aeb b73f 0000 0040 2ec2 debf
00000490: 0000 00e0 a709 e63f 0000 0080 040f 65bf
000004a0: 0000 0040 a125 d9bf 0000 00a0 6ec3 cf3f
000004b0: 0000 0040 2b95 e33f 0000 00c0 8083 ba3f
000004c0: 0000 0040 4c5b edbf 0000 0060 2ae3 e93f
000004d0: 0000 0080 76af e1bf 0000 00c0 400a efbf
000004e0: 0000 00c0 c036 b7bf 0000 0040 fff5 cf3f
000004f0: 0000 0080 83b4 aa3f 0000 0080 ef55 b03f
00000500: 0000 00e0 abe6 e13f 0000 0080 cdb1 cc3f
00000510: 0000 00e0 3ed0 b63f 0000 0080 45c7 c6bf
00000520: 0000 0000 ac12 c7bf 0000 0080 9049 733f
00000530: 0000 0080 303c dc3f 0000 0040 17b4 d9bf
00000540: 0000 0000 799f b03f 0000 0080 db82 e13f
00000550: 0000 0020 bb2a c83f 0000 00a0 331d c5bf
00000560: 0000 0060 03c1 e13f 0000 0040 4b33 d7bf
00000570: 0000 0080 baff acbf 0000 00a0 b10f 9f3f
00000580: 0000 00c0 2fbd dcbf 0000 00a0 2147 d6bf
00000590: 0000 0040 e90c c6bf 0000 0080 4a9d d6bf
000005a0: 0000 0020 88b7 cebf 0000 0060 5c19 ccbf
000005b0: 0000 00e0 8fd9 c1bf 0000 0060 75b6 aabf
000005c0: 0000 00c0 a5ab db3f 0000 00a0 8470 b4bf
000005d0: 0000 0060 0724 be3f 0000 00c0 3e60 a3bf
000005e0: 0000 0060 12f2 b3bf 0000 0080 88d9 d13f
000005f0: 0000 0040 4745 cdbf 0000 0020 3fe2 c13f
00000600: 0000 0040 b7c5 c73f 0000 0000 1933 c73f
00000610: 0000 00e0 a3f5 d23f 0000 0040 3c72 e0bf
00000620: 0000 0080 5617 cb3f 0000 0080 629c 9a3f
00000630: 0000 0060 3652 e1bf 0000 00e0 574a c8bf
00000640: 0000 0040 deed 913f 0000 0040 b404 f9bf
00000650: 0000 0060 384f f1bf 0000 00c0 ecd2 d23f
00000660: 0000 0000 d753 c5bf 0000 0000 3cca 44bf
00000670: 0000 0040 2388 cfbf 0000 00a0 885b d9bf
00000680: 0000 0060 d251 cb3f 0000 00e0 28d5 fc3f
00000690: 0000 00a0 c206 f73f 0000 0060 94c1 f43f
000006a0: 0000 00a0 105d f2bf 0000 0020 2451 b9bf
000006b0: 0000 00e0 dac8 a2bf 0000 0000 3cc5 d0bf
000006c0: 0000 00c0 e57d c2bf 0000 0000 7b10 acbf
000006d0: 0000 0080 196b ad3f 0000 0000 218a b63f
000006e0: 0000 0000 ab07 bbbf 0000 00a0 d774 963f
000006f0: 0000 0000 354f 983f 0000 0040 02ef c33f
00000700: 0000 0080 8382 82bf 0000 0000 8319 9b3f
00000710: 0000 0060 e707 ba3f 0000 00c0 35ab a83f
00000720: 0000 0000 2043 13bf 0000 00a0 6a04 c43f
00000730: 0000 0000 e912 bb3f 0000 00a0 c27b d7bf
00000740: 0000 0080 fc6c d03f 0000 00c0 3d06 cf3f
00000750: 0000 0060 4041 e23f 0000 0060 5b6a a9bf
00000760: 0000 0040 4834 cc3f 0000 0080 cc82 b5bf
00000770: 0000 00e0 6681 dbbf 0000 0040 ec30 d3bf
00000780: 0000 0080 3ee6 d03f 0000 0080 aaf0 d23f
00000790: 0000 00c0 a96b b33f 0000 00e0 dac1 d43f
000007a0: 0000 00c0 161a 9b3f 0000 0040 4b01 d7bf
000007b0: 0000 0040 e9ab dabf 0000 0000 a07b b03f
000007c0: 0000 0000 12a3 c8bf 0000 0000 8d54 cb3f
000007d0: 0000 0080 f18c cbbf 0000 0060 940d e13f
000007e0: 0000 0040 f0a3 dfbf 0000 00c0 63a5 d53f
000007f0: 0000 00a0 e279 c33f 0000 0000 cd45 b8bf

betas f8 [5, 26]
0.6469566226005554 0.7266784906387329 -0.681110680103302 -2.1370084285736084 -0.8004958033561707 1.9119269847869873 -0.8535093069076538 1.0230262279510498
1.05471932888031 1.1586456298828125 2.322996139526367 -1.973501443862915 3.9555435180664062 -2.2210326194763184 -4.139768600463867 3.3504061698913574
-2.622767448425293 -5.1029157638549805 -2.986008405685425 2.0762991905212402 -0.1172519326210022 -0.31480178236961365 -1.266410231590271 -1.2130106687545776
-0.49829453229904175 -2.693189859390259 0.803298830986023 1.7246947288513184 -1.6171250343322754 -1.7777966260910034 0.3535286784172058 -1.8329076766967773
3.633396625518799 1.874335527420044 -0.8394479155540466 -1.5887699127197266 0.7751182913780212 -1.2039973735809326 6.643877029418945 0.36666229367256165
1.6385858058929443 -0.5504791736602783 -1.026742696762085 -0.11208692193031311 -4.186225414276123 -4.238922595977783 -0.884459912776947 -0.11371666938066483
-0.9883705377578735 -2.933119297027588 0.02535242587327957 -2.617485523223877 -0.04281626641750336 2.2372848987579346 -0.0830790102481842 -2.6803033351898193
0.30196282267570496 -3.040163278579712 1.2440086603164673 1.7374037504196167 1.6836063861846924 -2.194692611694336 0.055008187890052795 -0.7626349925994873
1.0059489011764526 -1.0079067945480347 1.4733991622924805 0.23443351686000824 -2.422011137008667 -5.405920028686523 -2.3340070247650146 0.7632138133049011
-0.7805594205856323 -0.5656383633613586 -0.706687867641449 -3.9935622215270996 -0.3088016211986542 -1.0103280544281006 0.7506318092346191 1.3596566915512085
-1.6344658136367798 -0.9020287394523621 -0.05985693633556366 -2.74874210357666 2.982056140899658 3.064448118209839 -1.531191349029541 -0.7362783551216125
-0.743630588054657 -4.16910982131958 3.820918560028076 -0.22492843866348267 2.848475933074951 -0.3019878566265106 -2.921978712081909 -3.8285090923309326
-2.0212526321411133 -1.3543645143508911 -0.5136792659759521 -0.37843480706214905 -1.4189947843551636 -3.0230116844177246 0.2704457640647888 -2.5715420246124268
0.4753871262073517 0.7637274861335754 -1.3520050048828125 -1.0294665098190308 -0.009471326135098934 -0.13967235386371613 2.501183271408081 -0.2264365404844284
0.9349794983863831 -1.5196720361709595 1.376068115234375 2.832188606262207 1.760884165763855 -0.7352128624916077 0.21861349046230316 0.49135279655456543
-2.367340326309204 -4.1612138748168945 -3.761782646179199 -0.5186631083488464 -0.819830596446991 -0.23591402173042297 -0.7664176821708679 -3.8864638805389404
-0.6100213527679443 -2.371028184890747
00000000: 0000 0060 deb3 e43f 0000 0040 f340 e73f
00000010: 0000 00a0 a8cb e5bf 0000 00e0 9718 01c0
00000020: 0000 0060 a99d e9bf 0000 00c0 4097 fe3f
00000030: 0000 00c0 f24f ebbf 0000 00c0 505e f03f
00000040: 0000 0060 21e0 f03f 0000 0000 d089 f23f
00000050: 0000 0000 7f95 0240 0000 0040 7693 ffbf
00000060: 0000 0000 f4a4 0f40 0000 00c0 acc4 01c0
00000070: 0000 0080 1f8f 10c0 0000 00c0 a1cd 0a40
00000080: 0000 0080 6dfb 04c0 0000 00c0 6269 14c0
00000090: 0000 0060 58e3 07c0 0000 00c0 429c 0040
000000a0: 0000 0000 3904 bebf 0000 0060 b625 d4bf
000000b0: 0000 0060 3743 f4bf 0000 00e0 7d68 f3bf
000000c0: 0000 00c0 0ee4 dfbf 0000 0020 a78b 05c0
000000d0: 0000 00c0 9fb4 e93f 0000 0080 5998 fb3f
000000e0: 0000 0080 bedf f9bf 0000 00e0 da71 fcbf
000000f0: 0000 00c0 36a0 d63f 0000 0000 9753 fdbf
00000100: 0000 0040 3211 0d40 0000 0040 47fd fd3f
00000110: 0000 00e0 c1dc eabf 0000 0000 9a6b f9bf
00000120: 0000 00e0 c4cd e83f 0000 00c0 9243 f3bf
00000130: 0000 0080 5493 1a40 0000 0020 6577 d73f
00000140: 0000 00c0 a537 fa3f 0000 0080 869d e1bf
00000150: 0000 00c0 896d f0bf 0000 0080 bab1 bcbf
00000160: 0000 00e0 b1be 10c0 0000 0020 a8f4 10c0
00000170: 0000 00e0 7e4d ecbf 0000 0020 891c bdbf
00000180: 0000 0040 bba0 efbf 0000 0040 0777 07c0
00000190: 0000 0080 fcf5 993f 0000 0040 9cf0 04c0
000001a0: 0000 0080 03ec a5bf 0000 00a0 f5e5 0140
000001b0: 0000 0080 aa44 b5bf 0000 00e0 4271 05c0
000001c0: 0000 00e0 5b53 d33f 0000 0020 4152 08c0
000001d0: 0000 00a0 75e7 f33f 0000 00e0 67cc fb3f
000001e0: 0000 0040 0df0 fa3f 0000 0000 bb8e 01c0
000001f0: 0000 0080 082a ac3f 0000 0080 8167 e8bf
00000200: 0000 00e0 5d18 f03f 0000 00e0 6220 f0bf
00000210: 0000 0000 0b93 f73f 0000 00e0 ea01 ce3f
00000220: 0000 0060 4760 03c0 0000 0080 a99f 15c0
00000230: 0000 00e0 0bac 02c0 0000 0060 3f6c e83f
00000240: 0000 00c0 57fa e8bf 0000 00a0 b519 e2bf
00000250: 0000 00e0 2f9d e6bf 0000 00c0 d0f2 0fc0
00000260: 0000 00e0 67c3 d3bf 0000 00c0 4d2a f0bf
00000270: 0000 0000 2d05 e83f 0000 0060 27c1 f53f
00000280: 0000 00a0 c526 fabf 0000 0060 6bdd ecbf
00000290: 0000 0080 91a5 aebf 0000 0080 6cfd 05c0
000002a0: 0000 0040 40db 0740 0000 0060 fd83 0840
000002b0: 0000 0080 c27f f8bf 0000 00a0 978f e7bf
000002c0: 0000 0060 d2cb e7bf 0000 0020 2bad 10c0
000002d0: 0000 00c0 3d91 0e40 0000 0080 74ca ccbf
000002e0: 0000 00c0 adc9 0640 0000 00e0 c453 d3bf
000002f0: 0000 0060 3660 07c0 0000 0060 c9a0 0ec0
00000300: 0000 0080 862b 00c0 0000 0020 7aab f5bf
00000310: 0000 0080 0f70 e0bf 0000 00a0 4638 d8bf
00000320: 0000 00e0 33b4 f6bf 0000 00c0 202f 08c0
00000330: 0000 00c0 fb4e d13f 0000 00a0 8492 04c0
00000340: 0000 0020 be6c de3f 0000 00a0 7470 e83f
00000350: 0000 0000 d0a1 f5bf 0000 00e0 b178 f0bf
00000360: 0000 00e0 b365 83bf 0000 00a0 c8e0 c1bf
00000370: 0000 0060 6c02 0440 0000 0060 dffb ccbf
00000380: 0000 0020 5aeb ed3f 0000 00a0 9350 f8bf
00000390: 0000 0000 6004 f63f 0000 0080 52a8 0640
000003a0: 0000 00e0 942c fc3f 0000 0020 dd86 e7bf
000003b0: 0000 00e0 86fb cb3f 0000 0000 5372 df3f
000003c0: 0000 0020 50f0 02c0 0000 0040 15a5 10c0
000003d0: 0000 0080 2118 0ec0 0000 0060 e398 e0bf
000003e0: 0000 0060 0d3c eabf 0000 0040 6e32 cebf
000003f0: 0000 0060 7e86 e8bf 0000 0060 7a17 0fc0
00000400: 0000 0080 4b85 e3bf 0000 00a0 ddf7 02c0

camera f8 [5, 3]
-2.96625018119812 112.0 112.0 -3.3351476192474365 112.0 112.0 -3.1692817211151123 112.0
112.0 -3.2154157161712646 112.0 112.0 -3.2134032249450684 112.0 112.0
00000000: 0000 0060 e1ba 07c0 0000 0000 0000 5c40
00000010: 0000 0000 0000 5c40 0000 00e0 61ae 0ac0
00000020: 0000 0000 0000 5c40 0000 0000 0000 5c40
00000030: 0000 0060 b05a 09c0 0000 0000 0000 5c40
00000040: 0000 0000 0000 5c40 0000 00e0 2bb9 09c0
00000050: 0000 0000 0000 5c40 0000 0000 0000 5c40
00000060: 0000 00c0 0cb5 09c0 0000 0000 0000 5c40
00000070: 0000 0000 0000 5c40

joints3d f8 [5, 26, 3]
-0.3308376371860504 -0.3026368021965027 3.7222652435302734 -0.39734411239624023 -0.2904524505138397 3.7640509605407715 -0.39998143911361694 -0.22965097427368164
3.6845390796661377 -0.2095063179731369 0.37810999155044556 4.267195701599121 -0.15857870876789093 0.3162935972213745 4.342715263366699 0.2874565124511719
0.37091654539108276 4.887234687805176 0.263822078704834 0.23196840286254883 5.078132152557373 0.2589479088783264 -0.16143447160720825 4.698464393615723
-0.13550476729869843 0.0937243402004242 4.1876220703125 -0.2041279375553131 0.023638224229216576 4.282905578613281 0.30243927240371704 0.06743262708187103
4.67704439163208 0.1780022382736206 0.00396333634853363 4.825283050537109 -0.041867196559906006 -0.06230831518769264 3.9935102462768555 -0.2085525095462799
-0.17532598972320557 4.122269630432129 -0.17397502064704895 0.27248233556747437 4.3114013671875 -0.18878361582756042 0.22318421304225922 4.401323318481445
0.304968923330307 0.22453488409519196 4.872654914855957 0.276028037071228 0.15468713641166687 4.973128318786621 -0.2753649950027466 -0.20046889781951904
3.8399994373321533 0.42281362414360046 -0.17979364097118378 4.941506385803223 -0.2439303994178772 -0.33248990774154663 3.809215545654297 -0.34676143527030945
-0.31700748205184937 3.8778560161590576 -0.3487921357154846 -0.189562126994133 3.72663950920105 -0.3787144422531128 -0.1882612407207489 3.748532772064209
-0.39221498370170593 -0.2648700773715973 3.6915740966796875 0.34517577290534973 -0.14990729093551636 4.824799537658691 -0.2977913022041321 -0.018393754959106445
5.019891738891602 -0.2122163325548172 0.019541971385478973 5.065299987792969 -0.27567392587661743 0.09459254145622253 5.084118843078613 0.3576650023460388
0.33391016721725464 5.215053558349609 0.15006238222122192 0.20060977339744568 5.284702301025391 0.188882514834404 -0.11682596057653427 5.843587398529053
0.08206426352262497 -0.24533404409885406 5.869978904724121 0.15598691999912262 -0.2373090237379074 5.584576606750488 0.24452851712703705 0.08961670100688934
5.160272598266602 -0.013823539018630981 0.04331222176551819 5.26645565032959 0.2637009024620056 -0.20325633883476257 5.6301960945129395 0.059670865535736084
-0.20045438408851624 5.656744956970215 0.18749621510505676 -0.017475347965955734 4.940282821655273 -0.004911012947559357 -0.047011468559503555 5.0882697105407715
0.3054965138435364 0.23916062712669373 5.224150657653809 0.0784858763217926 0.1678178906440735 5.360651969909668 0.16844847798347473 -0.2366473376750946
5.798967361450195 0.14608466625213623 -0.2917960286140442 5.797543525695801 -0.2049834132194519 0.02779754251241684 4.902349948883057 0.22195883095264435
-0.29440727829933167 5.889163494110107 -0.25923076272010803 -0.12656575441360474 4.936920642852783 -0.10262782871723175 -0.06440021097660065 5.018165111541748
-0.2799822688102722 0.12961894273757935 4.949848175048828 -0.24497312307357788 0.13991662859916687 4.9785637855529785 -0.3236018717288971 0.14275424182415009
5.069746017456055 0.20967353880405426 -0.2603335380554199 5.7654643058776855 -0.010649189352989197 -0.1288529336452484 2.4499032497406006 -0.10497735440731049
-0.12617093324661255 2.4499921798706055 -0.08147358894348145 -0.019340455532073975 2.3536338806152344 0.04666876792907715 0.30565962195396423 2.998216390609741
-0.16952571272850037 0.33517536520957947 2.9697399139404297 0.03206285089254379 -0.08243157714605331 3.5997366905212402 -0.049564942717552185 -0.03864579647779465
3.55328106880188 -0.010130807757377625 -0.21085748076438904 3.3577568531036377 0.0042060017585754395 0.1183159276843071 2.9224390983581543 -0.17288611829280853
0.124502032995224 2.9121615886688232 0.05303776264190674 -0.1454397290945053 3.41837477684021 -0.07183092832565308 -0.13582870364189148 3.4141499996185303
0.001761503517627716 -0.013426132500171661 2.816059112548828 -0.17198778688907623 -0.017863024026155472 2.807126522064209 0.03664743900299072 0.25987792015075684
3.0122592449188232 -0.179190531373024 0.2867002785205841 2.9827027320861816 0.015488117933273315 -0.14921480417251587 3.5294439792633057 -0.027357235550880432
-0.13473403453826904 3.5194976329803467 -0.05603128671646118 -0.039293549954891205 2.601348876953125 0.16026277840137482 -0.23020455241203308 3.519244432449341
0.012274558655917645 -0.19810590147972107 2.5650644302368164 -0.1090891882777214 -0.1914079785346985 2.5542259216308594 -0.03669732064008713 0.03387460857629776
2.4570040702819824 -0.07550837844610214 0.033985868096351624 2.4567201137542725 -0.0607999712228775 -0.06407834589481354 2.33375883102417 0.07953186333179474
-0.22645781934261322 3.474842071533203 -0.2242230474948883 0.06926808506250381 3.89342999458313 -0.21548688411712646 0.08520303666591644 3.9650306701660156
-0.26452571153640747 0.21506547927856445 3.902103900909424 0.20599579811096191 0.41059499979019165 4.388428688049316 0.15018634498119354 0.40236157178878784
4.444186210632324 0.2722534239292145 -0.17513439059257507 5.023807525634766 0.24187472462654114 -0.17702344059944153 5.064527988433838 0.28628119826316833
00000000: 0000 00a0 712c d5bf 0000 00c0 665e d3bf
00000010: 0000 0000 33c7 0d40 0000 0000 166e d9bf
00000020: 0000 00e0 c596 d2bf 0000 00c0 c61c 0e40
00000030: 0000 00c0 4b99 d9bf 0000 0000 3465 cdbf
00000040: 0000 00a0 ef79 0d40 0000 0060 1ad1 cabf
00000050: 0000 0040 f432 d83f 0000 00c0 9b11 1140
00000060: 0000 00a0 4e4c c4bf 0000 0080 273e d43f
00000070: 0000 00c0 f05e 1140 0000 0000 b065 d23f
00000080: 0000 00c0 18bd d73f 0000 0040 878c 1340
00000090: 0000 0000 76e2 d03f 0000 0000 24b1 cd3f
000000a0: 0000 00e0 0150 1440 0000 0040 9a92 d03f
000000b0: 0000 0080 e2a9 c4bf 0000 0040 3acb 1240
000000c0: 0000 0060 3858 c1bf 0000 0080 51fe b73f
000000d0: 0000 0000 20c0 1040 0000 0040 dd20 cabf
000000e0: 0000 0060 9e34 983f 0000 0000 b221 1140
000000f0: 0000 0040 2a5b d33f 0000 00c0 4343 b13f
00000100: 0000 0020 4bb5 1240 0000 0000 c7c8 c63f
00000110: 0000 0000 dc3b 703f 0000 0000 174d 1340
00000120: 0000 0000 9e6f a5bf 0000 0020 e0e6 afbf
00000130: 0000 0080 b5f2 0f40 0000 0040 d9b1 cabf
00000140: 0000 0000 1571 c6bf 0000 0040 347d 1040
00000150: 0000 0040 d044 c6bf 0000 00c0 5970 d13f
00000160: 0000 0000 e03e 1140 0000 00c0 0f2a c8bf
00000170: 0000 00e0 4c91 cc3f 0000 0080 f49a 1140
00000180: 0000 0060 9c84 d33f 0000 0020 8fbd cc3f
00000190: 0000 0040 997d 1340 0000 0080 71aa d13f
000001a0: 0000 00c0 c9cc c33f 0000 00c0 7be4 1340
000001b0: 0000 0080 949f d1bf 0000 0000 f7a8 c9bf
000001c0: 0000 00a0 51b8 0e40 0000 00e0 600f db3f
000001d0: 0000 0060 7a03 c7bf 0000 0040 1ac4 1340
000001e0: 0000 0080 1c39 cfbf 0000 00c0 8347 d5bf
000001f0: 0000 0000 4679 0e40 0000 00e0 5631 d6bf
00000200: 0000 00c0 d949 d4bf 0000 0060 d905 0f40
00000210: 0000 0040 9c52 d6bf 0000 0060 9243 c8bf
00000220: 0000 0060 28d0 0d40 0000 0080 db3c d8bf
00000230: 0000 00c0 f118 c8bf 0000 00c0 fefc 0d40
00000240: 0000 00e0 0c1a d9bf 0000 00a0 a1f3 d0bf
00000250: 0000 0000 5888 0d40 0000 0020 5c17 d63f
00000260: 0000 0080 2930 c3bf 0000 0040 984c 1340
00000270: 0000 0040 030f d3bf 0000 0000 d0d5 92bf
00000280: 0000 0080 5e14 1440 0000 00a0 e729 cbbf
00000290: 0000 0080 cf02 943f 0000 0000 de42 1440
000002a0: 0000 0040 a4a4 d1bf 0000 0080 3737 b83f
000002b0: 0000 0040 2356 1440 0000 00c0 fbe3 d63f
000002c0: 0000 00c0 c85e d53f 0000 0000 37dc 1440
000002d0: 0000 0080 3e35 c33f 0000 00c0 94ad c93f
000002e0: 0000 0000 8923 1540 0000 0060 4d2d c83f
000002f0: 0000 0060 4ee8 bdbf 0000 0060 d55f 1740
00000300: 0000 00e0 2902 b53f 0000 0020 1b67 cfbf
00000310: 0000 00c0 db7a 1740 0000 0020 61f7 c33f
00000320: 0000 0060 2460 cebf 0000 0040 9b56 1640
00000330: 0000 00e0 b54c cf3f 0000 00c0 1ef1 b63f
00000340: 0000 0080 1ea4 1440 0000 0000 844f 8cbf
00000350: 0000 0000 052d a63f 0000 00c0 d910 1540
00000360: 0000 00c0 79e0 d03f 0000 00c0 4d04 cabf
00000370: 0000 0020 5285 1640 0000 0000 2e8d ae3f
00000380: 0000 0040 7da8 c9bf 0000 00c0 81a0 1640
00000390: 0000 0040 e0ff c73f 0000 00c0 0ee5 91bf
000003a0: 0000 0080 d9c2 1340 0000 0000 921d 74bf
000003b0: 0000 0020 e311 a8bf 0000 0060 635a 1440
000003c0: 0000 0040 418d d33f 0000 00c0 d09c ce3f
000003d0: 0000 00c0 87e5 1440 0000 0080 a617 b43f
000003e0: 0000 0080 0e7b c53f 0000 00c0 4e71 1540
000003f0: 0000 0040 b88f c53f 0000 00c0 754a cebf
00000400: 0000 0080 2432 1740 0000 0000 e7b2 c23f
00000410: 0000 0040 c9ac d2bf 0000 0040 af30 1740
00000420: 0000 0080 e53c cabf 0000 0080 f576 9c3f
00000430: 0000 00a0 019c 1340 0000 00a0 2569 cc3f
00000440: 0000 00a0 91d7 d2bf 0000 00e0 808e 1740
00000450: 0000 00a0 3c97 d0bf 0000 0080 4e33 c0bf
00000460: 0000 0020 68bf 1340 0000 0040 d145 babf
00000470: 0000 0040 887c b0bf 0000 00e0 9912 1440
00000480: 0000 00c0 3aeb d1bf 0000 0080 5a97 c03f
00000490: 0000 0000 a5cc 1340 0000 0080 475b cfbf
000004a0: 0000 00c0 c9e8 c13f 0000 00a0 0cea 1340
000004b0: 0000 00a0 e4b5 d4bf 0000 0060 c545 c23f
000004c0: 0000 0080 6b47 1440 0000 0020 95d6 ca3f
000004d0: 0000 0000 4ea9 d0bf 0000 00e0 d50f 1740
000004e0: 0000 0000 3ecf 85bf 0000 00c0 407e c0bf
000004f0: 0000 00e0 6699 0340 0000 00c0 cbdf babf
00000500: 0000 0080 5e26 c0bf 0000 0080 9599 0340
00000510: 0000 0000 74db b4bf 0000 0000 fccd 93bf
00000520: 0000 0000 3ed4 0240 0000 0000 f8e4 a73f
00000530: 0000 0060 ed8f d33f 0000 00e0 58fc 0740
00000540: 0000 00c0 04b3 c5bf 0000 0060 8373 d53f
00000550: 0000 0000 07c2 0740 0000 00c0 8a6a a03f
00000560: 0000 0060 3c1a b5bf 0000 00c0 42cc 0c40
00000570: 0000 0080 9360 a9bf 0000 00c0 61c9 a3bf
00000580: 0000 00a0 1e6d 0c40 0000 0000 76bf 84bf
00000590: 0000 00c0 60fd cabf 0000 00a0 afdc 0a40
000005a0: 0000 0000 503a 713f 0000 00e0 f349 be3f
000005b0: 0000 00c0 2761 0740 0000 00e0 2121 c6bf
000005c0: 0000 0080 5ddf bf3f 0000 0060 1b4c 0740
000005d0: 0000 0000 c427 ab3f 0000 00e0 c49d c2bf
000005e0: 0000 00e0 d458 0b40 0000 0000 8363 b2bf
000005f0: 0000 00c0 d562 c1bf 0000 00e0 2d50 0b40
00000600: 0000 0000 48dc 5c3f 0000 0000 297f 8bbf
00000610: 0000 0000 4a87 0640 0000 0020 b203 c6bf
00000620: 0000 0040 af4a 92bf 0000 00c0 fe74 0640
00000630: 0000 0000 74c3 a23f 0000 0000 d7a1 d03f
00000640: 0000 0060 1b19 0840 0000 0020 b7ef c6bf
00000650: 0000 0020 4c59 d23f 0000 0040 93dc 0740
00000660: 0000 0000 3cb8 8f3f 0000 0080 7819 c3bf
00000670: 0000 0020 4d3c 0c40 0000 0000 8903 9cbf
00000680: 0000 0000 f73e c1bf 0000 0060 ee27 0c40
00000690: 0000 0000 22b0 acbf 0000 00c0 481e a4bf
000006a0: 0000 0000 90cf 0440 0000 00a0 7d83 c43f
000006b0: 0000 00c0 5777 cdbf 0000 00a0 6927 0c40
000006c0: 0000 0060 6723 893f 0000 00c0 885b c9bf
000006d0: 0000 0080 4085 0440 0000 00e0 44ed bbbf
000006e0: 0000 0080 0e80 c8bf 0000 0000 0e6f 0440
000006f0: 0000 00c0 fdc9 a2bf 0000 0040 0358 a13f
00000700: 0000 00c0 f1a7 0340 0000 0060 8454 b3bf
00000710: 0000 0080 9866 a13f 0000 00e0 5ca7 0340
00000720: 0000 0080 2c21 afbf 0000 0040 7067 b0bf
00000730: 0000 00c0 89ab 0240 0000 0040 335c b43f
00000740: 0000 00e0 91fc ccbf 0000 0000 7acc 0b40
00000750: 0000 0040 57b3 ccbf 0000 00a0 8dbb b13f
00000760: 0000 00a0 be25 0f40 0000 0000 1395 cbbf
00000770: 0000 00c0 ddcf b53f 0000 0000 62b8 0f40
00000780: 0000 0040 fded d0bf 0000 0000 4487 cb3f
00000790: 0000 0040 8237 0f40 0000 0000 125e ca3f
000007a0: 0000 0040 3047 da3f 0000 0040 c08d 1140
000007b0: 0000 0060 4e39 c33f 0000 00c0 4ac0 d93f
000007c0: 0000 00c0 d8c6 1140 0000 00a0 996c d13f
000007d0: 0000 00c0 cd6a c6bf 0000 0000 6118 1440
000007e0: 0000 0040 c0f5 ce3f 0000 0040 b4a8 c6bf
000007f0: 0000 00a0 1342 1440 0000 0060 6e52 d23f
