demo_out/run3/epoch5/params.npz (npz, 11215 bytes, 4 tensors)

pose f8 [5, 105]
00000000: 0000 00c0 8fc8 ee3f 0000 0040 154a f93f
00000010: 0000 0040 9b26 f5bf 0000 00c0 f404 96bf
00000020: 0000 0080 c20e 98bf 0000 0080 c184 c03f
00000030: 0000 00e0 02e5 a53f 0000 0060 acd8 813f
00000040: 0000 00c0 8b28 c7bf 0000 0020 e22d c3bf
00000050: 0000 00c0 3285 c7bf 0000 0040 5349 a7bf
00000060: 0000 00e0 b2ba babf 0000 0000 94c2 cc3f
00000070: 0000 0080 9e8c 973f 0000 0000 5762 83bf
00000080: 0000 0040 b23a b23f 0000 0000 3478 7ebf
00000090: 0000 00c0 b6d0 a13f 0000 0080 8185 c93f
000000a0: 0000 0000 d78c 833f 0000 00c0 2179 e4bf
000000b0: 0000 0040 ef35 96bf 0000 0080 25bb 9fbf
000000c0: 0000 00c0 b986 dd3f 0000 0040 0223 c83f
000000d0: 0000 0060 b80f d73f 0000 00e0 7f51 d6bf
000000e0: 0000 0040 2f56 e3bf 0000 00e0 dae5 d1bf
000000f0: 0000 00e0 fc8a e43f 0000 0020 13ad d4bf
00000100: 0000 0060 6dc2 c7bf 0000 00e0 ea72 d93f
00000110: 0000 0080 e136 bc3f 0000 0060 10c4 b03f
00000120: 0000 0020 20f2 d9bf 0000 0080 a56a 9f3f
00000130: 0000 00e0 2bb8 a9bf 0000 0000 a61a a83f
00000140: 0000 00c0 eda5 e4bf 0000 0060 3920 e53f
00000150: 0000 0020 e455 e8bf 0000 0060 7ea9 e0bf
00000160: 0000 0080 ccba d43f 0000 0040 15f2 c83f
00000170: 0000 00a0 adca d4bf 0000 0080 8f8d 883f
00000180: 0000 0020 1dcb d63f 0000 0080 9ee0 e2bf
00000190: 0000 0080 cb6b cc3f 0000 0080 e399 91bf
000001a0: 0000 0060 510d bf3f 0000 0080 ffc8 d3bf
000001b0: 0000 00c0 2e78 b8bf 0000 0060 86e4 ca3f
000001c0: 0000 00c0 7aef c23f 0000 0060 1440 bf3f
000001d0: 0000 00e0 2d54 dfbf 0000 00a0 6bfa c03f
000001e0: 0000 0020 921f c0bf 0000 0060 21f6 e1bf
000001f0: 0000 0080 e7b2 c03f 0000 0080 0027 c33f
00000200: 0000 0000 8407 e03f 0000 0080 8775 c13f
00000210: 0000 0080 3af2 963f 0000 00c0 d479 a3bf
00000220: 0000 0060 5df7 d0bf 0000 0060 4d5a c4bf
00000230: 0000 00e0 f875 c4bf 0000 0020 1c24 cabf
00000240: 0000 0080 4d0c dabf 0000 0040 08bc efbf
00000250: 0000 0000 9983 9f3f 0000 0060 14ed c2bf
00000260: 0000 0060 6a9f b2bf 0000 0080 ea38 783f
00000270: 0000 0020 b1bc d3bf 0000 00c0 a495 d43f
00000280: 0000 0000 3946 8ebf 0000 0060 e9a3 abbf
00000290: 0000 0080 51e0 9e3f 0000 00a0 a8a2 b8bf
000002a0: 0000 0080 79a0 aebf 0000 0020 d196 b2bf
000002b0: 0000 0060 05db aa3f 0000 0080 dcf7 9ebf
000002c0: 0000 00c0 ee05 c93f 0000 0080 8e73 a03f
000002d0: 0000 00c0 2e86 c8bf 0000 0000 0dd4 a63f
000002e0: 0000 0080 eb5d a2bf 0000 0080 18f8 cbbf
000002f0: 0000 00c0 7eb3 b6bf 0000 0020 2c7b a33f
00000300: 0000 0080 f4b0 debf 0000 0000 f266 7e3f
00000310: 0000 0080 f96a 9bbf 0000 0060 94aa e9bf
00000320: 0000 00c0 bf39 eb3f 0000 0000 6aef e7bf
00000330: 0000 0000 3da0 d03f 0000 0080 2acc f53f
00000340: 0000 0000 bf61 f53f 0000 0080 3c93 fa3f
00000350: 0000 0020 bcfa e53f 0000 0020 962e f0bf
00000360: 0000 0080 8431 b43f 0000 00c0 387f b53f
00000370: 0000 00a0 b51c d4bf 0000 0040 c725 d0bf
00000380: 0000 0060 1c62 6bbf 0000 0020 1c4b cf3f
00000390: 0000 0060 df44 ca3f 0000 0080 77a0 c3bf
000003a0: 0000 0060 9016 c13f 0000 00e0 ca34 c73f
000003b0: 0000 00e0 12c2 c03f 0000 0080 9392 cabf
000003c0: 0000 0000 2358 9dbf 0000 0020 4f47 a23f
000003d0: 0000 0000 0597 a93f 0000 00e0 7f3b 943f
000003e0: 0000 00e0 2cfe c63f 0000 0080 9110 9fbf
000003f0: 0000 0040 28b2 ccbf 0000 00e0 59d5 c63f
00000400: 0000 0080 ff65 99bf 0000 00e0 5ac0 e53f
00000410: 0000 0060 c2ac d9bf 0000 0060 bbfd ca3f
00000420: 0000 00e0 269f d0bf 0000 0080 20e4 95bf
00000430: 0000 00c0 3e7c d3bf 0000 00a0 96c3 c53f
00000440: 0000 0000 8d3c e73f 0000 00c0 0822 d4bf
00000450: 0000 00e0 2aea e43f 0000 00c0 0cc9 a8bf
00000460: 0000 00c0 e272 c5bf 0000 0000 4186 a23f
00000470: 0000 00a0 0456 d83f 0000 0020 c583 c7bf
00000480: 0000 0020 4028 cb3f 0000 0000 f84f 553f
00000490: 0000 00e0 ad6c e53f 0000 0000 e826 e5bf
000004a0: 0000 00c0 6402 d8bf 0000 0040 851b c13f
000004b0: 0000 00e0 5461 d8bf 0000 00e0 26ba c5bf
000004c0: 0000 00c0 5dac d63f 0000 00e0 40c1 d7bf
000004d0: 0000 0040 8109 e5bf 0000 0000 caad c8bf
000004e0: 0000 0040 aee2 ce3f 0000 0020 3688 da3f
000004f0: 0000 0000 2876 ccbf 0000 0000 394e 62bf
00000500: 0000 0040 8edb d93f 0000 00c0 dbec a2bf
00000510: 0000 0060 a025 be3f 0000 00a0 8153 dbbf
00000520: 0000 0020 bbc8 c23f 0000 00a0 7551 c03f
00000530: 0000 0000 81b0 e5bf 0000 0000 a4c3 643f
00000540: 0000 00a0 f4db a2bf 0000 0080 da0f a13f
00000550: 0000 00c0 bf65 b83f 0000 0000 96cb d43f
00000560: 0000 00a0 f974 e33f 0000 0000 ee9e a4bf
00000570: 0000 00c0 13a4 b7bf 0000 00e0 2c2e e6bf
00000580: 0000 0000 4074 843f 0000 00c0 ae48 b43f
00000590: 0000 0000 c98f c2bf 0000 0000 ad29 a43f
000005a0: 0000 0040 fd02 c1bf 0000 0000 7222 e0bf
000005b0: 0000 0000 0e94 ddbf 0000 0080 8fb1 d13f
000005c0: 0000 0060 2b5e c13f 0000 0040 4457 e8bf
000005d0: 0000 0080 eaec d03f 0000 0080 73b3 c0bf
000005e0: 0000 0020 4e46 b8bf 0000 0060 d201 8fbf
000005f0: 0000 0020 400f d9bf 0000 00e0 0651 b7bf
00000600: 0000 00c0 3184 98bf 0000 00a0 162a b83f
00000610: 0000 0040 518a d6bf 0000 00c0 d3b4 a3bf
00000620: 0000 0040 cbbc b8bf 0000 0020 7ea2 c93f
00000630: 0000 0000 f90a c53f 0000 00c0 c4bb d6bf
00000640: 0000 00a0 7b06 ddbf 0000 0040 754a d03f
00000650: 0000 0060 6ece d0bf 0000 0080 3e9a bf3f
00000660: 0000 00a0 1b72 f9bf 0000 0080 928c f13f
00000670: 0000 0000 569b eabf 0000 00c0 023c d33f
00000680: 0000 0080 527a f93f 0000 0080 2ce5 ea3f
00000690: 0000 0020 5c21 f73f 0000 0060 ef19 f43f
000006a0: 0000 00c0 2410 f2bf 0000 0080 8401 a8bf
000006b0: 0000 0000 56ac b43f 0000 00c0 efa9 d0bf
000006c0: 0000 0080 f35b bcbf 0000 00a0 6f07 6d3f
000006d0: 0000 0000 cfe7 bc3f 0000 0000 2d35 b63f
000006e0: 0000 0060 aa87 cabf 0000 00c0 7a4b a83f
000006f0: 0000 0040 4dab b83f 0000 0080 188b ca3f
00000700: 0000 0080 d73e aabf 0000 0080 4222 94bf
00000710: 0000 0000 ce7c 91bf 0000 0080 b8f5 a43f
00000720: 0000 00c0 6f6b b9bf 0000 00e0 4ea3 c13f
00000730: 0000 0080 5ed1 a13f 0000 0080 0b79 cdbf
00000740: 0000 0020 2088 c83f 0000 0080 fe1c cf3f
00000750: 0000 0040 585f dd3f 0000 0000 318c a93f
00000760: 0000 0000 de62 d03f 0000 0060 764d d1bf
00000770: 0000 00c0 0947 e4bf 0000 0020 200c dfbf
00000780: 0000 0060 f608 dc3f 0000 0000 a4d5 98bf
00000790: 0000 0080 90da d3bf 0000 0080 08f2 d93f
000007a0: 0000 00a0 88e4 b03f 0000 0000 c6ed cfbf
000007b0: 0000 00a0 1f58 dbbf 0000 00c0 9055 cb3f
000007c0: 0000 0000 4f43 d4bf 0000 00c0 bcc2 d83f
000007d0: 0000 0000 2ffe e3bf 0000 0040 e7bd d83f
000007e0: 0000 00a0 53f2 e1bf 0000 00c0 662d c5bf
000007f0: 0000 0080 42e6 d23f 0000 00e0 7201 c7bf
0.9619826078414917 1.5805866718292236 -1.321925401687622 -0.021503280848264694 -0.023493804037570953 0.12905138731002808 0.042762842029333115 0.008714052848517895
-0.18092486262321472 -0.14983774721622467 -0.1837523877620697 -0.045481301844120026 -0.1044112965464592 0.22468805313110352 0.022997356951236725 -0.009464912116527557
0.07120813429355621 -0.00743885338306427 0.03479548543691635 0.19938677549362183 0.009545974433422089 -0.6397866010665894 -0.021690119057893753 -0.030987344682216644
0.4613479971885681 0.1885683834552765 0.36033448576927185 -0.3487243354320526 -0.6042705774307251 -0.27965423464775085 0.6419662833213806 -0.3230636417865753
-0.18562094867229462 0.3976390063762665 0.11021241545677185 0.0654916986823082 -0.40540316700935364 0.030680261552333832 -0.05023324117064476 0.04707831144332886
-0.6452549695968628 0.6601836085319519 -0.7604847550392151 -0.5206901431083679 0.32390129566192627 0.19488778710365295 -0.3248704969882965 0.011988755315542221
0.35614708065986633 -0.5899193286895752 0.22203963994979858 -0.017188601195812225 0.1212969645857811 -0.30914294719696045 -0.09558384120464325 0.2100990265607834
0.14793333411216736 0.1220715269446373 -0.4895128905773163 0.1326422244310379 -0.1259634643793106 -0.561295211315155 0.130459725856781 0.14962774515151978
0.5009174346923828 0.13639920949935913 0.02240840345621109 -0.03803887218236923 -0.2650979459285736 -0.159005805850029 -0.15985022485256195 -0.20422698557376862
-0.40700089931488037 -0.9917031526565552 0.030775442719459534 -0.1478600949048996 -0.07274498790502548 0.005913654342293739 -0.30839183926582336 0.321633517742157
-0.0147823765873909 -0.05398492142558098 0.0301525816321373 -0.09623197466135025 -0.059818074107170105 -0.07261378318071365 0.052452247589826584 -0.03024239093065262
0.19549354910850525 0.032131627202034 -0.1915949285030365 0.04458656907081604 -0.03587280213832855 -0.218508780002594 -0.08867637813091278 0.03804910555481911
-0.47955048084259033 0.007422395050525665 -0.026775263249874115 -0.8020727038383484 0.8507994413375854 -0.7479753494262695 0.2597801685333252 1.3623452186584473
1.3363637924194336 1.6609463691711426 0.686857283115387 -1.0113736391067505 0.07888057827949524 0.0839724987745285 -0.3142522871494293 -0.252305805683136
-0.0033426813315600157 0.24447967112064362 0.2052268236875534 -0.15333455801010132 0.1335010975599289 0.18129859864711761 0.13092266023159027 -0.20759814977645874
-0.028656527400016785 0.035700295120477676 0.04998031258583069 0.01975822262465954 0.1796318143606186 -0.030336640775203705 -0.22418692708015442 0.17838595807552338
-0.024803154170513153 0.6797308325767517 -0.40116938948631287 0.21086828410625458 -0.2597138583660126 -0.0213780477643013 -0.3044583201408386 0.1700313836336136
0.7261414527893066 -0.31457728147506714 0.653584897518158 -0.04840888828039169 -0.16756853461265564 0.0361805260181427 0.38025012612342834 -0.1837088018655777
0.21216584742069244 0.001300804316997528 0.6695165038108826 -0.6609992980957031 -0.3751460909843445 0.13365235924720764 -0.38094064593315125 -0.1697434037923813
0.35427039861679077 -0.3711702525615692 -0.6574102640151978 -0.19280362129211426 0.24129274487495422 0.41456368565559387 -0.22235584259033203 -0.00223456509411335
0.4040256142616272 -0.036963336169719696 0.11776163429021835 -0.42697182297706604 0.1467508226633072 0.1274859458208084 -0.6777958869934082 0.0025346949696540833
-0.03683437779545784 0.03332407772541046 0.09530256688594818 0.32492589950561523 0.6080291867256165 -0.04027503728866577 -0.09234736859798431 -0.6931366324424744
0.009987354278564453 0.0792340487241745 -0.1450129747390747 0.03938046097755432 -0.13290372490882874 -0.5042047500610352 -0.4621615409851074 0.2764624357223511
0.13568632304668427 -0.7606526613235474 0.2644602060317993 -0.13047641515731812 -0.09482277184724808 -0.01514019351452589 -0.3915558159351349 -0.09108012169599533
-0.023941781371831894 0.09439221769571304 -0.352192223072052 -0.038488976657390594 -0.0966307669878006 0.2002713829278946 0.16439735889434814 -0.35521048307418823
-0.45352068543434143 0.25454455614089966 -0.26259955763816833 0.12344732880592346 -1.5903583765029907 1.0968194007873535 -0.8314619064331055 0.30053776502609253
1.5923638343811035 0.84047532081604 1.445644497871399 1.2563318014144897 -1.128941297531128 -0.04688657820224762 0.08075463771820068 -0.2603721022605896
-0.11077806353569031 0.0035435848403722048 0.112912118434906 0.08674889802932739 -0.20726518332958221 0.04745086282491684 0.0963638573884964 0.207369863986969
-0.05126069486141205 -0.01966194063425064 -0.017077654600143433 0.04093720018863678 -0.09929560124874115 0.13779626786708832 0.03480048477649689 -0.23025649785995483
0.19165422022342682 0.24307233095169067 0.4589443802833557 0.049897700548172 0.25603437423706055 -0.27035292983055115 -0.6336716413497925 -0.48511508107185364
0.43804702162742615 -0.024252474308013916 -0.3102151155471802 0.40539753437042236 0.06598714739084244 -0.24944376945495605 -0.4272536337375641 0.21354874968528748
-0.316608190536499 0.3868858218193054 -0.6247782707214355 0.38659077882766724 -0.5608308911323547 -0.16544803977012634 0.29530394077301025 -0.17973171174526215

betas f8 [5, 41]
00000000: 0000 0000 b082 bdbf 0000 0080 0893 d53f
00000010: 0000 0000 be49 d4bf 0000 0060 fead e5bf
00000020: 0000 0060 5a94 d5bf 0000 0020 7aad b6bf
00000030: 0000 0080 5061 b6bf 0000 0040 2330 fc3f
00000040: 0000 0080 248f cbbf 0000 00c0 7213 f03f
00000050: 0000 0000 6b47 f73f 0000 00a0 6e17 febf
00000060: 0000 0060 dc7d 0740 0000 0060 d9f2 e8bf
00000070: 0000 00c0 cc6b 08c0 0000 0060 0a69 f93f
00000080: 0000 00e0 eceb 09c0 0000 0040 df9f 14c0
00000090: 0000 0060 f893 f7bf 0000 0000 a925 f03f
000000a0: 0000 0060 65ae dfbf 0000 00c0 09be e6bf
000000b0: 0000 00c0 3c36 edbf 0000 00c0 610c fabf
000000c0: 0000 00c0 7ac5 f3bf 0000 0060 e8fe bdbf
000000d0: 0000 0040 ccc7 493f 0000 0080 64b6 503f
000000e0: 0000 00c0 cb02 5cbf 0000 00a0 eb58 53bf
000000f0: 0000 0000 e6cb 3d3f 0000 0040 3cc7 62bf
00000100: 0000 0000 20f4 61bf 0000 00c0 13f6 5bbf
00000110: 0000 00e0 c432 58bf 0000 0000 a2f3 4d3f
00000120: 0000 0040 c36c 23bf 0000 00a0 d4ca 653f
00000130: 0000 0020 c8bb 653f 0000 0000 86d7 333f
00000140: 0000 00e0 cc94 51bf 0000 00c0 f5d1 cfbf
00000150: 0000 0060 26cc f03f 0000 0060 38c5 f6bf
00000160: 0000 0060 f66f d53f 0000 0040 20e9 d13f
00000170: 0000 00e0 bd2f 0cc0 0000 0080 09be 0040
00000180: 0000 00a0 8498 ba3f 0000 0040 d5a3 01c0
00000190: 0000 0000 bfa6 d53f 0000 0020 7488 e23f
000001a0: 0000 0040 4d6a e2bf 0000 0000 c4b7 1240
000001b0: 0000 0080 b2fd eabf 0000 0020 7b99 05c0
000001c0: 0000 0060 569d f73f 0000 0060 48f2 04c0
000001d0: 0000 0000 e977 1ec0 0000 0080 a892 f7bf
000001e0: 0000 0080 aa13 c63f 0000 0060 b3ec e3bf
000001f0: 0000 0000 a41d d9bf 0000 0040 1110 ddbf
00000200: 0000 0020 1bb0 fcbf 0000 0000 b54f f4bf
00000210: 0000 00c0 7acf d8bf 0000 00c0 f298 4a3f
00000220: 0000 0040 2f10 583f 0000 0020 9f06 60bf
00000230: 0000 0060 8767 48bf 0000 0040 125d 353f
00000240: 0000 0060 cd73 61bf 0000 0000 0ed2 63bf
00000250: 0000 0080 2f96 65bf 0000 0060 dd7e 5dbf
00000260: 0000 0040 5383 513f 0000 0080 004e 18bf
00000270: 0000 0020 81e9 673f 0000 0060 e1cb 623f
00000280: 0000 0000 5fdb 4c3f 0000 0000 d7ca 58bf
00000290: 0000 00a0 9d1a ebbf 0000 0020 ab28 f23f
000002a0: 0000 0080 2167 d73f 0000 0020 3ad3 fdbf
000002b0: 0000 0020 06de d93f 0000 0080 3838 03c0
000002c0: 0000 0060 5805 f73f 0000 00e0 ae1b 0140
000002d0: 0000 00c0 a0f7 f53f 0000 0060 1734 f9bf
000002e0: 0000 00c0 67af e93f 0000 00c0 cab2 d6bf
000002f0: 0000 0000 6107 0140 0000 0080 28dd debf
00000300: 0000 0000 b5d0 efbf 0000 00c0 d55a b3bf
00000310: 0000 0080 5032 0dc0 0000 00a0 5238 16c0
00000320: 0000 00a0 68a0 f1bf 0000 0040 5444 e03f
00000330: 0000 0080 3a3c ebbf 0000 00c0 0e71 e9bf
00000340: 0000 00c0 7572 efbf 0000 00c0 e308 ffbf
00000350: 0000 0060 70f5 f3bf 0000 0080 da82 d3bf
00000360: 0000 00e0 a112 4a3f 0000 0080 0ef7 553f
00000370: 0000 00c0 4fbc 5cbf 0000 0080 bf40 4cbf
00000380: 0000 0020 331a 423f 0000 00c0 9a99 63bf
00000390: 0000 0080 5942 62bf 0000 00c0 aac0 5fbf
000003a0: 0000 0080 009d 57bf 0000 00c0 4896 543f
000003b0: 0000 0040 fb0a 28bf 0000 00c0 c40c 633f
000003c0: 0000 00c0 ca69 663f 0000 00c0 4c5c 3e3f
000003d0: 0000 00a0 972b 53bf 0000 0080 be9b e2bf
000003e0: 0000 0060 3cfc bbbf 0000 00a0 a9e9 f1bf
000003f0: 0000 00c0 225d f13f 0000 00a0 d812 70bf
00000400: 0000 00a0 20db eebf 0000 00c0 9063 eb3f
00000410: 0000 0060 ecad d33f 0000 0060 48f9 fdbf
00000420: 0000 0000 2ddc f63f 0000 0040 691b f73f
00000430: 0000 00a0 c6ad d3bf 0000 0040 e9f4 0340
00000440: 0000 00e0 757d e6bf 0000 0080 34c4 0cc0
00000450: 0000 0000 8ac3 fe3f 0000 0080 8d67 09c0
00000460: 0000 0080 a7d5 17c0 0000 0080 2567 fbbf
00000470: 0000 0020 5cae f23f 0000 0000 2b58 e0bf
00000480: 0000 00c0 81aa d3bf 0000 0020 305e d5bf
00000490: 0000 0020 0d1a fcbf 0000 00e0 68ee f3bf
000004a0: 0000 00e0 fbea cdbf 0000 00a0 f705 4a3f
000004b0: 0000 0040 08c1 5c3f 0000 0040 284c 5dbf
000004c0: 0000 0020 dcbe 48bf 0000 0000 848b 0e3f
000004d0: 0000 0000 d16e 62bf 0000 0000 c67c 62bf
000004e0: 0000 0080 87fa 62bf 0000 0040 a9f2 61bf
000004f0: 0000 0000 9a63 553f 0000 0000 f65c 153f
00000500: 0000 00c0 767c 6a3f 0000 0080 9db7 653f
00000510: 0000 0020 2059 473f 0000 0040 5879 53bf
00000520: 0000 0020 3588 e0bf 0000 00a0 8ae5 e03f
00000530: 0000 00c0 20a2 c2bf 0000 0060 d45f e8bf
00000540: 0000 0020 2779 ce3f 0000 00e0 5204 01c0
00000550: 0000 0040 41a9 f93f 0000 00e0 0f75 0540
00000560: 0000 0040 4ca9 e8bf 0000 0080 e194 dabf
00000570: 0000 0000 a2de f23f 0000 0080 6f6c e8bf
00000580: 0000 00a0 806e f23f 0000 0080 949f b1bf
00000590: 0000 00a0 f493 f4bf 0000 0020 05a5 c83f
000005a0: 0000 0060 1b18 13c0 0000 0040 cb2e 16c0
000005b0: 0000 0000 e44a f9bf 0000 0020 c15f f23f
000005c0: 0000 0060 9640 e8bf 0000 0060 abb7 ebbf
000005d0: 0000 0060 af7f f1bf 0000 0040 efd2 fcbf
000005e0: 0000 0000 6e1a f4bf 0000 00c0 9b65 d2bf
000005f0: 0000 00a0 7d6b 533f 0000 0040 ea90 563f
00000600: 0000 0040 a026 5ebf 0000 00e0 0fb7 4cbf
00000610: 0000 0040 594f 513f 0000 0080 eba6 63bf
00000620: 0000 00e0 a991 63bf 0000 00a0 886d 57bf
00000630: 0000 00e0 e618 54bf 0000 0080 56e7 553f
00000640: 0000 0040 c353 2ebf 0000 00c0 9fde 643f
00000650: 0000 00a0 e425 653f 0000 0060 75a1 483f
00000660: 0000 0020 183f 55bf
-0.11527538299560547 0.33709919452667236 -0.3170008659362793 -0.6774894595146179 -0.3371797502040863 -0.0885845497250557 -0.08742240071296692 1.7617523670196533
-0.2153058648109436 1.0047481060028076 1.4549360275268555 -1.8807207345962524 2.936455488204956 -0.7796446681022644 -3.0526366233825684 1.5881446599960327
-3.2401978969573975 -5.156125068664551 -1.4736255407333374 1.0091943740844727 -0.4950192868709564 -0.7106980085372925 -0.9128707647323608 -1.6280229091644287
-1.2357127666473389 -0.11717083305120468 0.0007867572130635381 0.0010200482793152332 -0.001709650969132781 -0.0011808682465925813 0.0004546581767499447 -0.002292268443852663
-0.002191603183746338 -0.001706618582829833 -0.0014769480330869555 0.0009140530601143837 -0.0001481998770032078 0.0026601937133818865 0.0026530178729444742 0.0003027631901204586
-0.0010730744106695056 -0.2485949695110321 1.049841284751892 -1.4231494665145874 0.33495864272117615 0.279853880405426 -3.5233113765716553 2.0927915573120117
0.10388974100351334 -2.2049965858459473 0.3383023738861084 0.5791569352149963 -0.5754762887954712 4.6794586181640625 -0.8434689044952393 -2.699941873550415
1.4759124517440796 -2.6183021068573 -7.617099761962891 -1.4733052253723145 0.1724751591682434 -0.6226441264152527 -0.39243412017822266 -0.4541056752204895
-1.7929946184158325 -1.2694597244262695 -0.3876635432243347 0.0008116898825392127 0.0014687024522572756 -0.00195628241635859 -0.0007447634707204998 0.000325982051435858
-0.0021304141264408827 -0.0024194978177547455 -0.0026350906118750572 -0.0018002664437517524 0.0010689080227166414 -9.271505405195057e-05 0.0029189607594162226 0.0022944833617657423
0.0008806432597339153 -0.001513204537332058 -0.8469989895820618 1.134928822517395 0.3656696081161499 -1.8640691041946411 0.404176265001297 -2.402451515197754
1.4388049840927124 2.138517141342163 1.3729560375213623 -1.575217604637146 0.8026617765426636 -0.35466259717941284 2.128602981567383 -0.4822484254837036
-0.9942269325256348 -0.07560478150844574 -3.6495676040649414 -5.555002689361572 -1.101662278175354 0.5083409547805786 -0.8511021137237549 -0.7950509786605835
-0.9827221632003784 -1.9396703243255615 -1.2474216222763062 -0.3048616647720337 0.000795678177382797 0.0013406411744654179 -0.0017538813408464193 -0.0008622107561677694
0.0005524396547116339 -0.0023925802670419216 -0.0022289035841822624 -0.0019380252342671156 -0.0014412407763302326 0.0012565336655825377 -0.00018343274132348597 0.0023254244588315487
0.0027359924279153347 0.00046326516894623637 -0.0011700611794367433 -0.5815117359161377 -0.10931756347417831 -1.1195465326309204 1.0852382183074951 -0.003924223128706217
-0.9642489552497864 0.8559039831161499 0.30749043822288513 -1.87336003780365 1.4287538528442383 1.4441921710968018 -0.30748143792152405 2.4945855140686035
-0.7028149962425232 -3.5958032608032227 1.922739028930664 -3.175562858581543 -5.958646774291992 -1.7126822471618652 1.167568325996399 -0.5107626914978027
-0.3072819113731384 -0.33387377858161926 -1.7563601732254028 -1.245705485343933 -0.2337336391210556 0.0007941683870740235 0.0017550068441778421 -0.001788176828995347
-0.000755174143705517 5.82599313929677e-05 -0.002250107005238533 -0.0022567622363567352 -0.002316727302968502 -0.0021909051574766636 0.0013054851442575455 8.14938684925437e-05
0.0032331771217286587 0.0026510311290621758 0.0007125288830138743 -0.0011885988060384989 -0.5166268944740295 0.5280202031135559 -0.1455727517604828 -0.7616979479789734
0.23807229101657867 -2.1271111965179443 1.6038219928741455 2.682159185409546 -0.770666241645813 -0.4153369665145874 1.1793537139892578 -0.7632367610931396
1.1519781351089478 -0.06884124875068665 -1.2861219644546509 0.19253601133823395 -4.7735419273376465 -5.545697212219238 -1.5807838439941406 1.148377537727356
-0.7578842043876648 -0.8661705851554871 -1.0936731100082397 -1.8014976978302002 -1.2564525604248047 -0.28745168447494507 0.0011852957541123033 0.0013773238752037287
-0.0018402638379484415 -0.000876314879860729 0.0010565158445388079 -0.0023989295586943626 -0.0023887937422841787 -0.0014299234608188272 -0.0012266401899978518 0.0013368935324251652
-0.00023137815878726542 0.0025475616566836834 0.0025815453846007586 0.0007516692276112735 -0.001296781119890511

camera f8 [5, 3]
00000000: 0000 0000 c283 0cc0 0000 0000 0000 5c40
00000010: 0000 0000 0000 5c40 0000 0080 1194 0cc0
00000020: 0000 0000 0000 5c40 0000 0000 0000 5c40
00000030: 0000 0000 a274 0ac0 0000 0000 0000 5c40
00000040: 0000 0000 0000 5c40 0000 0080 36fa 0bc0
00000050: 0000 0000 0000 5c40 0000 0000 0000 5c40
00000060: 0000 0040 8725 0cc0 0000 0000 0000 5c40
00000070: 0000 0000 0000 5c40
-3.5643348693847656 112.0 112.0 -3.572299003601074 112.0 112.0 -3.3069496154785156 112.0
112.0 -3.4971742630004883 112.0 112.0 -3.518324375152588 112.0 112.0

joints3d f8 [5, 26, 3]
00000000: 0000 00e0 58ae c8bf 0000 0040 024e d0bf
00000010: 0000 0000 561d 0740 0000 0080 4ebb d2bf
00000020: 0000 00a0 f1cc cebf 0000 0000 b13d 0740
00000030: 0000 0040 8c6c d1bf 0000 0060 2009 c3bf
00000040: 0000 00c0 513f 0640 0000 00e0 5d90 c7bf
00000050: 0000 0040 9d3f d13f 0000 0020 b524 0b40
00000060: 0000 0060 4fa3 c5bf 0000 00c0 d94b d13f
00000070: 0000 0040 465b 0b40 0000 0000 45af cb3f
00000080: 0000 00c0 40b1 d03f 0000 0000 70e6 0f40
00000090: 0000 0020 1a46 c53f 0000 0020 0021 cc3f
000000a0: 0000 0060 ae7f 1040 0000 00c0 606d c93f
000000b0: 0000 0040 d5e4 bcbf 0000 00c0 4dcc 0f40
000000c0: 0000 0000 d809 aebf 0000 0080 91c9 c23f
000000d0: 0000 00c0 50c4 0a40 0000 00c0 30b4 c9bf
000000e0: 0000 00c0 7a80 b73f 0000 00c0 8575 0b40
000000f0: 0000 0000 6c62 cf3f 0000 00c0 c9c3 b43f
00000100: 0000 0080 2e6d 0f40 0000 0000 fe8d be3f
00000110: 0000 0080 8049 a83f 0000 00a0 4429 1040
00000120: 0000 0000 fe99 833f 0000 0080 f0e4 96bf
00000130: 0000 0080 07bb 0940 0000 00a0 e6bf c9bf
00000140: 0000 00a0 c3a1 b8bf 0000 0080 1d8d 0a40
00000150: 0000 0020 23e4 c0bf 0000 00a0 aca9 ce3f
00000160: 0000 0080 9e71 0b40 0000 0060 a300 c8bf
00000170: 0000 0040 586d cd3f 0000 00e0 0fc6 0b40
00000180: 0000 0000 9653 cd3f 0000 0040 cd80 c63f
00000190: 0000 0040 c321 1040 0000 0000 92ac c83f
000001a0: 0000 00a0 795c c13f 0000 0000 246f 1040
000001b0: 0000 0000 7e98 c9bf 0000 0000 e852 c0bf
000001c0: 0000 0000 3a30 0840 0000 00c0 c4f5 d63f
000001d0: 0000 00c0 068d c4bf 0000 0080 de05 1140
000001e0: 0000 0060 8499 c3bf 0000 00e0 8465 d0bf
000001f0: 0000 0080 7f03 0840 0000 0040 3ae2 d1bf
00000200: 0000 0060 b47e cebf 0000 0040 e240 0840
00000210: 0000 0060 ca0a ccbf 0000 0020 e007 bfbf
00000220: 0000 0040 33ec 0640 0000 0060 d932 d1bf
00000230: 0000 0020 2c44 bebf 0000 00c0 2905 0740
00000240: 0000 00a0 69a1 d0bf 0000 0040 02c6 ccbf
00000250: 0000 0000 5a2f 0640 0000 00e0 d6fa d03f
00000260: 0000 0080 d95d babf 0000 00c0 707f 1040
00000270: 0000 00a0 56a5 cf3f 0000 00c0 b366 cabf
00000280: 0000 0060 4339 1540 0000 0020 48f6 c13f
00000290: 0000 0080 8534 cbbf 0000 00c0 2df8 1440
000002a0: 0000 0080 7a16 d33f 0000 0060 f9b3 b9bf
000002b0: 0000 00a0 2b90 1440 0000 0000 079e d63f
000002c0: 0000 00e0 61a1 d43f 0000 00a0 5d35 1740
000002d0: 0000 0080 06dd ce3f 0000 0040 5320 cd3f
000002e0: 0000 0060 4904 1740 0000 00c0 3ac3 b3bf
000002f0: 0000 0040 0439 ae3f 0000 00a0 5157 1940
00000300: 0000 00a0 8632 ccbf 0000 0080 7e1c c63f
00000310: 0000 00a0 b2ae 1840 0000 0020 921f ccbf
00000320: 0000 0020 a8d9 b4bf 0000 0040 7e6a 1840
00000330: 0000 0080 ba3d c63f 0000 00e0 6c76 bd3f
00000340: 0000 0060 7a0e 1740 0000 00c0 bb31 83bf
00000350: 0000 00c0 877f ce3f 0000 00c0 729f 1640
00000360: 0000 0080 1bd6 b1bf 0000 0080 c5f2 96bf
00000370: 0000 0040 09e0 1840 0000 0040 38da d1bf
00000380: 0000 0060 45ce b63f 0000 00c0 424b 1840
00000390: 0000 00a0 b6b7 bb3f 0000 0040 bd36 a1bf
000003a0: 0000 0040 2b7a 1640 0000 0000 3933 bbbf
000003b0: 0000 00c0 bcd8 b53f 0000 00c0 01fd 1540
000003c0: 0000 00c0 3e0a d33f 0000 00c0 9ef7 cc3f
000003d0: 0000 0040 c137 1740 0000 0000 aedb c43f
000003e0: 0000 0080 60cb cf3f 0000 0000 ca16 1740
000003f0: 0000 00c0 1726 c2bf 0000 0000 a0a9 403f
00000400: 0000 0080 3a5e 1940 0000 00a0 293c d2bf
00000410: 0000 0060 c728 b63f 0000 0040 e1d9 1840
00000420: 0000 0040 f13b c13f 0000 00e0 1a29 b2bf
00000430: 0000 0060 3955 1540 0000 00e0 d086 84bf
00000440: 0000 0000 06d7 adbf 0000 00a0 bc3f 1940
00000450: 0000 00e0 91c6 c83f 0000 0080 8c99 ccbf
00000460: 0000 0000 6ba1 1540 0000 00c0 5ab8 b53f
00000470: 0000 0060 0c40 cdbf 0000 00e0 3160 1540
00000480: 0000 0060 2ac3 cd3f 0000 0000 3399 adbf
00000490: 0000 00e0 7bf3 1440 0000 0060 401c ca3f
000004a0: 0000 00c0 e2de adbf 0000 0080 f9df 1440
000004b0: 0000 0020 4052 d13f 0000 0040 a86b c3bf
000004c0: 0000 0080 0986 1440 0000 00c0 73c3 c5bf
000004d0: 0000 00c0 7b5a 9fbf 0000 0040 3417 1940
000004e0: 0000 0000 26cc b13f 0000 0040 680a c7bf
000004f0: 0000 0000 3250 0640 0000 0080 b14c a3bf
00000500: 0000 0080 41f8 c8bf 0000 0060 6a20 0640
00000510: 0000 0000 7626 9c3f 0000 00c0 29ee b3bf
00000520: 0000 00c0 0e39 0540 0000 0080 a677 9b3f
00000530: 0000 00c0 5e77 d13f 0000 0020 18d0 0940
00000540: 0000 0000 9a59 c2bf 0000 0000 8453 d13f
00000550: 0000 0080 daab 0940 0000 0080 9d9f a63f
00000560: 0000 0080 109d 883f 0000 00e0 7620 0e40
00000570: 0000 00e0 0c31 b6bf 0000 0080 cfb6 a23f
00000580: 0000 00c0 32a9 0d40 0000 0000 dec3 a3bf
00000590: 0000 00e0 5b8a c7bf 0000 00c0 b24f 0d40
000005a0: 0000 0060 eb1a 9b3f 0000 0080 9770 c23f
000005b0: 0000 0080 0eae 0940 0000 0040 8b65 c5bf
000005c0: 0000 0040 4801 c33f 0000 00c0 3a94 0940
000005d0: 0000 0000 1a1e a23f 0000 00c0 96b8 b9bf
000005e0: 0000 0040 6a8d 0d40 0000 0080 2a26 b9bf
000005f0: 0000 00e0 f812 b5bf 0000 0040 5b67 0d40
00000600: 0000 0000 ee9b 873f 0000 0000 f9af 833f
00000610: 0000 0080 fde8 0840 0000 0000 f46a c6bf
00000620: 0000 0000 6208 6d3f 0000 0040 42c3 0840
00000630: 0000 00c0 6024 a43f 0000 00e0 9577 ce3f
00000640: 0000 0040 ae14 0a40 0000 00a0 bcc4 c3bf
00000650: 0000 00c0 183b cf3f 0000 0020 2cf8 0940
00000660: 0000 0000 86f3 9c3f 0000 0000 3c96 abbf
00000670: 0000 00c0 b32f 0e40 0000 00c0 0a05 b3bf
00000680: 0000 0080 b5e1 9dbf 0000 0040 bff3 0d40
00000690: 0000 0000 d71d a0bf 0000 0000 6c89 a6bf
000006a0: 0000 0040 1714 0740 0000 0040 5e31 a23f
000006b0: 0000 0040 1b41 cbbf 0000 0080 74d3 0e40
000006c0: 0000 00e0 5407 b13f 0000 0020 1acf c3bf
000006d0: 0000 0000 8136 0740 0000 0020 9f92 b3bf
000006e0: 0000 00c0 107f c6bf 0000 00e0 7e00 0740
000006f0: 0000 0040 70fe a23f 0000 0060 acc2 a5bf
00000700: 0000 0040 71f6 0540 0000 0060 128a 9cbf
00000710: 0000 0020 d097 aabf 0000 00e0 8cd8 0540
00000720: 0000 00c0 e23f a43f 0000 00e0 e2dd c7bf
00000730: 0000 0080 493b 0540 0000 00c0 237b 91bf
00000740: 0000 00a0 9d85 c7bf 0000 00c0 a047 0e40
00000750: 0000 00e0 2d4f d43f 0000 0000 db1a d1bf
00000760: 0000 00c0 63fc 1840 0000 0040 c182 cd3f
00000770: 0000 0080 f779 d3bf 0000 0060 bed1 1840
00000780: 0000 00c0 6296 d63f 0000 0020 778d cebf
00000790: 0000 0080 1568 1840 0000 0040 e594 c53f
000007a0: 0000 0080 b16a d23f 0000 00e0 763c 1a40
000007b0: 0000 0080 fd62 bc3f 0000 0020 49c5 d53f
000007c0: 0000 0020 e0a3 1940 0000 00a0 346f b4bf
000007d0: 0000 00a0 9b81 c93f 0000 0060 d47f 1c40
000007e0: 0000 0060 125e d1bf 0000 00a0 853e ce3f
000007f0: 0000 0040 527e 1b40 0000 0000 1917 bbbf
-0.19282065331935883 -0.254761278629303 2.889324188232422 -0.2926822900772095 -0.2406293898820877 2.905122756958008 -0.272250235080719 -0.1487160176038742
2.7809176445007324 -0.18409322202205658 0.2695077061653137 3.392923593521118 -0.1690463274717331 0.27025455236434937 3.419567584991455 0.216286301612854
0.2608186602592468 3.987518310546875 0.16620184481143951 0.2197570949792862 4.124688625335693 0.19865044951438904 -0.11286671459674835 3.974757671356201
-0.05866885185241699 0.14677637815475464 3.3458571434020996 -0.2008114755153656 0.09180419147014618 3.4323840141296387 0.24519109725952148 0.08111248910427094
3.928311347961426 0.11935412883758545 0.04743577539920807 4.0403008460998535 0.009571060538291931 -0.02235770970582962 3.216322898864746 -0.20116885006427765
-0.09621832519769669 3.318903923034668 -0.13196219503879547 0.2395530492067337 3.430478096008301 -0.18751947581768036 0.22989943623542786 3.471709966659546
0.22911334037780762 0.1758057177066803 4.032971382141113 0.19276642799377441 0.1356346160173416 4.1085357666015625 -0.1999661922454834 -0.12753009796142578
3.023548126220703 0.35875052213668823 -0.16055378317832947 4.255731582641602 -0.15312246978282928 -0.2561962306499481 3.0017080307006836 -0.27943283319473267
-0.23824171721935272 3.031681537628174 -0.21907930076122284 -0.12121392041444778 2.8653321266174316 -0.2687285840511322 -0.11822772771120071 2.87752103805542
-0.2598518431186676 -0.2247927486896515 2.773120880126953 0.26531001925468445 -0.10299453139305115 4.124453544616699 0.24723322689533234 -0.20625922083854675
5.3059210777282715 0.14032842218875885 -0.21254032850265503 5.242362022399902 0.29824697971343994 -0.10040243715047836 5.140791416168213 0.3533952236175537
0.32234999537467957 5.802114963531494 0.24112015962600708 0.2275489866733551 5.754186153411865 -0.07719771564006805 0.0590287521481514 6.335272312164307
-0.22029192745685577 0.17274457216262817 6.170603275299072 -0.2197134643793106 -0.08144617825746536 6.103997230529785 0.17375880479812622 0.11508827656507492
5.764138698577881 -0.009372202679514885 0.23826691508293152 5.6557111740112305 -0.06967326998710632 -0.022410474717617035 6.218785285949707 -0.27894407510757446
0.08908494561910629 6.0734968185424805 0.1082719936966896 -0.03362075239419937 5.619305610656738 -0.1062503457069397 0.08533839881420135 5.497076988220215
0.2975003123283386 0.2263067662715912 5.804448127746582 0.16295409202575684 0.24839407205581665 5.772254943847656 -0.14178749918937683 0.0005085021257400513
6.342020034790039 -0.2849220335483551 0.0865597352385521 6.212773323059082 0.13464179635047913 -0.07093971222639084 5.333226680755615 -0.010022765956819057
-0.058281123638153076 6.3122429847717285 0.19355987012386322 -0.22343593835830688 5.407634735107422 0.08484427630901337 -0.2285171002149582 5.343940258026123
0.23251847922801971 -0.05780944228172302 5.237777233123779 0.20398716628551483 -0.05834110826253891 5.218725204467773 0.2706451714038849 -0.15172293782234192
5.130895614624023 -0.1700272262096405 -0.03061860427260399 6.272660255432129 0.06952130794525146 -0.18000510334968567 2.7891578674316406 -0.037694498896598816
-0.19507616758346558 2.7658278942108154 0.027490466833114624 -0.07785283029079437 2.652860164642334 0.02682361751794815 0.2729107737541199 3.2266085147857666
-0.14335942268371582 0.2707223892211914 3.2089128494262695 0.04418651759624481 0.012018326669931412 3.7658517360687256 -0.08668594807386398 0.03655098378658295
3.7076163291931152 -0.03860372304916382 -0.18390987813472748 3.6639151573181152 0.026469876989722252 0.14406102895736694 3.209988594055176 -0.16716137528419495
0.14847663044929504 3.1973776817321777 0.03538590669631958 -0.10047285258769989 3.6940503120422363 -0.09823861718177795 -0.08232074230909348 3.675467014312744
0.011527881026268005 0.009612984955310822 3.113764762878418 -0.1751389503479004 0.0035440362989902496 3.095341205596924 0.03934004157781601 0.23802445828914642
3.2600979804992676 -0.15444143116474152 0.24399098753929138 3.246177911758423 0.02827271819114685 -0.05388057231903076 3.773292064666748 -0.07429568469524384
-0.02918132394552231 3.7440171241760254 -0.031477659940719604 -0.04401719570159912 2.884809970855713 0.03553289920091629 -0.21292439103126526 3.8532495498657227
0.06651812046766281 -0.15475775301456451 2.901613235473633 -0.07645601779222488 -0.17575272917747498 2.875241994857788 0.03709746152162552 -0.04250086471438408
2.745333194732666 -0.027870452031493187 -0.05193949118256569 2.7307374477386475 0.03954990953207016 -0.18645893037319183 2.6539487838745117 -0.017071302980184555
-0.18376512825489044 3.7849745750427246 0.3173327147960663 -0.26726412773132324 6.246474266052246 0.2305528223514557 -0.30431926250457764 6.204827785491943
0.3529288172721863 -0.23869217932224274 6.101644515991211 0.16860643029212952 0.2877620458602905 6.559047222137451 0.11088547110557556 0.3401663601398468
6.410034656524658 -0.0798218622803688 0.19926781952381134 7.124833583831787 -0.271366685628891 0.23628301918506622 6.873360633850098 -0.10582119226455688
