demo_out/run1/params.npz (npz, 11215 bytes, 4 tensors)

pose f8 [5, 105]
0	0x3ff1f8ca20000000	1.1232396364212036
1	0x3ff27ce4c0000000	1.155491590499878
2	0xbff2a23e60000000	-1.1646102666854858
3	0xbf805f9a60000000	-0.007994848303496838
4	0x3f844c2e00000000	0.009910926222801208
5	0x3f80099020000000	0.007830739952623844
6	0xbf8a6b4880000000	-0.012899938970804214
7	0x3f8e274560000000	0.014723340980708599
8	0x3f805e9ee0000000	0.007992974482476711
9	0xbfc4debb40000000	-0.16304722428321838
10	0x3f7e6ef980000000	0.007430052384734154
11	0x3f5de6a7a0000000	0.0018250119173899293
12	0xbfbf30dd60000000	-0.12183936685323715
13	0x3f813a9ea0000000	0.008412589319050312
14	0xbf78fb7f00000000	-0.006099220365285873
15	0xbfb508d240000000	-0.08216585218906403
16	0x3f8a9f6200000000	0.012999311089515686
17	0xbf8b4e9ca0000000	-0.013333533890545368
18	0xbf93b9a780000000	-0.019262902438640594
19	0x3fa0194620000000	0.03144282475113869
20	0xbf8919df20000000	-0.012256377376616001
21	0xbfbd1a2380000000	-0.11368009448051453
22	0x3fdd6ed8c0000000	0.45989054441452026
23	0xbfca0e9c80000000	-0.2035709023475647
24	0xbfcfdf13a0000000	-0.24899525940418243
25	0x3fdecf64e0000000	0.48140832781791687
26	0xbfc69c45a0000000	-0.17664404213428497
27	0xbfcfa7cb60000000	-0.2473081797361374
28	0x3fd6d264a0000000	0.3565913736820221
29	0xbfc30e52c0000000	-0.14887461066246033
30	0xbf95799760000000	-0.020971646532416344
31	0x3fc7a09760000000	0.18458835780620575
32	0xbfbe397020000000	-0.11806393414735794
33	0x3fb4f8ebe0000000	0.0819232389330864
34	0x3fdd1c8d60000000	0.4548676908016205
35	0xbf61b7d840000000	-0.002162859309464693
36	0x3fb0525520000000	0.0637562945485115
37	0x3fe078ef20000000	0.5147624611854553
38	0x3f88026960000000	0.011723349802196026
39	0x3fbaa040e0000000	0.1040077731013298
40	0x3fdc56ee80000000	0.4428058862686157
41	0x3fb135aaa0000000	0.0672251358628273
42	0xbfb7d6db00000000	-0.09312218427658081
43	0x3fca320f20000000	0.20465268194675446
44	0x3fb1abddc0000000	0.06902872025966644
45	0x3f827fb920000000	0.009032675065100193
46	0xbfa95e7860000000	-0.04954887554049492
47	0x3f8e37ea60000000	0.014755087904632092
48	0xbfa5950540000000	-0.042152561247348785
49	0x3f81434480000000	0.008429083973169327
50	0x3f6fc5fb80000000	0.003878585062921047
51	0xbfd410fd00000000	-0.3135368824005127
52	0xbfd561cc60000000	-0.3340941369533539
53	0x3fb3967700000000	0.07651466131210327
54	0x3fa0fd89a0000000	0.03318433836102486
55	0xbfe380cf60000000	-0.6094738841056824
56	0x3fc80a8300000000	0.18782079219818115
57	0xbfc34f3720000000	-0.1508549600839615
58	0xbfdbe90020000000	-0.4360962212085724
59	0x3f49a433a0000000	0.0007825138163752854
60	0xbfa3a03300000000	-0.03833159804344177
61	0xbfacf98900000000	-0.056591302156448364
62	0xbfaa6231a0000000	-0.05153040960431099
63	0x3fc26651a0000000	0.14374752342700958
64	0x3fdd2549e0000000	0.45540091395378113
65	0xbf9a9d3a20000000	-0.025990398600697517
66	0xbfc58e9f80000000	-0.16841500997543335
67	0x3fe1d76b80000000	0.5575463771820068
68	0x3faa140480000000	0.050933972001075745
69	0x3fb5fca000000000	0.08588600158691406
70	0x3fe06e2400000000	0.5134449005126953
71	0xbfbe8b6da0000000	-0.119315005838871
72	0x3f91bb6e80000000	0.017316557466983795
73	0x3fc0f078e0000000	0.13233862817287445
74	0x3f88ea5e60000000	0.01216577272862196
75	0xbfa4a3bfe0000000	-0.04031180962920189
76	0xbfaaff43a0000000	-0.05272876098752022
77	0x3f9d921d60000000	0.02887769602239132
78	0xbfa8d55140000000	-0.04850248247385025
79	0xbfa52a88a0000000	-0.04134013131260872
80	0x3f7f8a61c0000000	0.007700330577790737
81	0xbface1d1c0000000	-0.05641036480665207
82	0x3f791baa20000000	0.006129898596554995
83	0x3f801d7380000000	0.007868673652410507
84	0xbfb1529c20000000	-0.06766677647829056
85	0x3faa9de6c0000000	0.05198594182729721
86	0x3f6dc82800000000	0.0036354809999465942
87	0xbfb169ffe0000000	-0.0680236741900444
88	0x3fa6565660000000	0.04362745210528374
89	0xbf8171ebc0000000	-0.008518068119883537
90	0xbfa503eb20000000	-0.04104552045464516
91	0x3fa9f3ba40000000	0.05068761855363846
92	0xbf8c826300000000	-0.01392056792974472
93	0xbfa3e9f040000000	-0.038894183933734894
94	0x3fae410760000000	0.05908988043665886
95	0x3f79fbb560000000	0.006343563552945852
96	0xbfa82f7100000000	-0.04723694920539856
97	0x3fd243f5c0000000	0.2853979468345642
98	0xbf74723cc0000000	-0.004991757683455944
99	0x3f66a4fa00000000	0.0027642138302326202
100	0x3fc0aef780000000	0.13033956289291382
101	0xbfe4e53e60000000	-0.6529838442802429
102	0x3f65397160000000	0.002590867457911372
103	0x3fc65c0c80000000	0.17468410730361938
104	0x3fe1cc3740000000	0.5561786890029907
105	0x3ff1f8d9a0000000	1.123254418373108
106	0x3ff2833f80000000	1.1570429801940918
107	0xbff2a836a0000000	-1.1660677194595337
108	0xbf80c72980000000	-0.00819237157702446
109	0x3f8a6d1b20000000	0.012903415597975254
110	0x3f7c9b6f40000000	0.006984171457588673
111	0xbf8acfba00000000	-0.013091519474983215
112	0x3f91a23c00000000	0.01722043752670288
113	0x3f7efccda0000000	0.007565310690551996
114	0xbfc45af040000000	-0.15902522206306458
115	0x3f834158c0000000	0.00940198265016079
116	0x3f61123e60000000	0.0020838945638388395
117	0xbfbe739ce0000000	-0.11895161122083664
118	0x3f8397b820000000	0.009566725231707096
119	0xbf7a652f60000000	-0.006444153841584921
120	0xbfb4764bc0000000	-0.07993005216121674
121	0x3f8a6c5100000000	0.0129019096493721
122	0xbf8d4997e0000000	-0.01430052425712347
123	0xbf9232d020000000	-0.01777196116745472
124	0x3f9fbb6180000000	0.030988238751888275
125	0xbf8951ace0000000	-0.012362814508378506
126	0xbfbcca2700000000	-0.11245959997177124
127	0x3fdda64c60000000	0.4632750451564789
128	0xbfca9addc0000000	-0.20785114169120789
129	0xbfcfc09c20000000	-0.24806548655033112
130	0x3fdf15e300000000	0.48571085929870605
131	0xbfc779d2e0000000	-0.18340526521205902
132	0xbfcfe4d7c0000000	-0.24917122721672058
133	0x3fd782d060000000	0.3673592507839203
134	0xbfc3d20580000000	-0.15484684705734253
135	0xbf9b586880000000	-0.026704438030719757
136	0x3fc87de580000000	0.1913420557975769
137	0xbfbcd306a0000000	-0.11259499937295914
138	0x3fb44389e0000000	0.07915555685758591
139	0x3fdd5943e0000000	0.4585733115673065
140	0xbf6d9d2800000000	-0.00361497700214386
141	0x3fb089ba20000000	0.06460154801607132
142	0x3fe09e8120000000	0.519348680973053
143	0x3f891b5620000000	0.012259171344339848
144	0x3fb996b440000000	0.09995581209659576
145	0x3fdcc8bd40000000	0.44975215196609497
146	0x3fb0ee5ca0000000	0.06613711267709732
147	0xbfb711cce0000000	-0.09011536091566086
148	0x3fcad5cae0000000	0.20964942872524261
149	0x3fb02d61e0000000	0.06319247931241989
150	0x3f7e69c600000000	0.007425092160701752
151	0xbfaa6d0360000000	-0.05161295458674431
152	0x3f894fed80000000	0.012359481304883957
153	0xbfa519cf20000000	-0.0412125326693058
154	0x3f734bef00000000	0.004711087793111801
155	0x3f4716c640000000	0.000704619218595326
156	0xbfd38d5960000000	-0.3055022656917572
157	0xbfd6315ae0000000	-0.34676238894462585
158	0x3fb4be0c80000000	0.08102491497993469
159	0x3f9a3f2080000000	0.025631435215473175
160	0xbfe3ea5020000000	-0.622352659702301
161	0x3fc80dbd20000000	0.1879192739725113
162	0xbfc37a6fc0000000	-0.1521739661693573
163	0xbfdcb4dae0000000	-0.44853851199150085
164	0x3f795591a0000000	0.006185120437294245
165	0xbfaadfbe40000000	-0.05248827487230301
166	0xbfaea3e980000000	-0.05984430015087128
167	0xbfa85d8720000000	-0.04758856073021889
168	0x3fc1f8c1e0000000	0.14040397107601166
169	0x3fdd629340000000	0.4591415524482727
170	0xbf98bab6a0000000	-0.024149755015969276
171	0xbfc5eb5220000000	-0.17124392092227936
172	0x3fe2892f00000000	0.5792460441589355
173	0x3faa5bf2c0000000	0.05148275941610336
174	0x3fb5654a40000000	0.08357681334018707
175	0x3fe0a1e880000000	0.5197641849517822
176	0xbfbe5159e0000000	-0.11842881888151169
177	0x3f8d4b3da0000000	0.014303666539490223
178	0x3fbe3303c0000000	0.11796592175960541
179	0x3f8266b5a0000000	0.008984965272247791
180	0xbfa5080440000000	-0.04107678681612015
181	0xbfad03f0c0000000	-0.05667068809270859
182	0x3f9c5ad720000000	0.027690278366208076
183	0xbfa8e0e660000000	-0.048590850085020065
184	0xbfa89d9060000000	-0.048077117651700974
185	0x3f7d5e0c20000000	0.007169768679887056
186	0xbface25b40000000	-0.05641446262598038
187	0x3f76551a80000000	0.0054522547870874405
188	0x3f7fae04c0000000	0.007734316401183605
189	0xbfb1308c40000000	-0.06714703142642975
190	0x3fad38ffa0000000	0.057075489312410355
191	0x3f6ca42820000000	0.0034962447825819254
192	0xbfb152cc40000000	-0.06766964495182037
193	0x3fa9800c60000000	0.04980505630373955
194	0xbf7dd8c3c0000000	-0.007286801002919674
195	0xbfa67c32e0000000	-0.043916311115026474
196	0x3faa7efac0000000	0.051750026643276215
197	0xbf8877cfc0000000	-0.011947272345423698
198	0xbfa46c6620000000	-0.03988951817154884
199	0x3fab26eca0000000	0.05303134396672249
200	0x3f78c2b2a0000000	0.006045053247362375
201	0xbfa7321560000000	-0.04530398175120354
202	0x3fd257f1e0000000	0.2866177260875702
203	0xbf75ae4540000000	-0.005293150432407856
204	0xbf0532fc40000000	-4.04341917601414e-05
205	0x3fbec9da20000000	0.12026751786470413
206	0xbfe4a0d700000000	-0.6446337699890137
207	0x3f5bd3b2a0000000	0.0016984218964353204
208	0x3fc5f3e940000000	0.17150607705116272
209	0x3fe1482a60000000	0.5400592684745789
210	0x3ff1eaa260000000	1.1197837591171265
211	0x3ff27cec20000000	1.1554986238479614
212	0xbff2a22ba0000000	-1.1645923852920532
213	0xbf81a19780000000	-0.008608993142843246
214	0x3f8a99d720000000	0.012988739646971226
215	0x3f7d84e580000000	0.007206818088889122
216	0xbf8bcd7a00000000	-0.013575509190559387
217	0x3f91f9e620000000	0.01755485124886036
218	0x3f7f84e920000000	0.007695112843066454
219	0xbfc5113ba0000000	-0.16458840668201447
220	0x3f831c6900000000	0.009331531822681427
221	0x3f613cb020000000	0.002104133600369096
222	0xbfbf960ca0000000	-0.12338332086801529
223	0x3f832b2e80000000	0.009359706193208694
224	0xbf7b6ac3c0000000	-0.006693615578114986
225	0xbfb5052740000000	-0.08210988342761993
226	0x3f8a62c600000000	0.012883707880973816
227	0xbf8ebe44a0000000	-0.015011345036327839
228	0xbf92f9a240000000	-0.018530402332544327
229	0x3fa0388e20000000	0.03168148174881935
230	0xbf8a369860000000	-0.012799444608390331
231	0xbfbe0e17c0000000	-0.11740253865718842
232	0x3fde7ce960000000	0.4763740003108978
233	0xbfcb2fff80000000	-0.21240228414535522
234	0xbfd07ed1e0000000	-0.25774046778678894
235	0x3fdfe58160000000	0.49838289618492126
236	0xbfc7e145e0000000	-0.18656228482723236
237	0xbfd07c6140000000	-0.2575915455818176
238	0x3fd81985a0000000	0.37655773758888245
239	0xbfc419a240000000	-0.15703228116035461
240	0xbf9b2a41e0000000	-0.026528386399149895
241	0x3fc9244700000000	0.1964195966720581
242	0xbfbd2ad640000000	-0.11393488943576813
243	0x3fb5103de0000000	0.08227907866239548
244	0x3fde3f22c0000000	0.4726034998893738
245	0xbf729004e0000000	-0.004531878512352705
246	0x3fb10e7960000000	0.06662710756063461
247	0x3fe114b2a0000000	0.533776581287384
248	0x3f88313ec0000000	0.01181267760694027
249	0x3fba3dfda0000000	0.10250840336084366
250	0x3fdd960b40000000	0.4622829556465149
251	0x3fb1352520000000	0.06721717864274979
252	0xbfb7ce81a0000000	-0.09299478679895401
253	0x3fcb7f70e0000000	0.21482668817043304
254	0x3fb063c1e0000000	0.06402217596769333
255	0x3f7ff42c80000000	0.0078012216836214066

betas f8 [5, 41]
0	0xbfb4bb2e80000000	-0.08098116517066956
1	0x401a5081e0000000	6.578620433807373
2	0x402b0e5a60000000	13.528033256530762
3	0xc029ce67c0000000	-12.903135299682617
4	0xc0015f2600000000	-2.171459197998047
5	0xc017d99b80000000	-5.962507247924805
6	0xc0304e4580000000	-16.305747985839844
7	0x402372f1c0000000	9.72450065612793
8	0x402eeff5e0000000	15.468672752380371
9	0x4010127a60000000	4.018044948577881
10	0x4028b55480000000	12.35416030883789
11	0xc020733640000000	-8.22502326965332
12	0xc02558eb80000000	-10.67367172241211
13	0xc02fb5bba0000000	-15.854947090148926
14	0x401af8a340000000	6.742810249328613
15	0x402314fd60000000	9.540995597839355
16	0x3fd692a500000000	0.35270047187805176
17	0x4005ba7560000000	2.7160441875457764
18	0xc013952c20000000	-4.895676136016846
19	0xc01c59b600000000	-7.087608337402344
20	0xbfcc7b8360000000	-0.22251932322978973
21	0xc00eef2b80000000	-3.8667821884155273
22	0x3fe99343a0000000	0.7992265820503235
23	0xc006b10dc0000000	-2.836452007293701
24	0xbffe36f6e0000000	-1.8884190320968628
25	0xc000b64dc0000000	-2.089015483856201
26	0x3fcbf14a00000000	0.21830105781555176
27	0x3fccdcbfa0000000	0.22548671066761017
28	0xbfddcab120000000	-0.46549633145332336
29	0xbfdb063d80000000	-0.42225587368011475
30	0x3fb12a33e0000000	0.06705021113157272
31	0xbfe0ef41e0000000	-0.5292062163352966
32	0x3fb4a9c360000000	0.08071538060903549
33	0x3fb4ec71e0000000	0.0817328616976738
34	0xbfc08856e0000000	-0.12916074693202972
35	0xbfbb59fec0000000	-0.10684196650981903
36	0x3fb13a80e0000000	0.06729894131422043
37	0xbfc4563560000000	-0.15888087451457977
38	0xbfc5352080000000	-0.1656838059425354
39	0x3f8b5577e0000000	0.013346611522138119
40	0x3fef6b02c0000000	0.9818128347396851
41	0xbfb90f7a80000000	-0.09789243340492249
42	0x401aac7e00000000	6.668449401855469
43	0x402b692500000000	13.705360412597656
44	0xc02a0794a0000000	-13.014805793762207
45	0xc001fe8240000000	-2.249271869659424
46	0xc0195e9b80000000	-6.342390060424805
47	0xc03077e0c0000000	-16.468273162841797
48	0x4023828ae0000000	9.754965782165527
49	0x402f19f300000000	15.550682067871094
50	0x4010a1ab80000000	4.157880783081055
51	0x4028ce6640000000	12.40312385559082
52	0xc020ff0e40000000	-8.49815559387207
53	0xc025be9ca0000000	-10.872288703918457
54	0xc030449c20000000	-16.268007278442383
55	0x401a766880000000	6.615633010864258
56	0x4023d750e0000000	9.920538902282715
57	0x3fdc40ea40000000	0.44146209955215454
58	0x4006ce2480000000	2.8506555557250977
59	0xc014e6a2e0000000	-5.225230693817139
60	0xc01db18960000000	-7.423375606536865
61	0xbfc87cd6a0000000	-0.19130976498126984
62	0xc00f68b940000000	-3.9261345863342285
63	0x3fea4b0f00000000	0.821662425994873
64	0xc00797fac0000000	-2.9492087364196777
65	0xbffcfbe2a0000000	-1.8114954233169556
66	0xc000ee11e0000000	-2.1162450313568115
67	0x3fd1b92e60000000	0.27692756056785583
68	0x3fd26c8560000000	0.28787359595298767
69	0xbfe5784a60000000	-0.6709339022636414
70	0xbfe272a040000000	-0.576492428779602
71	0x3fb2cd85e0000000	0.0734485313296318
72	0xbfe7418060000000	-0.7267457842826843
73	0x3fb7f2a9c0000000	0.09354649484157562
74	0x3fb80997e0000000	0.09389638155698776
75	0xbfc9014740000000	-0.1953515112400055
76	0xbfc61eac80000000	-0.1728110909461975
77	0x3fbd418560000000	0.11428102105855942
78	0xbfcab598e0000000	-0.20866690576076508
79	0xbfcbcfb220000000	-0.21727587282657623
80	0xbf92d81340000000	-0.01840238645672798
81	0x3fefca50c0000000	0.9934467077255249
82	0xbfaa9af3a0000000	-0.0519634373486042
83	0x401a11b980000000	6.517309188842773
84	0x402adb5aa0000000	13.428425788879395
85	0xc029972be0000000	-12.795256614685059
86	0xc000a86800000000	-2.0822296142578125
87	0xc017e5d6c0000000	-5.974452018737793
88	0xc030307600000000	-16.189300537109375
89	0x40237e21e0000000	9.746352195739746
90	0x402f229640000000	15.56755256652832
91	0x400eea2000000000	3.86431884765625
92	0x40288807a0000000	12.2656831741333
93	0xc02048e4c0000000	-8.142370223999023
94	0xc02593b8c0000000	-10.788518905639648
95	0xc02f463a20000000	-15.637162208557129
96	0x401ac02ce0000000	6.687671184539795
97	0x402360bac0000000	9.688924789428711
98	0x3fd6dade60000000	0.3571086823940277
99	0x4006ca6140000000	2.848818302154541
100	0xc014183140000000	-5.023625373840332
101	0xc01c297420000000	-7.040482044219971
102	0xbfcc2faa60000000	-0.22020463645458221
103	0xc00ee35c20000000	-3.861015558242798
104	0x3fef17c080000000	0.9716494083404541
105	0xc006920740000000	-2.821302890777588
106	0xc00019af20000000	-2.0125410556793213
107	0xc0005cbb60000000	-2.0452792644500732
108	0x3fce51aae0000000	0.236867293715477
109	0x3fcd549ba0000000	0.22914452850818634
110	0xbfe1cc26c0000000	-0.5561708211898804
111	0xbfde893ba0000000	-0.47712603211402893
112	0x3fadd85920000000	0.0582912303507328
113	0xbfe3be0cc0000000	-0.6169494390487671
114	0x3fb3392540000000	0.07509072124958038
115	0x3fb2bd90a0000000	0.07320503145456314
116	0xbfc694b7a0000000	-0.17641349136829376
117	0xbfc28d9460000000	-0.1449456661939621
118	0x3fbb984b20000000	0.10779256373643875
119	0xbfc6c8c740000000	-0.178002268075943
120	0xbfc693d7a0000000	-0.1763867884874344
121	0xbf97301460000000	-0.022644346579909325
122	0x3fef4c9540000000	0.9780985116958618
123	0xbfc1c3eae0000000	-0.13879142701625824
124	0x401a7c94a0000000	6.6216607093811035
125	0x402b368ce0000000	13.60654354095459
126	0xc029d877a0000000	-12.9227876663208
127	0xc00285b0c0000000	-2.3152785301208496
128	0xc019848480000000	-6.379411697387695
129	0xc030593520000000	-16.348466873168945
130	0x4023443040000000	9.633180618286133
131	0x402eb21ee0000000	15.347891807556152
132	0x4010e42880000000	4.222810745239258
133	0x40289fbcc0000000	12.311986923217773
134	0xc0210545e0000000	-8.510298728942871
135	0xc0259049a0000000	-10.781811714172363
136	0xc0303fdd80000000	-16.249473571777344
137	0x401a5395a0000000	6.581625461578369
138	0x402394c120000000	9.790535926818848
139	0x3fdd1263c0000000	0.4542474150657654
140	0x4006e624c0000000	2.862374782562256
141	0xc014a6a340000000	-5.162732124328613
142	0xc01dab8de0000000	-7.4175333976745605
143	0xbfc8d638a0000000	-0.1940375119447708
144	0xc00f3d0120000000	-3.904787302017212
145	0x3fe68aa7c0000000	0.7044256925582886
146	0xc007af2d00000000	-2.9605350494384766
147	0xbffc52cea0000000	-1.7702165842056274
148	0xc00129e1a0000000	-2.1454498767852783
149	0x3fd0d86980000000	0.2632087469100952
150	0x3fcc80a500000000	0.22267591953277588
151	0xbfe0eccfa0000000	-0.5289075970649719
152	0xbfde0dec20000000	-0.46959975361824036
153	0x3fabc7e9a0000000	0.054259587079286575
154	0xbfe3a4cde0000000	-0.6138677000999451
155	0x3fb5673040000000	0.08360578119754791
156	0x3fb275f7e0000000	0.0721125528216362
157	0xbfc3fd9a60000000	-0.1561768501996994
158	0xbfc0d73c60000000	-0.13156847655773163
159	0x3fb804ef60000000	0.09382530301809311
160	0xbfc5594b20000000	-0.1667875200510025
161	0xbfc6962980000000	-0.17645758390426636
162	0xbf9012c820000000	-0.01569664664566517
163	0x3fef4dc660000000	0.9782440066337585
164	0xbfb925ea80000000	-0.09823480248451233
165	0x401a5104e0000000	6.57912015914917
166	0x402b1bc100000000	13.554206848144531
167	0xc029d54260000000	-12.916522026062012
168	0xc001b22580000000	-2.2119855880737305
169	0xc0180bbf60000000	-6.011472225189209
170	0xc03057b700000000	-16.342636108398438
171	0x40237e5400000000	9.746734619140625
172	0x402f0a0360000000	15.519556999206543
173	0x4010463020000000	4.068542957305908
174	0x4028cc99e0000000	12.399611473083496
175	0xc020a30480000000	-8.31839370727539
176	0xc02571cdc0000000	-10.722272872924805
177	0xc02feba240000000	-15.960222244262695
178	0x401ad32340000000	6.706189155578613
179	0x40235a7580000000	9.676677703857422
180	0x3fd61c6320000000	0.34548261761665344
181	0x4005d3c9c0000000	2.72841215133667
182	0xc013fbc420000000	-4.995865345001221
183	0xc01cabbea0000000	-7.16771936416626
184	0xbfc888ad00000000	-0.19167101383209229
185	0xc00f49d420000000	-3.9110491275787354
186	0x3feb2ab560000000	0.8489634394645691
187	0xc006f9bdc0000000	-2.871943950653076
188	0xbffeba4ca0000000	-1.9204832315444946
189	0xc000b68ca0000000	-2.0891354084014893
190	0x3fd108ac60000000	0.26615437865257263
191	0x3fc9669500000000	0.19844305515289307
192	0xbfdf468040000000	-0.4886780381202698
193	0xbfdc9a43c0000000	-0.44691556692123413
194	0x3facd0d440000000	0.05628073960542679
195	0xbfe282c100000000	-0.5784611701965332
196	0x3fb724d000000000	0.09040546417236328
197	0x3fb24cba40000000	0.07148326933383942
198	0xbfc238f6e0000000	-0.14236341416835785
199	0xbfbdb97c00000000	-0.11611151695251465
200	0x3fb5a5e2c0000000	0.08456246554851532
201	0xbfc476ef20000000	-0.15987958014011383
202	0xbfc661e560000000	-0.1748625487089157
203	0xbf8cfb6ae0000000	-0.014151415787637234
204	0x3fefa64180000000	0.9890449047088623

camera f8 [5, 3]
0	0x3fcba79e40000000	0.2160528004169464
1	0x405c000000000000	112.0
2	0x405c000000000000	112.0
3	0x3fc5c7ea20000000	0.17016340792179108
4	0x405c000000000000	112.0
5	0x405c000000000000	112.0
6	0x3fc5757b40000000	0.16764774918556213
7	0x405c000000000000	112.0
8	0x405c000000000000	112.0
9	0x3fcbb36b80000000	0.2164129614830017
10	0x405c000000000000	112.0
11	0x405c000000000000	112.0
12	0x3fcae46780000000	0.2100953459739685
13	0x405c000000000000	112.0
14	0x405c000000000000	112.0

joints3d f8 [5, 26, 3]
0	0xbfe6f77da0000000	-0.7177112698554993
1	0x3fe350bf20000000	0.6036067605018616
2	0xbff1597940000000	-1.0843441486358643
3	0xbfe7eb7f40000000	-0.7474972009658813
4	0x3fe2e97740000000	0.5909992456436157
5	0xbff160eae0000000	-1.086161494255066
6	0xbfe751a300000000	-0.7287154197692871
7	0x3fe370a460000000	0.6075002551078796
8	0xbff56aa340000000	-1.3385345935821533
9	0xbfe8b47b20000000	-0.7720313668251038
10	0x3fe6157000000000	0.6901168823242188
11	0xbfd7e10700000000	-0.3731095790863037
12	0xbfe98d3ce0000000	-0.7984909415245056
13	0x3fe5bc73c0000000	0.679254412651062
14	0xbfd7e82980000000	-0.3735450506210327
15	0xbfea84fd80000000	-0.8287341594696045
16	0x3fe7f2cb00000000	0.7483878135681152
17	0x3feddf5880000000	0.933513879776001
18	0xbfeb88af00000000	-0.8604350090026855
19	0x3fe86cbd80000000	0.7632739543914795
20	0x3ff63f3ec0000000	1.3904407024383545
21	0xbfeaaa2ea0000000	-0.8332741856575012
22	0x3fe5cec2a0000000	0.6814892888069153
23	0x3ff4ce7c40000000	1.3004114627838135
24	0xbfe7ed91c0000000	-0.7477501630783081
25	0x3fe589a180000000	0.6730506420135498
26	0xbfe42c7ea0000000	-0.6304314732551575
27	0xbfe9609660000000	-0.7930404543876648
28	0x3fe4cd5cc0000000	0.6500686407089233
29	0xbfe42f4d20000000	-0.6307740807533264
30	0xbfea81b740000000	-0.8283344507217407
31	0x3fe769b7c0000000	0.7316550016403198
32	0x3ff25e8280000000	1.148073673248291
33	0xbfeb729ac0000000	-0.8577398061752319
34	0x3fe799e200000000	0.7375345230102539
35	0x3ff2d3e7e0000000	1.1767348051071167
36	0xbfe76e5760000000	-0.732219398021698
37	0x3fe452b2a0000000	0.635094940662384
38	0xbfe3489280000000	-0.6026089191436768
39	0xbfe8b3dc40000000	-0.7719556093215942
40	0x3fe3ab0180000000	0.6146247386932373
41	0xbfe349a980000000	-0.6027419567108154
42	0xbfe83dfa40000000	-0.7575656175613403
43	0x3fe63ebbc0000000	0.6951578855514526
44	0xbfdf62e280000000	-0.4904104471206665
45	0xbfe9edbc00000000	-0.8102703094482422
46	0x3fe5795280000000	0.6710598468780518
47	0xbfdf7118a0000000	-0.4912778437137604
48	0xbfea874d40000000	-0.8290163278579712
49	0x3fe7463ca0000000	0.7273238301277161
50	0x3ff27483c0000000	1.1534459590911865
51	0xbfeb4c1f20000000	-0.8530421853065491
52	0x3fe7262520000000	0.7234063744544983
53	0x3ff2676760000000	1.1502450704574585
54	0xbfe79f78c0000000	-0.738216757774353
55	0x3fe32cef20000000	0.5992351174354553
56	0xbfe6940240000000	-0.705567479133606
57	0xbfeab61d60000000	-0.8347308039665222
58	0x3fe7042360000000	0.7192551493644714
59	0x3fed48df20000000	0.9151454567909241
60	0xbfe6a20800000000	-0.7072792053222656
61	0x3fe35a6660000000	0.604785144329071
62	0xbff004f7e0000000	-1.0012129545211792
63	0xbfe80d6340000000	-0.7516342401504517
64	0x3fe29fefa0000000	0.5820234417915344
65	0xbff00e6d60000000	-1.003522276878357
66	0xbfe6ff2340000000	-0.7186447381973267
67	0x3fe46eba40000000	0.6385165452957153
68	0xbfeee87100000000	-0.965874195098877
69	0xbfe8b395a0000000	-0.7719219326972961
70	0x3fe36d3b60000000	0.6070839762687683
71	0xbfeec9b1a0000000	-0.9621208310127258
72	0xbfe715e3a0000000	-0.721422016620636
73	0x3fe30119c0000000	0.5938843488693237
74	0xbff46900e0000000	-1.2756356000900269
75	0xbfeb9bc9c0000000	-0.8627671003341675
76	0x3fe76aedc0000000	0.7318028211593628
77	0x3ffa585840000000	1.6465685367584229
78	0xbfe784d040000000	-0.7349625825881958
79	0x3fe3eca5a0000000	0.6226375699043274
80	0xbff1847740000000	-1.0948402881622314
81	0xbfe85a2ca0000000	-0.7610076069831848
82	0x3fe3991e20000000	0.6124411225318909
83	0xbff18b76c0000000	-1.0965487957000732
84	0xbfe7eac100000000	-0.7474064826965332
85	0x3fe42dd000000000	0.6305923461914062
86	0xbff59cabc0000000	-1.3507497310638428
87	0xbfe8d93a00000000	-0.7765169143676758
88	0x3fe67ef8a0000000	0.7029994130134583
89	0xbfd84b1620000000	-0.3795829117298126
90	0xbfe9cb82c0000000	-0.8060926198959351
91	0x3fe6216540000000	0.6915766000747681
92	0xbfd8582b60000000	-0.38038143515586853
93	0xbfea84ac40000000	-0.8286954164505005
94	0x3fe80d3780000000	0.7516133785247803
95	0x3feda40100000000	0.9262700080871582
96	0xbfeb9933a0000000	-0.8624513745307922
97	0x3fe88cca00000000	0.767186164855957
98	0x3ff61b6000000000	1.381683349609375
99	0xbfeac1ece0000000	-0.8361725211143494
100	0x3fe63c2600000000	0.6948423385620117
101	0x3ff4b6af80000000	1.2946009635925293
102	0xbfe846a800000000	-0.7586250305175781
103	0x3fe616d1c0000000	0.6902855634689331
104	0xbfe49f6d80000000	-0.6444613933563232
105	0xbfe9b5d660000000	-0.8034469485282898
106	0x3fe5617480000000	0.6681463718414307
107	0xbfe4a1e840000000	-0.6447640657424927
108	0xbfea9e4cc0000000	-0.8318237066268921
109	0x3fe7c9b480000000	0.7433722019195557
110	0x3ff245ba40000000	1.1420233249664307
111	0xbfeb7a5c00000000	-0.8586864471435547
112	0x3fe7fcc8c0000000	0.7496074438095093
113	0x3ff2a95f00000000	1.1663503646850586
114	0xbfe7d51420000000	-0.7447605729103088
115	0x3fe4ea3be0000000	0.6535930037498474
116	0xbfe3c39940000000	-0.6176267862319946
117	0xbfe90e26c0000000	-0.7829774618148804
118	0x3fe44d0aa0000000	0.6344044804573059
119	0xbfe3c45600000000	-0.6177167892456055
120	0xbfe8818a40000000	-0.7658129930496216
121	0x3fe6bd9e00000000	0.7106466293334961
122	0xbfdfd54ae0000000	-0.49739333987236023
123	0xbfea379860000000	-0.8192865252494812
124	0x3fe5fcd6a0000000	0.6871140599250793
125	0xbfdfe58d60000000	-0.4983857572078705
126	0xbfeaa25ba0000000	-0.8323190808296204
127	0x3fe79f14a0000000	0.7381690144538879
128	0x3ff2640180000000	1.1494154930114746
129	0xbfeb4fe800000000	-0.8535041809082031
130	0x3fe77fb4a0000000	0.7343390583992004
131	0x3ff22f3f00000000	1.1365346908569336
132	0xbfe80a1920000000	-0.7512326836585999
133	0x3fe3d63e20000000	0.6199026703834534
134	0xbfe6f31900000000	-0.7171750068664551
135	0xbfeabc6f80000000	-0.8355023860931396
136	0x3fe767b960000000	0.7314116358757019
137	0x3feaafc920000000	0.8339582085609436
138	0xbfe71e4300000000	-0.7224440574645996
139	0x3fe3f92aa0000000	0.6241658329963684
140	0xbff035eee0000000	-1.0131672620773315
141	0xbfe881ef40000000	-0.7658611536026001
142	0x3fe3496bc0000000	0.6027125120162964
143	0xbff03e90c0000000	-1.0152747631072998
144	0xbfe77fd440000000	-0.7343541383743286
145	0x3fe51813a0000000	0.6591890454292297
146	0xbfef107460000000	-0.9707586169242859
147	0xbfe92555c0000000	-0.7858074903488159
148	0x3fe42403a0000000	0.6293962597846985
149	0xbfeeed84a0000000	-0.9664939045906067
150	0xbfe7a26c40000000	-0.7385770082473755
151	0x3fe3af3800000000	0.6151390075683594
152	0xbff48dbf20000000	-1.2846060991287231
153	0xbfeba8e280000000	-0.864365816116333
154	0x3fe7e35b80000000	0.7465035915374756
155	0x3ffa2e5fc0000000	1.636321783065796
156	0xbfe70e69c0000000	-0.72050940990448
157	0x3fe40db340000000	0.6266723871231079
158	0xbff169b3c0000000	-1.088306188583374
159	0xbfe80f4b40000000	-0.7518669366836548
160	0x3fe39df240000000	0.6130305528640747
161	0xbff16ffb20000000	-1.0898391008377075
162	0xbfe799aa40000000	-0.7375079393386841
163	0x3fe454e4c0000000	0.635362982749939
164	0xbff5767660000000	-1.3414214849472046
165	0xbfe87a4680000000	-0.7649261951446533
166	0x3fe69347a0000000	0.7054784893989563
167	0xbfd73545a0000000	-0.36262646317481995
168	0xbfe968ccc0000000	-0.7940429449081421
169	0x3fe632b460000000	0.6936895251274109
170	0xbfd7435480000000	-0.3634845018386841
171	0xbfea3eaf00000000	-0.8201518058776855
172	0x3fe8252a60000000	0.7545368075370789
173	0x3fedad56c0000000	0.9274095296859741
174	0xbfeb680dc0000000	-0.8564518690109253
175	0x3fe8abb280000000	0.7709591388702393
176	0x3ff671af60000000	1.4027551412582397
177	0xbfea8e6d40000000	-0.8298860788345337
178	0x3fe6638be0000000	0.6996516585350037
179	0x3ff4e18bc0000000	1.3050649166107178
180	0xbfe8037fc0000000	-0.7504271268844604
181	0x3fe65afb40000000	0.6986061334609985
182	0xbfe4113cc0000000	-0.6271041631698608
183	0xbfe9723fe0000000	-0.7951964735984802
184	0x3fe59e7b60000000	0.6755959391593933
185	0xbfe4137260000000	-0.6273738741874695
186	0xbfea79ef00000000	-0.8273844718933105
187	0x3fe8210000000000	0.7540283203125
188	0x3ff25b77a0000000	1.1473308801651
189	0xbfeb4d4280000000	-0.8531811237335205
190	0x3fe85db8a0000000	0.7614405751228333
191	0x3ff2ed26c0000000	1.1828982830047607
192	0xbfe7871b80000000	-0.7352426052093506
193	0x3fe515c100000000	0.6589055061340332
194	0xbfe334b740000000	-0.6001850366592407
195	0xbfe8b35e20000000	-0.7718954682350159
196	0x3fe478ba80000000	0.6397373676300049
197	0xbfe334c7a0000000	-0.6001928448677063
198	0xbfe837ba80000000	-0.7568027973175049
199	0x3fe6ef8e40000000	0.7167426347732544
200	0xbfdedbc980000000	-0.48216474056243896
201	0xbfe9e6f1c0000000	-0.8094414472579956
202	0x3fe629b420000000	0.6925907731056213
203	0xbfdeeb31e0000000	-0.4831051528453827
204	0xbfea7fa680000000	-0.8280823230743408
205	0x3fe7fbaec0000000	0.749472975730896
206	0x3ff27600c0000000	1.1538093090057373
207	0xbfeb237fc0000000	-0.8480833768844604
208	0x3fe7f2ffc0000000	0.7484129667282104
209	0x3ff27a2ce0000000	1.1548279523849487
210	0xbfe7ae4980000000	-0.7400252819061279
211	0x3fe3f915c0000000	0.6241558790206909
212	0xbfe67d6c20000000	-0.7028103470802307
213	0xbfea9fc6a0000000	-0.8320038914680481
214	0x3fe7d746a0000000	0.7450287938117981
215	0x3fea5f7560000000	0.8241526484489441
216	0xbfe6c528e0000000	-0.7115673422813416
217	0x3fe420ef80000000	0.6290204524993896
218	0xbff0023660000000	-1.0005401372909546
219	0xbfe82c0400000000	-0.7553730010986328
220	0x3fe368ab40000000	0.6065269708633423
221	0xbff00b5120000000	-1.0027629137039185
222	0xbfe71afc20000000	-0.722044050693512
223	0x3fe53be7c0000000	0.6635626554489136
224	0xbfeef02a00000000	-0.9668169021606445
225	0xbfe8d5a720000000	-0.7760806679725647
226	0x3fe43327c0000000	0.6312445402145386
227	0xbfeece5400000000	-0.9626865386962891
228	0xbfe73f5680000000	-0.7264816761016846
229	0x3fe3b95120000000	0.6163716912269592
230	0xbff481d5a0000000	-1.2816978693008423
231	0xbfebacbe40000000	-0.8648368120193481
232	0x3fe8807c40000000	0.7656842470169067
233	0x3ffb41f780000000	1.7036051750183105
234	0xbfe6ccca60000000	-0.7124988436698914
235	0x3fe38c0d00000000	0.6108460426330566
236	0xbff113d400000000	-1.0673408508300781
237	0xbfe7913660000000	-0.7364761233329773
238	0x3fe33dbb00000000	0.601285457611084
239	0xbff11b95e0000000	-1.0692347288131714
240	0xbfe71f1be0000000	-0.7225474715232849
241	0x3fe3cf61c0000000	0.6190651655197144
242	0xbff51f5a60000000	-1.3201545476913452
243	0xbfe844a2a0000000	-0.7583783268928528
244	0x3fe6276e60000000	0.6923133730888367
245	0xbfd7661440000000	-0.3656054139137268
246	0xbfe92d1f00000000	-0.7867579460144043
247	0x3fe5cae3e0000000	0.6810168623924255
248	0xbfd77228a0000000	-0.366342693567276
249	0xbfea28c9a0000000	-0.8174789547920227
250	0x3fe80593c0000000	0.7506808042526245
251	0x3fedec7280000000	0.9351131916046143
252	0xbfeb1f51e0000000	-0.8475732207298279
253	0x3fe87e7040000000	0.7654343843460083
254	0x3ff612c540000000	1.3795826435089111
255	0xbfea57b960000000	-0.8232085108757019
