demo_out/run5/epoch10/params.npz (npz, 10615 bytes, 4 tensors)

pose f8 [5, 105]
000000 00 00 00 80 60 16 f3 3f 00 00 00 40 8c 1a f9 3f
       1.1929631233215332 1.568981409072876
000010 00 00 00 40 1a 94 f4 bf 00 00 00 00 4d e5 a2 bf
       -1.2861578464508057 -0.0369056761264801
000020 00 00 00 00 be 13 bc 3f 00 00 00 40 d4 4c d8 3f
       0.10967624187469482 0.3796892762184143
000030 00 00 00 a0 12 fe ab 3f 00 00 00 a0 03 85 c2 3f
       0.05467279627919197 0.14468427002429962
000040 00 00 00 c0 73 95 d1 bf 00 00 00 e0 fd 26 bc bf
       -0.274746835231781 -0.10996996611356735
000050 00 00 00 60 d4 3b c0 bf 00 00 00 60 32 2f bc bf
       -0.12682585418224335 -0.11009516566991806
000060 00 00 00 00 27 bc 94 bf 00 00 00 80 d7 fb d3 3f
       -0.02024899423122406 0.3122462034225464
000070 00 00 00 c0 9f 98 c2 3f 00 00 00 00 85 02 88 bf
       0.14528271555900574 -0.011723555624485016
000080 00 00 00 80 cf 72 c8 3f 00 00 00 00 7e b9 7d 3f
       0.1910037398338318 0.0072569772601127625
000090 00 00 00 80 b1 9f 9b bf 00 00 00 c0 46 78 dc 3f
       -0.026976369321346283 0.44484108686447144
0000a0 00 00 00 40 68 cd c1 bf 00 00 00 e0 29 18 db bf
       -0.13908103108406067 -0.4233498275279999
0000b0 00 00 00 e0 6b 19 cd 3f 00 00 00 80 99 96 d7 3f
       0.2273382991552353 0.3685668706893921
0000c0 00 00 00 c0 33 4c c1 3f 00 00 00 a0 3f f3 a8 3f
       0.13513800501823425 0.04873083904385567
0000d0 00 00 00 c0 98 6d 9c 3f 00 00 00 00 7e 4d a9 bf
       0.027761828154325485 -0.0494193434715271
0000e0 00 00 00 e0 f9 6c e5 bf 00 00 00 00 60 40 e6 bf
       -0.669552743434906 -0.6953582763671875
0000f0 00 00 00 60 7d ea ea 3f 00 00 00 80 f9 cb e1 bf
       0.8411242365837097 -0.5561492443084717
000100 00 00 00 c0 cc e0 9e bf 00 00 00 80 61 a1 d1 3f
       -0.03015441820025444 0.2754749059677124
000110 00 00 00 00 5c 69 65 3f 00 00 00 80 ad 42 d0 bf
       0.0026137158274650574 -0.2540696859359741
000120 00 00 00 e0 ec cc e6 bf 00 00 00 40 5d 98 df bf
       -0.7125152945518494 -0.4936745762825012
000130 00 00 00 00 e5 da c2 bf 00 00 00 00 bd 95 a8 3f
       -0.14730513095855713 0.048017412424087524
000140 00 00 00 40 57 a7 e4 bf 00 00 00 80 b4 4f 9f 3f
       -0.6454273462295532 0.030577488243579865
000150 00 00 00 c0 a0 f4 d0 bf 00 00 00 80 e4 4b c0 3f
       -0.2649309039115906 0.12731605768203735
000160 00 00 00 40 42 1b c6 3f 00 00 00 40 91 03 d6 3f
       0.17270687222480774 0.3439677357673645
000170 00 00 00 40 0f e9 b9 bf 00 00 00 60 ab 98 db bf
       -0.10121245682239532 -0.43119320273399353
000180 00 00 00 c0 71 7c cf 3f 00 00 00 60 83 af c1 bf
       0.2459852397441864 -0.13816873729228973
000190 00 00 00 c0 32 49 dc bf 00 00 00 80 bf c5 9b 3f
       -0.4419676661491394 0.027121536433696747
0001a0 00 00 00 80 6a 54 d5 3f 00 00 00 00 6a b3 ce bf
       0.3332773447036743 -0.23985028266906738
0001b0 00 00 00 a0 9e dc ae bf 00 00 00 40 0a c4 e2 3f
       -0.06027694419026375 0.5864306688308716
0001c0 00 00 00 80 a1 03 ad bf 00 00 00 40 d0 fd 73 3f
       -0.05666832625865936 0.004880727268755436
0001d0 00 00 00 80 94 a6 e6 bf 00 00 00 c0 45 1f b9 3f
       -0.7078344821929932 0.09813342988491058
0001e0 00 00 00 80 80 19 c2 3f 00 00 00 80 4b aa d8 bf
       0.14140325784683228 -0.38539397716522217
0001f0 00 00 00 40 9e 80 b7 bf 00 00 00 80 47 50 b0 bf
       -0.0918063074350357 -0.06372496485710144
000200 00 00 00 c0 60 b7 d4 3f 00 00 00 c0 82 c7 d8 3f
       0.3236925005912781 0.38717716932296753
000210 00 00 00 40 54 8c c1 3f 00 00 00 40 f4 51 cf 3f
       0.13709500432014465 0.24468854069709778
000220 00 00 00 20 2a c5 ad bf 00 00 00 40 6f c2 c3 bf
       -0.05814487114548683 -0.15437117218971252
000230 00 00 00 c0 5e 86 d6 bf 00 00 00 60 38 ed c2 bf
       -0.3519513010978699 -0.14786438643932343
000240 00 00 00 00 97 8e c8 bf 00 00 00 a0 7c 2c e4 bf
       -0.19185149669647217 -0.6304305195808411
000250 00 00 00 00 53 17 b9 3f 00 00 00 c0 f5 cd b3 3f
       0.09801214933395386 0.07736144959926605
000260 00 00 00 00 26 23 c4 bf 00 00 00 40 0e 42 a8 3f
       -0.15732264518737793 0.047378964722156525
000270 00 00 00 20 e2 89 d1 bf 00 00 00 a0 5c 46 e4 3f
       -0.27404072880744934 0.6335890889167786
000280 00 00 00 e0 3d 8b d7 3f 00 00 00 00 47 bf d2 bf
       0.3678736388683319 -0.2929246425628662
000290 00 00 00 80 b2 06 d2 3f 00 00 00 a0 bb 3f b8 bf
       0.28165876865386963 -0.09472248703241348
0002a0 00 00 00 e0 9b fa 99 3f 00 00 00 80 06 b5 d1 3f
       0.02537005953490734 0.27667391300201416
0002b0 00 00 00 e0 52 1f c7 bf 00 00 00 e0 59 1a b2 bf
       -0.18064342439174652 -0.07071458548307419
0002c0 00 00 00 e0 61 f8 e0 3f 00 00 00 a0 ef 4f bb 3f
       0.5303201079368591 0.1066884770989418
0002d0 00 00 00 20 37 2e c8 3f 00 00 00 e0 4e 90 cb 3f
       0.1889103800058365 0.21534143388271332
0002e0 00 00 00 e0 d1 ea d9 bf 00 00 00 a0 7a 1e b6 3f
       -0.40495726466178894 0.08640257269144058
0002f0 00 00 00 80 8f 67 9a bf 00 00 00 60 de f1 d2 3f
       -0.025785677134990692 0.2960124909877777
000300 00 00 00 80 88 b6 dd 3f 00 00 00 00 5a fb e7 bf
       0.46426594257354736 -0.7494325637817383
000310 00 00 00 60 b2 56 db 3f 00 00 00 60 7d 2b ec bf
       0.42716655135154724 -0.8803088068962097
000320 00 00 00 60 6b 27 e7 3f 00 00 00 80 d8 12 d9 bf
       0.7235619425773621 -0.3917752504348755
000330 00 00 00 80 8f 6b ba 3f 00 00 00 80 75 dc e2 3f
       0.10320374369621277 0.5894114971160889
000340 00 00 00 e0 44 7a f6 3f 00 00 00 40 95 fe f3 3f
       1.4048508405685425 1.2496540546417236
000350 00 00 00 80 c8 79 f9 3f 00 00 00 e0 b2 93 f2 bf
       1.5922322273254395 -1.1610592603683472
000360 00 00 00 20 72 d2 a7 bf 00 00 00 20 e9 70 9d bf
       -0.046527449041604996 -0.028751032426953316
000370 00 00 00 40 14 8d c5 3f 00 00 00 80 50 92 8b bf
       0.1683678925037384 -0.013462666422128677
000380 00 00 00 40 53 b3 c7 3f 00 00 00 80 4c 97 ca bf
       0.1851600706577301 -0.20774227380752563
000390 00 00 00 c0 af a7 b4 bf 00 00 00 c0 2b 88 be bf
       -0.08068369328975677 -0.11926530301570892
0003a0 00 00 00 00 a1 94 8e bf 00 00 00 80 ab 48 a3 bf
       -0.014931924641132355 -0.03766380250453949
0003b0 00 00 00 60 43 0b d3 3f 00 00 00 c0 90 3c b3 3f
       0.29756245017051697 0.07514290511608124
0003c0 00 00 00 00 c5 12 91 bf 00 00 00 c0 70 9b c8 3f
       -0.016673162579536438 0.19224366545677185
0003d0 00 00 00 00 80 a8 18 3f 00 00 00 80 47 67 64 bf
       9.406358003616333e-05 -0.002490653656423092
0003e0 00 00 00 c0 28 12 de 3f 00 00 00 00 f6 78 74 3f
       0.4698583483695984 0.004998169839382172
0003f0 00 00 00 80 fe 79 d5 bf 00 00 00 40 db 13 bd bf
       -0.33557093143463135 -0.1135842353105545
000400 00 00 00 00 cb 07 c5 3f 00 00 00 e0 96 93 dc 3f
       0.1643003225326538 0.44650813937187195
000410 00 00 00 00 43 95 db bf 00 00 00 c0 87 2c c0 3f
       -0.4309852123260498 0.12635895609855652
000420 00 00 00 00 3a e3 86 bf 00 00 00 60 0a c9 e4 bf
       -0.011175587773323059 -0.6495410799980164
000430 00 00 00 40 d3 5a d7 bf 00 00 00 40 08 5b e5 3f
       -0.3649185299873352 0.6673623323440552
000440 00 00 00 80 50 69 b1 bf 00 00 00 80 aa 35 c4 bf
       -0.06801322102546692 -0.1578877568244934
000450 00 00 00 40 5d b0 d7 3f 00 00 00 40 fb fc b3 3f
       0.3701394200325012 0.07807894051074982
000460 00 00 00 80 81 04 cb bf 00 00 00 e0 6d d9 d7 bf
       -0.21107500791549683 -0.3726458251476288
000470 00 00 00 e0 67 60 d9 bf 00 00 00 40 5d 6a b6 bf
       -0.3965091407299042 -0.0875604897737503
000480 00 00 00 20 0e c3 a6 bf 00 00 00 80 b6 a2 ec bf
       -0.044456902891397476 -0.8948624134063721
000490 00 00 00 20 c4 87 e1 3f 00 00 00 60 cb f1 e3 bf
       0.5478230118751526 -0.6232659220695496
0004a0 00 00 00 e0 f7 44 e3 bf 00 00 00 c0 95 0f d1 3f
       -0.6021689772605896 0.26657623052597046
0004b0 00 00 00 00 5f 6b cf 3f 00 00 00 a0 84 ae a1 bf
       0.24546420574188232 -0.03453459218144417
0004c0 00 00 00 40 69 c6 d5 bf 00 00 00 00 64 97 aa 3f
       -0.34023505449295044 0.05193626880645752
0004d0 00 00 00 00 6b 56 d8 bf 00 00 00 e0 0c 01 e4 bf
       -0.38027453422546387 -0.6251282095909119
0004e0 00 00 00 20 3f 35 c7 3f 00 00 00 c0 7b 89 b4 3f
       0.1813124567270279 0.08022283017635345
0004f0 00 00 00 60 a2 a1 d9 bf 00 00 00 c0 0c ff 81 3f
       -0.4004903733730316 0.008787250146269798
000500 00 00 00 e0 57 8b de 3f 00 00 00 c0 4e 49 a4 3f
       0.47725483775138855 0.03962179273366928
000510 00 00 00 c0 82 91 c1 3f 00 00 00 00 b7 34 e9 bf
       0.13725313544273376 -0.7876849174499512
000520 00 00 00 40 ec 50 ca 3f 00 00 00 60 6a 89 ad 3f
       0.20559456944465637 0.05768902227282524
000530 00 00 00 80 1d fa d8 bf 00 00 00 e0 e1 cf b9 bf
       -0.3902658224105835 -0.10082828253507614
000540 00 00 00 e0 db 90 a9 3f 00 00 00 80 84 38 d6 3f
       0.049933310598134995 0.34719955921173096
000550 00 00 00 c0 8f a7 d7 3f 00 00 00 00 c8 2b a9 3f
       0.36960214376449585 0.04916214942932129
000560 00 00 00 60 74 72 cb 3f 00 00 00 00 ab c7 7f 3f
       0.21443037688732147 0.007758777588605881
000570 00 00 00 e0 be 56 c4 bf 00 00 00 60 02 ea de bf
       -0.158897265791893 -0.48303279280662537
000580 00 00 00 80 46 0c c8 bf 00 00 00 40 20 64 c2 bf
       -0.18787461519241333 -0.143680602312088
000590 00 00 00 20 34 aa e0 bf 00 00 00 00 b5 13 a5 3f
       -0.5207768082618713 0.04116597771644592
0005a0 00 00 00 00 17 7d 89 bf 00 00 00 e0 5f ec c9 bf
       -0.012445621192455292 -0.20252607762813568
0005b0 00 00 00 c0 67 16 ce bf 00 00 00 00 cb 5a 9f bf
       -0.2350587546825409 -0.0306197851896286
0005c0 00 00 00 a0 50 0e e1 3f 00 00 00 00 1c bc c3 bf
       0.5329974293708801 -0.15417814254760742
0005d0 00 00 00 20 44 56 aa 3f 00 00 00 20 5b c3 c0 3f
       0.05143940821290016 0.13096179068088531
0005e0 00 00 00 c0 0c 00 cb bf 00 00 00 40 d8 42 b3 3f
       -0.21093901991844177 0.07523871958255768
0005f0 00 00 00 c0 50 a4 bb 3f 00 00 00 20 34 5d b0 bf
       0.10797600448131561 -0.06392217427492142
000600 00 00 00 00 aa eb 6f 3f 00 00 00 00 31 81 d5 3f
       0.0038965530693531036 0.336010217666626
000610 00 00 00 80 1e 3b b5 3f 00 00 00 80 0c 8c cf bf
       0.08293333649635315 -0.24646145105361938
000620 00 00 00 c0 12 d0 ba 3f 00 00 00 a0 7d 20 c1 3f
       0.10473744571208954 0.13380403816699982
000630 00 00 00 e0 eb db d2 bf 00 00 00 80 c8 6b cb bf
       -0.2946729362010956 -0.21422678232192993
000640 00 00 00 60 c2 07 97 3f 00 00 00 40 3c c8 d5 3f
       0.02249053679406643 0.34034639596939087
000650 00 00 00 40 b0 d8 e7 bf 00 00 00 80 ca 57 ce 3f
       -0.7452012300491333 0.23705416917800903
000660 00 00 00 60 48 9b f4 bf 00 00 00 c0 21 33 f1 3f
       -1.28791081905365 1.0749833583831787
000670 00 00 00 a0 27 4f d4 bf 00 00 00 00 66 fc d3 3f
       -0.3173312246799469 0.31228017807006836
000680 00 00 00 c0 79 d6 f2 3f 00 00 00 80 3a 22 fc 3f
       1.1773622035980225 1.7583565711975098
000690 00 00 00 00 f8 91 f3 3f 00 00 00 40 07 ac fa 3f
       1.2231369018554688 1.666999101638794
0006a0 00 00 00 80 f6 e6 f4 bf 00 00 00 c0 83 55 a6 bf
       -1.3063874244689941 -0.04362117499113083
0006b0 00 00 00 60 40 7e c3 bf 00 00 00 a0 e3 e8 c1 bf
       -0.15229038894176483 -0.139919713139534
0006c0 00 00 00 e0 fb 02 a4 bf 00 00 00 c0 42 30 c0 3f
       -0.0390852652490139 0.12647280097007751
0006d0 00 00 00 40 8c 6b 90 3f 00 00 00 20 cf 51 c7 bf
       0.016035262495279312 -0.1821841150522232
0006e0 00 00 00 40 ca 7f a5 3f 00 00 00 80 13 37 a7 bf
       0.04199058562517166 -0.04534207284450531
0006f0 00 00 00 e0 10 c5 b8 bf 00 00 00 40 d0 3b c5 3f
       -0.09675698727369308 0.16588786244392395
000700 00 00 00 80 bb 1c a1 bf 00 00 00 00 5f b9 b2 bf
       -0.03342233598232269 -0.07314103841781616
000710 00 00 00 20 85 c0 cb 3f 00 00 00 00 b7 c8 bc bf
       0.21681274473667145 -0.1124376654624939
000720 00 00 00 20 5e c8 cb 3f 00 00 00 40 9a 20 df 3f
       0.21705223619937897 0.4863649010658264
000730 00 00 00 80 de 50 b8 bf 00 00 00 80 3f 23 e2 bf
       -0.09498396515846252 -0.5668027400970459
000740 00 00 00 00 24 8a 71 3f 00 00 00 c0 1f d2 b7 3f
       0.004282131791114807 0.09304998815059662
000750 00 00 00 c0 b9 47 e4 3f 00 00 00 00 2d 4e e1 bf
       0.6337555646896362 -0.5407929420471191
000760 00 00 00 a0 47 51 d6 3f 00 00 00 60 18 58 b1 bf
       0.34871092438697815 -0.0677504763007164
000770 00 00 00 00 43 2c c3 bf 00 00 00 00 3f 23 8f 3f
       -0.1497882604598999 0.015203945338726044
000780 00 00 00 00 6f a3 d9 3f 00 00 00 c0 14 1c bf 3f
       0.4006001949310303 0.12152223289012909
000790 00 00 00 e0 d9 96 a3 bf 00 00 00 c0 b6 fb e0 3f
       -0.03826027736067772 0.5307267904281616
0007a0 00 00 00 e0 4d f3 cb 3f 00 00 00 00 9b 83 c5 bf
       0.21836255490779877 -0.16807878017425537
0007b0 00 00 00 80 c6 90 d7 bf 00 00 00 c0 1d 94 c9 bf
       -0.36821138858795166 -0.19983264803886414
0007c0 00 00 00 e0 b4 23 cb 3f 00 00 00 00 d0 62 5b bf
       0.2120271772146225 -0.0016715079545974731
0007d0 00 00 00 a0 ec b6 d3 bf 00 00 00 c0 60 97 e6 3f
       -0.3080398142337799 0.7059787511825562
0007e0 00 00 00 c0 7c b1 de bf 00 00 00 c0 a9 b3 d3 bf
       -0.4795829653739929 -0.3078407645225525
0007f0 00 00 00 c0 46 6e b5 3f 00 00 00 e0 f4 9a aa 3f
       0.08371393382549286 0.05196347460150719

betas f8 [5, 26]
000000 00 00 00 e0 b3 7f d6 bf 00 00 00 40 c2 a4 e2 3f
       -0.3515443503856659 0.582612156867981
000010 00 00 00 e0 5a be fa bf 00 00 00 e0 07 86 d3 bf
       -1.6714733839035034 -0.3050555884838104
000020 00 00 00 40 1c 25 03 40 00 00 00 20 0d 61 16 40
       2.393120288848877 5.594776630401611
000030 00 00 00 60 03 69 22 40 00 00 00 40 0a f9 fd 3f
       9.205103874206543 1.8733007907867432
000040 00 00 00 20 de b9 22 40 00 00 00 40 d7 73 11 c0
       9.363022804260254 -4.363125801086426
000050 00 00 00 c0 75 88 04 c0 00 00 00 00 ff 52 18 c0
       -2.5666308403015137 -6.081050872802734
000060 00 00 00 40 78 18 31 40 00 00 00 20 7d 89 0c 40
       17.095584869384766 3.5671331882476807
000070 00 00 00 c0 27 f3 de 3f 00 00 00 a0 93 e6 03 c0
       0.4835910201072693 -2.487586259841919
000080 00 00 00 a0 ba 6c f7 bf 00 00 00 60 40 cb 05 c0
       -1.4640451669692993 -2.7242438793182373
000090 00 00 00 60 fc ab 19 40 00 00 00 e0 57 a5 10 c0
       6.417954921722412 -4.161468029022217
0000a0 00 00 00 40 35 dc 15 c0 00 00 00 a0 d6 d6 08 c0
       -5.4650468826293945 -3.1049015522003174
0000b0 00 00 00 e0 ca 9d 13 c0 00 00 00 00 61 b7 21 c0
       -4.904094219207764 -8.858161926269531
0000c0 00 00 00 40 24 45 b2 3f 00 00 00 80 fa ea 0a c0
       0.07136751711368561 -3.3647356033325195
0000d0 00 00 00 a0 9b 74 d4 bf 00 00 00 60 4a d0 d3 bf
       -0.3196171820163727 -0.3095880448818207
0000e0 00 00 00 a0 ad 5f e8 bf 00 00 00 40 17 54 e2 3f
       -0.761679470539093 0.5727649927139282
0000f0 00 00 00 e0 3a 88 0a 40 00 00 00 60 7d 6e 16 40
       3.316518545150757 5.607900142669678
000100 00 00 00 a0 4c 89 21 40 00 00 00 c0 87 93 19 40
       8.768162727355957 6.394072532653809
000110 00 00 00 40 9f 6b 1a 40 00 00 00 a0 7b f7 0a c0
       6.605099678039551 -3.3708412647247314
000120 00 00 00 e0 ff 7c ea bf 00 00 00 40 27 da 1b c0
       -0.8277587294578552 -6.963040351867676
000130 00 00 00 a0 85 0a 2e 40 00 00 00 40 af 60 06 40
       15.020550727844238 2.7972092628479004
000140 00 00 00 a0 6f 65 e8 bf 00 00 00 e0 ed 34 f9 bf
       -0.7623823285102844 -1.5754221677780151
000150 00 00 00 a0 21 a4 f0 bf 00 00 00 e0 8a fd 00 c0
       -1.0400711297988892 -2.123800039291382
000160 00 00 00 80 3a 95 12 40 00 00 00 60 f1 50 0b c0
       4.645730972290039 -3.414522886276245
000170 00 00 00 e0 3e 89 14 c0 00 00 00 00 5a 46 05 c0
       -5.134028911590576 -2.659351348876953
000180 00 00 00 80 ad 28 10 c0 00 00 00 c0 b2 67 1b c0
       -4.039724349975586 -6.8512678146362305
000190 00 00 00 40 36 c3 b5 bf 00 00 00 60 70 36 10 c0
       -0.08500994741916656 -4.053163051605225
0001a0 00 00 00 a0 cb 16 e2 bf 00 00 00 60 1b d8 e7 3f
       -0.5652826428413391 0.7451302409172058
0001b0 00 00 00 40 37 81 d9 bf 00 00 00 40 9b e5 eb bf
       -0.39851170778274536 -0.871778130531311
0001c0 00 00 00 40 f8 d5 05 40 00 00 00 c0 20 28 11 40
       2.7294774055480957 4.289187431335449
0001d0 00 00 00 20 87 62 1c 40 00 00 00 40 92 2d 1a 40
       7.096218585968018 6.544503211975098
0001e0 00 00 00 60 2e b1 19 40 00 00 00 40 9f 40 07 c0
       6.423028469085693 -2.9065537452697754
0001f0 00 00 00 a0 b9 9a be 3f 00 00 00 e0 f5 84 1d c0
       0.11954841762781143 -7.3798441886901855
000200 00 00 00 80 4a 40 2c 40 00 00 00 80 9b 13 05 40
       14.125568389892578 2.6345739364624023
000210 00 00 00 60 4c 13 e7 3f 00 00 00 80 b5 62 ef bf
       0.7211057543754578 -0.9807994365692139
000220 00 00 00 80 9a 40 f4 bf 00 00 00 c0 ed a6 d6 bf
       -1.2657723426818848 -0.3539385199546814
000230 00 00 00 c0 48 00 14 40 00 00 00 40 a3 15 0a c0
       5.000277519226074 -3.2605652809143066
000240 00 00 00 c0 fd 0c 12 c0 00 00 00 c0 50 dd 02 c0
       -4.512686729431152 -2.3580641746520996
000250 00 00 00 80 b9 e9 0b c0 00 00 00 60 0c ae 1e c0
       -3.4891233444213867 -7.669969081878662
000260 00 00 00 60 eb 12 d1 bf 00 00 00 80 6e 55 0c c0
       -0.26677975058555603 -3.541714668273926
000270 00 00 00 a0 02 57 d1 bf 00 00 00 60 8d 93 aa 3f
       -0.27093568444252014 0.05190698429942131
000280 00 00 00 a0 49 92 e5 bf 00 00 00 40 1f 62 ed 3f
       -0.6741073727607727 0.9182277917861938
000290 00 00 00 a0 c3 4d 08 40 00 00 00 e0 78 d2 10 40
       3.037970781326294 4.205539226531982
0002a0 00 00 00 60 75 c8 20 40 00 00 00 00 2b 46 1c 40
       8.391520500183105 7.068523406982422
0002b0 00 00 00 e0 4a 8b 16 40 00 00 00 80 c3 d7 01 c0
       5.636027812957764 -2.230353355407715
0002c0 00 00 00 80 46 08 a5 bf 00 00 00 20 01 de 1c c0
       -0.04107876121997833 -7.216801166534424
0002d0 00 00 00 00 d8 07 2b 40 00 00 00 80 a6 8d 03 40
       13.51531982421875 2.4441652297973633
0002e0 00 00 00 60 b9 f1 d4 3f 00 00 00 e0 31 09 a0 3f
       0.32725366950035095 0.031320150941610336
0002f0 00 00 00 00 35 ac f1 bf 00 00 00 e0 ab 8b fc bf
       -1.1045427322387695 -1.7840994596481323
000300 00 00 00 a0 63 9f 11 40 00 00 00 c0 db 26 0a c0
       4.405653476715088 -3.2689738273620605
000310 00 00 00 e0 7b e2 11 c0 00 00 00 00 55 f0 06 c0
       -4.471175670623779 -2.867349624633789
000320 00 00 00 60 bc d2 10 c0 00 00 00 60 5e 14 1b c0
       -4.205796718597412 -6.769891262054443
000330 00 00 00 00 a4 d1 e3 bf 00 00 00 00 76 90 10 c0
       -0.6193408966064453 -4.141075134277344
000340 00 00 00 60 d8 5d df bf 00 00 00 60 fc a3 d2 3f
       -0.4901028573513031 0.29125890135765076
000350 00 00 00 40 71 62 f7 bf 00 00 00 20 d8 2b d5 bf
       -1.461533784866333 -0.3308010399341583
000360 00 00 00 a0 ae b4 0a 40 00 00 00 00 2e ed 10 40
       3.338223695755005 4.231620788574219
000370 00 00 00 00 de e3 22 40 00 00 00 a0 89 2d 16 40
       9.445053100585938 5.544470310211182
000380 00 00 00 40 e5 d6 1d 40 00 00 00 80 e6 34 13 c0
       7.4598588943481445 -4.801660537719727
000390 00 00 00 40 80 d1 fb bf 00 00 00 40 f0 e4 1f c0
       -1.738647699356079 -7.973572731018066
0003a0 00 00 00 00 09 b2 32 40 00 00 00 80 b5 09 17 40
       18.695449829101562 5.759481430053711
0003b0 00 00 00 80 cd ad e3 3f 00 00 00 40 20 0c 12 c0
       0.6149661540985107 -4.511841773986816
0003c0 00 00 00 60 14 2b 07 c0 00 00 00 e0 f1 6a 09 c0
       -2.8960349559783936 -3.1772191524505615
0003d0 00 00 00 00 31 4a 18 40 00 00 00 e0 d8 e8 0b c0
       6.072452545166016 -3.488694906234741
0003e0 00 00 00 a0 e1 31 14 c0 00 00 00 a0 04 1f 06 c0
       -5.048712253570557 -2.7651455402374268
0003f0 00 00 00 00 56 2f 0e c0 00 00 00 c0 1a cb 21 c0
       -3.773113250732422 -8.896688461303711
000400 00 00 00 00 88 9c de 3f 00 00 00 e0 09 5b 11 c0
       0.4783039093017578 -4.338904857635498

camera f8 [5, 3]
000000 00 00 00 60 0b 38 0c c0 00 00 00 00 00 00 5c 40
       -3.5273654460906982 112.0
000010 00 00 00 00 00 00 5c 40 00 00 00 60 d1 98 0c c0
       112.0 -3.574618101119995
000020 00 00 00 00 00 00 5c 40 00 00 00 00 00 00 5c 40
       112.0 112.0
000030 00 00 00 a0 47 2c 0b c0 00 00 00 00 00 00 5c 40
       -3.396620988845825 112.0
000040 00 00 00 00 00 00 5c 40 00 00 00 e0 d5 e6 0b c0
       112.0 -3.4877126216888428
000050 00 00 00 00 00 00 5c 40 00 00 00 00 00 00 5c 40
       112.0 112.0
000060 00 00 00 c0 4e c7 0a c0 00 00 00 00 00 00 5c 40
       -3.347318172454834 112.0
000070 00 00 00 00 00 00 5c 40
       112.0

joints3d f8 [5, 26, 3]
000000 00 00 00 00 5a 43 a6 bf 00 00 00 80 33 32 96 bf
       -0.04348260164260864 -0.021675877273082733
000010 00 00 00 c0 81 c0 0e 40 00 00 00 40 bb 37 bb bf
       3.8439974784851074 -0.10631914436817169
000020 00 00 00 80 b1 db c5 bf 00 00 00 c0 93 28 10 40
       -0.17076700925827026 4.039626121520996
000030 00 00 00 80 a5 71 c0 3f 00 00 00 00 a4 fb b6 3f
       0.12846821546554565 0.08977723121643066
000040 00 00 00 c0 72 bd 0f 40 00 00 00 c0 ec 78 db 3f
       3.9675040245056152 0.4292556643486023
000050 00 00 00 a0 c9 c3 d5 bf 00 00 00 00 ec f2 10 40
       -0.34007492661476135 4.2372283935546875
000060 00 00 00 a0 fe 13 d7 3f 00 00 00 40 e2 f3 d6 bf
       0.36059537529945374 -0.35863548517227173
000070 00 00 00 40 0f fd 10 40 00 00 00 40 b9 fa da 3f
       4.247128486633301 0.42155295610427856
000080 00 00 00 80 11 50 d9 bf 00 00 00 c0 e4 62 11 40
       -0.3955119848251343 4.346575736999512
000090 00 00 00 e0 f2 17 da 3f 00 00 00 80 68 4a d9 bf
       0.4077117145061493 -0.3951665163040161
0000a0 00 00 00 a0 2b 68 11 40 00 00 00 c0 cb 9b d9 3f
       4.351728916168213 0.40013402700424194
0000b0 00 00 00 80 3c f9 da bf 00 00 00 00 7a 18 11 40
       -0.42146217823028564 4.273902893066406
0000c0 00 00 00 e0 51 15 de 3f 00 00 00 40 12 1d d5 bf
       0.47005125880241394 -0.3298993706703186
0000d0 00 00 00 40 a0 28 11 40 00 00 00 60 20 6b d5 3f
       4.289673805236816 0.3346634805202484
0000e0 00 00 00 c0 e4 5c d7 bf 00 00 00 00 9c 37 11 40
       -0.3650447726249695 4.3043060302734375
0000f0 00 00 00 a0 28 03 db 3f 00 00 00 c0 c6 ff d8 bf
       0.422067791223526 -0.39061135053634644
000100 00 00 00 a0 d5 61 11 40 00 00 00 c0 86 fc d9 3f
       4.345541477203369 0.40603798627853394
000110 00 00 00 20 64 0d d9 bf 00 00 00 a0 ef 65 11 40
       -0.39144232869148254 4.349546909332275
000120 00 00 00 80 f8 53 d9 3f 00 00 00 40 19 c5 d5 bf
       0.39575016498565674 -0.3401549458503723
000130 00 00 00 c0 9c ba 10 40 00 00 00 00 a8 86 d8 3f
       4.182238578796387 0.38321876525878906
000140 00 00 00 80 02 e1 d5 bf 00 00 00 e0 4c b9 10 40
       -0.34185850620269775 4.180957317352295
000150 00 00 00 80 81 b3 db 3f 00 00 00 e0 43 b8 d5 bf
       0.43283116817474365 -0.3393716514110565
000160 00 00 00 c0 75 f9 10 40 00 00 00 40 f9 04 d7 3f
       4.243613243103027 0.35967856645584106
000170 00 00 00 40 ba 26 d7 bf 00 00 00 c0 22 02 11 40
       -0.36173874139785767 4.2520856857299805
000180 00 00 00 c0 cb f5 da 3f 00 00 00 80 67 6f d9 bf
       0.42125219106674194 -0.397424578666687
000190 00 00 00 80 03 68 11 40 00 00 00 a0 e7 40 da 3f
       4.35157585144043 0.4102114737033844
0001a0 00 00 00 80 5b 49 d9 bf 00 00 00 00 28 6b 11 40
       -0.3951023817062378 4.354644775390625
0001b0 00 00 00 00 70 74 c3 3f 00 00 00 c0 44 bf c3 bf
       0.1519908905029297 -0.15427455306053162
0001c0 00 00 00 60 f6 fe 0f 40 00 00 00 40 1c 31 da 3f
       3.999493360519409 0.4092474579811096
0001d0 00 00 00 80 44 ef db bf 00 00 00 80 09 43 11 40
       -0.43647873401641846 4.315465927124023
0001e0 00 00 00 c0 39 1c c7 3f 00 00 00 40 f2 83 ae bf
       0.18054887652397156 -0.05960042029619217
0001f0 00 00 00 00 4c 89 0e 40 00 00 00 40 1e 09 b5 3f
       3.8170394897460938 0.08217038214206696
000200 00 00 00 e0 b9 d7 d1 bf 00 00 00 80 87 5c 10 40
       -0.2787918746471405 4.090360641479492
000210 00 00 00 20 3d ef c5 3f 00 00 00 e0 7e fa c0 bf
       0.1713634878396988 -0.13264451920986176
000220 00 00 00 80 3c 45 0f 40 00 00 00 a0 c6 09 be 3f
       3.908806800842285 0.11733666807413101
000230 00 00 00 20 70 e9 ca bf 00 00 00 80 94 06 10 40
       -0.21024896204471588 4.006425857543945
000240 00 00 00 c0 6d 92 c9 bf 00 00 00 20 75 ae c3 3f
       -0.1997811496257782 0.15376152098178864
000250 00 00 00 40 36 68 10 40 00 00 00 20 8a 15 da 3f
       4.10176944732666 0.4075646698474884
000260 00 00 00 a0 d0 c1 db bf 00 00 00 c0 3f 43 11 40
       -0.43370452523231506 4.315672874450684
000270 00 00 00 80 47 da a0 bf 00 00 00 80 ea 4f 93 3f
       -0.03291533887386322 0.018859542906284332
000280 00 00 00 c0 01 87 0c 40 00 00 00 80 71 42 b6 bf
       3.5659213066101074 -0.086951345205307
000290 00 00 00 80 54 62 c0 bf 00 00 00 40 f8 76 0d 40
       -0.12800079584121704 3.6830906867980957
0002a0 00 00 00 00 40 d0 7d 3f 00 00 00 00 66 04 bb 3f
       0.0072786808013916016 0.10553586483001709
0002b0 00 00 00 00 92 a8 0d 40 00 00 00 40 c6 cd da 3f
       3.7073097229003906 0.4188094735145569
0002c0 00 00 00 00 a2 0e d7 bf 00 00 00 40 ff be 0f 40
       -0.36026811599731445 3.9682602882385254
0002d0 00 00 00 c0 85 01 d8 3f 00 00 00 80 fa 12 d8 bf
       0.37509292364120483 -0.37615835666656494
0002e0 00 00 00 80 67 c8 0f 40 00 00 00 40 49 33 da 3f
       3.972853660583496 0.4093802571296692
0002f0 00 00 00 20 63 a5 d8 bf 00 00 00 40 72 38 10 40
       -0.38509443402290344 4.055123329162598
000300 00 00 00 80 23 2e da 3f 00 00 00 80 b1 a1 d8 bf
       0.4090660810470581 -0.3848689794540405
000310 00 00 00 c0 1e 38 10 40 00 00 00 a0 6c 93 d9 3f
       4.054804801940918 0.3996230661869049
000320 00 00 00 40 ab 8b d9 bf 00 00 00 40 b4 e4 0f 40
       -0.39914971590042114 3.9866719245910645
000330 00 00 00 60 53 03 dd 3f 00 00 00 60 14 06 d6 bf
       0.4533279836177826 -0.3441210687160492
000340 00 00 00 e0 c5 11 10 40 00 00 00 c0 2d ed d5 3f
       4.0173563957214355 0.3426012396812439
000350 00 00 00 60 dc 0b d8 bf 00 00 00 80 00 1c 10 40
       -0.3757239282131195 4.027345657348633
000360 00 00 00 a0 d2 24 da 3f 00 00 00 40 0b 4b d8 bf
       0.40849748253822327 -0.3795803189277649
000370 00 00 00 80 87 32 10 40 00 00 00 c0 2f 19 da 3f
       4.049345016479492 0.4077872633934021
000380 00 00 00 e0 f2 49 d8 bf 00 00 00 a0 99 32 10 40
       -0.3795134723186493 4.049414157867432
000390 00 00 00 e0 31 04 d9 3f 00 00 00 00 c0 14 d7 bf
       0.3908810317516327 -0.3606414794921875
0003a0 00 00 00 20 9d 32 0f 40 00 00 00 c0 32 12 d9 3f
       3.8997137546539307 0.3917357325553894
0003b0 00 00 00 00 a6 e8 d6 bf 00 00 00 a0 71 2c 0f 40
       -0.35794973373413086 3.8967010974884033
0003c0 00 00 00 e0 ed 24 db 3f 00 00 00 c0 be fa d6 bf
       0.4241289794445038 -0.3590542674064636
0003d0 00 00 00 80 4a c8 0f 40 00 00 00 40 5f 90 d7 3f
       3.9727983474731445 0.3681867718696594
0003e0 00 00 00 80 36 06 d8 bf 00 00 00 00 d7 d1 0f 40
       -0.37537920475006104 3.9774608612060547
0003f0 00 00 00 a0 a0 18 da 3f 00 00 00 60 b0 a7 d8 bf
       0.4077531397342682 -0.38523492217063904
000400 00 00 00 a0 5c 3d 10 40 00 00 00 20 ee 69 da 3f
       4.0599236488342285 0.41271546483039856
000410 00 00 00 60 6a a2 d8 bf 00 00 00 00 36 39 10 40
       -0.38491305708885193 4.055870056152344
000420 00 00 00 00 47 a3 c5 3f 00 00 00 40 78 fb ba bf
       0.1690453290939331 -0.10539962351322174
000430 00 00 00 20 96 a0 0d 40 00 00 00 80 d1 33 da 3f
       3.703411340713501 0.4094127416610718
000440 00 00 00 a0 1c 53 da bf 00 00 00 00 46 15 10 40
       -0.4113227427005768 4.020774841308594
000450 00 00 00 40 09 f5 c3 3f 00 00 00 00 0c 46 88 3f
       0.15591540932655334 0.011852353811264038
000460 00 00 00 60 6e cd 0c 40 00 00 00 c0 b3 8a b8 3f
       3.6003081798553467 0.09586642682552338
000470 00 00 00 80 49 a0 c6 bf 00 00 00 60 e8 f2 0d 40
       -0.17676657438278198 3.74360728263855
000480 00 00 00 c0 b2 66 c3 3f 00 00 00 20 22 83 a8 bf
       0.1515716016292572 -0.04787546768784523
000490 00 00 00 20 23 42 0d 40 00 00 00 20 fd ab bd 3f
       3.6572935581207275 0.11590559035539627
0004a0 00 00 00 00 45 24 bc bf 00 00 00 20 f7 9f 0d 40
       -0.1099284291267395 3.703108072280884
0004b0 00 00 00 e0 7a 3a d3 bf 00 00 00 e0 e4 31 bd 3f
       -0.3004443347454071 0.11404257267713547
0004c0 00 00 00 20 09 ef 0d 40 00 00 00 40 e6 09 da 3f
       3.7417166233062744 0.40685421228408813
0004d0 00 00 00 80 8f 0a da bf 00 00 00 00 bd 13 10 40
       -0.4068945646286011 4.019275665283203
0004e0 00 00 00 80 cd 9f a8 bf 00 00 00 80 75 40 99 bf
       -0.04809419810771942 -0.024659954011440277
0004f0 00 00 00 c0 47 df 0f 40 00 00 00 80 f1 9c b9 bf
       3.9840235710144043 -0.10005101561546326
000500 00 00 00 c0 d0 dd af bf 00 00 00 80 5a 81 10 40
       -0.06223919242620468 4.126321792602539
000510 00 00 00 00 58 86 94 3f 00 00 00 00 ea c3 90 3f
       0.02004373073577881 0.016372352838516235
000520 00 00 00 e0 30 07 10 40 00 00 00 00 28 59 d8 3f
       4.007022380828857 0.38044166564941406
000530 00 00 00 40 7d f5 d7 bf 00 00 00 40 4b e3 10 40
       -0.37435847520828247 4.221966743469238
000540 00 00 00 60 c5 bf d7 3f 00 00 00 c0 08 c3 d8 bf
       0.37107977271080017 -0.38690394163131714
000550 00 00 00 e0 9a eb 10 40 00 00 00 80 83 36 dc 3f
       4.230082988739014 0.44082725048065186
000560 00 00 00 40 86 b1 d9 bf 00 00 00 80 76 3d 11 40
       -0.4014602303504944 4.310022354125977
000570 00 00 00 80 e8 44 dc 3f 00 00 00 c0 9a e0 d9 bf
       0.4417058229446411 -0.40433377027511597
000580 00 00 00 a0 fb 3a 11 40 00 00 00 00 fa c1 da 3f
       4.307600498199463 0.4180893898010254
000590 00 00 00 40 50 71 da bf 00 00 00 40 b8 00 11 40
       -0.4131661057472229 4.250702857971191
0005a0 00 00 00 e0 eb de da 3f 00 00 00 00 1e 89 d6 bf
       0.4198560416698456 -0.35211896896362305
0005b0 00 00 00 00 08 fc 10 40 00 00 00 60 b2 90 d7 3f
       4.246124267578125 0.36820659041404724
0005c0 00 00 00 e0 17 02 d9 bf 00 00 00 60 09 29 11 40
       -0.39075276255607605 4.290074825286865
0005d0 00 00 00 00 2b da db 3f 00 00 00 20 99 3d d9 bf
       0.43519091606140137 -0.3943846523761749
0005e0 00 00 00 20 ea 34 11 40 00 00 00 00 97 e7 db 3f
       4.3016743659973145 0.43601012229919434
0005f0 00 00 00 c0 13 50 d9 bf 00 00 00 20 7c 35 11 40
       -0.39551252126693726 4.302231311798096
000600 00 00 00 a0 3e 92 d4 3f 00 00 00 60 0a cf d9 bf
       0.32142606377601624 -0.4032617509365082
000610 00 00 00 a0 58 be 10 40 00 00 00 20 da be d5 3f
       4.185884952545166 0.33977368474006653
000620 00 00 00 e0 96 ef d8 bf 00 00 00 e0 8e ab 10 40
       -0.38962337374687195 4.167537212371826
000630 00 00 00 40 c1 9c d8 3f 00 00 00 c0 2d 21 d8 bf
       0.3845675587654114 -0.3770250678062439
000640 00 00 00 c0 54 e6 10 40 00 00 00 60 c8 a5 d7 3f
       4.224932670593262 0.3694935739040375
000650 00 00 00 00 c6 df d8 bf 00 00 00 00 bd f3 10 40
       -0.3886580467224121 4.238025665283203
000660 00 00 00 00 1b 1e dc 3f 00 00 00 40 a7 e8 d9 bf
       0.43933749198913574 -0.40482503175735474
000670 00 00 00 c0 0c 41 11 40 00 00 00 c0 f9 82 dc 3f
       4.313525199890137 0.4454941153526306
000680 00 00 00 e0 97 df d9 bf 00 00 00 c0 88 39 11 40
       -0.40427204966545105 4.306185722351074
000690 00 00 00 a0 b5 f4 b3 3f 00 00 00 00 d3 32 c7 bf
       0.07795272022485733 -0.18123853206634521
0006a0 00 00 00 60 01 58 10 40 00 00 00 80 cd 06 dc 3f
       4.08594274520874 0.43791520595550537
0006b0 00 00 00 00 52 fd da bf 00 00 00 a0 84 23 11 40
       -0.42171144485473633 4.2846856117248535
0006c0 00 00 00 60 08 f3 ac 3f 00 00 00 c0 c2 bc bf bf
       0.05654169246554375 -0.12397401034832001
0006d0 00 00 00 c0 d0 b8 0f 40 00 00 00 c0 32 4f 91 bf
       3.9652419090270996 -0.016903679817914963
0006e0 00 00 00 c0 b3 d5 c6 bf 00 00 00 e0 fb 9d 10 40
       -0.17839667201042175 4.154281139373779
0006f0 00 00 00 c0 53 55 af 3f 00 00 00 c0 0a 9b c3 bf
       0.06119786947965622 -0.15316900610923767
000700 00 00 00 40 99 2e 10 40 00 00 00 e0 2a 4d a2 3f
       4.045506477355957 0.03574499115347862
000710 00 00 00 40 ac 82 c5 bf 00 00 00 c0 37 5d 10 40
       -0.16805031895637512 4.091032981872559
000720 00 00 00 a0 35 74 ba bf 00 00 00 a0 42 a6 cb 3f
       -0.10333571583032608 0.21601136028766632
000730 00 00 00 e0 82 77 10 40 00 00 00 c0 db be db 3f
       4.116710186004639 0.43352407217025757
000740 00 00 00 a0 d6 a4 da bf 00 00 00 a0 67 22 11 40
       -0.4163109362125397 4.28359842300415
000750 00 00 00 00 5e 69 82 3f 00 00 00 00 48 9e 91 3f
       0.008990034461021423 0.017205357551574707
000760 00 00 00 40 69 97 0a 40 00 00 00 80 06 61 ad bf
       3.3239312171936035 -0.05738086998462677
000770 00 00 00 60 8b 3b bc bf 00 00 00 80 e3 55 0b 40
       -0.11028357595205307 3.416937828063965
000780 00 00 00 00 78 ae aa 3f 00 00 00 00 22 92 b2 3f
       0.05211234092712402 0.07254230976104736
000790 00 00 00 80 bd 7f 0b 40 00 00 00 80 92 16 db 3f
       3.437373161315918 0.4232527017593384
0007a0 00 00 00 40 eb 9e d6 bf 00 00 00 a0 80 78 0d 40
       -0.35344964265823364 3.6838390827178955
0007b0 00 00 00 40 3d f5 d7 3f 00 00 00 00 8f 90 d7 bf
       0.37434321641921997 -0.3681981563568115
0007c0 00 00 00 a0 09 88 0d 40 00 00 00 00 ee ea da 3f
       3.691424608230591 0.42058897018432617
0007d0 00 00 00 c0 ff aa d8 bf 00 00 00 00 0d 43 0e 40
       -0.3854369521141052 3.7827396392822266
0007e0 00 00 00 20 30 d9 d9 3f 00 00 00 80 29 ea d8 bf
       0.40388110280036926 -0.3892921209335327
0007f0 00 00 00 80 f4 48 0e 40 00 00 00 00 f0 c4 d9 3f
       3.7856225967407227 0.4026451110839844
