demo_out/run3/epoch0/params.npz (npz, 11215 bytes, 4 tensors)

pose f8 [5, 105]
000000 00 00 00 60 07 9d ec 3f 00 00 00 c0 a9 b3 fc 3f
       0.8941685557365417 1.79386305809021
000010 00 00 00 00 6f ef f6 bf 00 00 00 80 fc 36 99 3f
       -1.433455467224121 0.024623818695545197
000020 00 00 00 00 94 07 ab bf 00 00 00 e0 22 55 c4 3f
       -0.05279219150543213 0.15884815156459808
000030 00 00 00 40 fb ae b3 3f 00 00 00 60 3f c1 a6 bf
       0.07688875496387482 -0.04444311186671257
000040 00 00 00 80 2f d7 d0 bf 00 00 00 80 db 3f c1 bf
       -0.2631338834762573 -0.1347612738609314
000050 00 00 00 c0 e4 22 c2 bf 00 00 00 80 56 7a 95 bf
       -0.14168986678123474 -0.020974494516849518
000060 00 00 00 c0 7e fd b6 bf 00 00 00 80 0a 68 cf 3f
       -0.08980552852153778 0.24536257982254028
000070 00 00 00 e0 b9 c7 ae 3f 00 00 00 c0 6d 99 aa bf
       0.06011753901839256 -0.0519518181681633
000080 00 00 00 80 f6 46 9c 3f 00 00 00 80 fd 2b 9d bf
       0.027614451944828033 -0.028488121926784515
000090 00 00 00 40 e5 df c2 3f 00 00 00 20 d3 fb af 3f
       0.14745774865150452 0.06246814504265785
0000a0 00 00 00 80 27 9b ba 3f 00 00 00 00 2f 07 e1 bf
       0.10392996668815613 -0.5321269035339355
0000b0 00 00 00 c0 3c 9e c9 bf 00 00 00 80 5a 46 c5 bf
       -0.2001415193080902 -0.16620951890945435
0000c0 00 00 00 60 5a e5 e8 3f 00 00 00 40 5a 70 b1 3f
       0.7779971957206726 0.06812061369419098
0000d0 00 00 00 a0 ad b4 e2 3f 00 00 00 a0 9d 8f c9 bf
       0.584555447101593 -0.19969530403614044
0000e0 00 00 00 20 39 35 cb bf 00 00 00 00 a6 32 7b bf
       -0.2125617414712906 -0.006640098989009857
0000f0 00 00 00 20 60 d2 d8 3f 00 00 00 20 e2 0e bc bf
       0.38784030079841614 -0.10960210114717484
000100 00 00 00 80 a0 48 d2 bf 00 00 00 40 c8 0a d0 3f
       -0.2856827974319458 0.2506580948829651
000110 00 00 00 00 ff fe ae 3f 00 00 00 60 be 5d ab bf
       0.06053921580314636 -0.05344958230853081
000120 00 00 00 c0 7a 89 d4 bf 00 00 00 c0 41 cc b5 3f
       -0.3208910822868347 0.08514796197414398
000130 00 00 00 40 07 b5 bc 3f 00 00 00 a0 e7 da ce bf
       0.11213727295398712 -0.2410554438829422
000140 00 00 00 e0 1c 5f e2 bf 00 00 00 80 4b c7 e8 3f
       -0.5741104483604431 0.7743279933929443
000150 00 00 00 c0 86 0e e9 bf 00 00 00 00 a1 86 ef bf
       -0.7830232381820679 -0.9851841926574707
000160 00 00 00 c0 28 5e cd 3f 00 00 00 c0 59 7a b5 3f
       0.2294360101222992 0.08389817178249359
000170 00 00 00 80 ae d7 d8 bf 00 00 00 00 9e 7b c1 3f
       -0.3881641626358032 0.13658499717712402
000180 00 00 00 c0 64 d5 cc 3f 00 00 00 60 16 9c d1 bf
       0.22526225447654724 -0.2751518189907074
000190 00 00 00 80 d4 c2 e0 3f 00 00 00 60 f7 3b af 3f
       0.5237829685211182 0.061004381626844406
0001a0 00 00 00 00 32 db a2 bf 00 00 00 e0 48 73 d7 bf
       -0.036828577518463135 -0.366411417722702
0001b0 00 00 00 40 3b 6f af bf 00 00 00 60 d3 71 d4 3f
       -0.06139550358057022 0.3194473683834076
0001c0 00 00 00 c0 cb 66 cf 3f 00 00 00 60 a8 df d1 3f
       0.24532458186149597 0.2792759835720062
0001d0 00 00 00 a0 84 18 e3 bf 00 00 00 a0 c5 5d cd 3f
       -0.5967429280281067 0.22942419350147247
0001e0 00 00 00 80 cd db 99 bf 00 00 00 20 72 83 e8 bf
       -0.02525254338979721 -0.7660456299781799
0001f0 00 00 00 60 49 26 cd 3f 00 00 00 c0 31 26 c2 3f
       0.2277309149503708 0.14179059863090515
000200 00 00 00 20 17 82 e3 3f 00 00 00 00 f0 1a d1 3f
       0.6096301674842834 0.2672691345214844
000210 00 00 00 e0 46 f3 c6 bf 00 00 00 00 11 47 cb bf
       -0.1792992204427719 -0.21310627460479736
000220 00 00 00 20 54 95 af bf 00 00 00 00 98 65 c1 bf
       -0.061686161905527115 -0.13591289520263672
000230 00 00 00 20 86 b8 9d 3f 00 00 00 00 a0 bf d3 bf
       0.029024215415120125 -0.30857086181640625
000240 00 00 00 00 78 f3 cc bf 00 00 00 c0 89 b1 f1 bf
       -0.2261800765991211 -1.105844259262085
000250 00 00 00 00 33 df cc bf 00 00 00 60 72 a8 cc bf
       -0.2255614995956421 -0.22389058768749237
000260 00 00 00 80 70 df ce bf 00 00 00 00 10 09 30 bf
       -0.24119383096694946 -0.000244680792093277
000270 00 00 00 40 d5 61 c8 bf 00 00 00 c0 31 17 d1 3f
       -0.1904856264591217 0.2670406699180603
000280 00 00 00 20 03 8e ba bf 00 00 00 e0 f4 6d b1 3f
       -0.10372943431138992 0.06808405369520187
000290 00 00 00 60 2a 22 b2 bf 00 00 00 00 46 4a ab bf
       -0.07083382457494736 -0.05330103635787964
0002a0 00 00 00 40 1b e8 a6 bf 00 00 00 80 04 a6 99 bf
       -0.044739581644535065 -0.025047369301319122
0002b0 00 00 00 20 34 d3 c1 3f 00 00 00 00 c6 68 6b 3f
       0.13925792276859283 0.0033458583056926727
0002c0 00 00 00 00 c6 0b c4 3f 00 00 00 a0 19 82 b0 3f
       0.15660929679870605 0.06448516994714737
0002d0 00 00 00 20 b4 9b d7 bf 00 00 00 c0 96 46 b3 3f
       -0.36887839436531067 0.07529585063457489
0002e0 00 00 00 80 06 98 67 bf 00 00 00 40 e0 08 d7 bf
       -0.002880108542740345 -0.3599167466163635
0002f0 00 00 00 00 2e 7f d1 3f 00 00 00 60 06 bd a4 bf
       0.27338743209838867 -0.04050464555621147
000300 00 00 00 c0 da 2e ad bf 00 00 00 00 d4 bf c3 3f
       -0.05699809640645981 0.15429162979125977
000310 00 00 00 40 4c f4 a5 3f 00 00 00 60 64 30 f0 bf
       0.04287946969270706 -1.0118144750595093
000320 00 00 00 20 16 72 e9 3f 00 00 00 80 61 24 eb bf
       0.7951765656471252 -0.8481910228729248
000330 00 00 00 e0 86 10 e1 3f 00 00 00 a0 83 36 f3 3f
       0.5332674384117126 1.200809121131897
000340 00 00 00 20 83 f8 f3 3f 00 00 00 a0 b6 3b fa 3f
       1.2481719255447388 1.6395784616470337
000350 00 00 00 a0 00 99 e3 3f 00 00 00 c0 47 00 ef bf
       0.6124270558357239 -0.9687842130661011
000360 00 00 00 a0 d2 c7 be 3f 00 00 00 c0 42 96 98 3f
       0.12023655325174332 0.02401069924235344
000370 00 00 00 40 2a 63 c9 bf 00 00 00 40 f4 e9 be bf
       -0.19833877682685852 -0.12075735628604889
000380 00 00 00 00 76 ed ac 3f 00 00 00 a0 6a ea c5 3f
       0.056499183177948 0.17121632397174835
000390 00 00 00 20 a4 cb b4 3f 00 00 00 c0 98 91 c4 bf
       0.08123231679201126 -0.16069325804710388
0003a0 00 00 00 20 56 c6 c0 3f 00 00 00 80 f7 b0 ae 3f
       0.13105274736881256 0.059943899512290955
0003b0 00 00 00 c0 a0 e0 cb 3f 00 00 00 c0 7c e1 c4 bf
       0.2177926003932953 -0.16313132643699646
0003c0 00 00 00 00 83 18 89 bf 00 00 00 00 b0 b6 48 bf
       -0.012253783643245697 -0.0007541999220848083
0003d0 00 00 00 80 29 ab 9f bf 00 00 00 60 04 29 95 bf
       -0.03092636913061142 -0.020664280280470848
0003e0 00 00 00 00 38 3b c5 3f 00 00 00 40 b8 e1 c1 bf
       0.16586971282958984 -0.13970091938972473
0003f0 00 00 00 60 02 72 c8 bf 00 00 00 80 fe d8 95 3f
       -0.19097928702831268 0.021335579454898834
000400 00 00 00 80 ad 21 90 3f 00 00 00 a0 33 c2 e3 3f
       0.015753470361232758 0.6174562573432922
000410 00 00 00 80 cd 74 db bf 00 00 00 20 bc 21 cf 3f
       -0.42900407314300537 0.24321700632572174
000420 00 00 00 40 21 4b 91 bf 00 00 00 c0 65 12 c1 bf
       -0.01688816025853157 -0.1333739459514618
000430 00 00 00 c0 97 73 d1 bf 00 00 00 60 dd 74 d5 3f
       -0.27268022298812866 0.3352578580379486
000440 00 00 00 00 b1 6a d1 3f 00 00 00 40 58 ed c7 bf
       0.272136926651001 -0.18693068623542786
000450 00 00 00 c0 73 7d e0 3f 00 00 00 00 f3 ee c5 bf
       0.515313982963562 -0.17135465145111084
000460 00 00 00 40 18 b6 b5 bf 00 00 00 00 fc 09 bd bf
       -0.0848097950220108 -0.1134335994720459
000470 00 00 00 c0 e9 e8 c7 3f 00 00 00 20 3e 4a b1 bf
       0.1867954432964325 -0.06753910332918167
000480 00 00 00 00 c0 5d 59 bf 00 00 00 20 29 d4 cb 3f
       -0.0015482306480407715 0.21741212904453278
000490 00 00 00 a0 29 11 e1 3f 00 00 00 60 6c 8f e0 bf
       0.5333450436592102 -0.5175077319145203
0004a0 00 00 00 e0 f4 06 d7 bf 00 00 00 80 84 b7 c7 3f
       -0.3597995936870575 0.18528801202774048
0004b0 00 00 00 20 ab 0d ce bf 00 00 00 c0 50 84 c0 bf
       -0.23479212820529938 -0.12903794646263123
0004c0 00 00 00 a0 fb 5a c4 3f 00 00 00 00 74 ff bf bf
       0.15902657806873322 -0.12499165534973145
0004d0 00 00 00 00 1d 23 df bf 00 00 00 40 b8 5e af bf
       -0.48651814460754395 -0.06126952916383743
0004e0 00 00 00 00 58 cb cf 3f 00 00 00 c0 c7 8f d2 3f
       0.24839305877685547 0.29002565145492554
0004f0 00 00 00 60 35 2e cb bf 00 00 00 00 f6 4e b2 bf
       -0.21234767138957977 -0.07151734828948975
000500 00 00 00 c0 0a 04 d9 3f 00 00 00 40 ea 8c a4 bf
       0.39087170362472534 -0.04013759642839432
000510 00 00 00 c0 8b 8f c5 3f 00 00 00 60 53 49 e4 bf
       0.16844317317008972 -0.6339508891105652
000520 00 00 00 80 90 e3 c2 3f 00 00 00 40 53 93 9c 3f
       0.1475697159767151 0.027905751019716263
000530 00 00 00 c0 ea 10 e0 bf 00 00 00 40 39 46 93 bf
       -0.5020650625228882 -0.018822569400072098
000540 00 00 00 e0 5e d6 b4 3f 00 00 00 80 8a 7e a4 bf
       0.08139603585004807 -0.040027931332588196
000550 00 00 00 80 5d bb cc 3f 00 00 00 40 9e 51 d8 3f
       0.224467933177948 0.3799815773963928
000560 00 00 00 20 5f c7 e4 3f 00 00 00 e0 a2 09 ab bf
       0.6493373513221741 -0.052807893604040146
000570 00 00 00 40 40 34 d0 bf 00 00 00 00 0d 75 eb bf
       -0.2531891465187073 -0.8580384254455566
000580 00 00 00 40 9d 1e b9 bf 00 00 00 40 d5 60 c0 bf
       -0.09812338650226593 -0.1279551088809967
000590 00 00 00 20 d5 81 d0 bf 00 00 00 60 fc 4c b8 bf
       -0.257924348115921 -0.09492471069097519
0005a0 00 00 00 20 1a 08 c9 bf 00 00 00 a0 a4 a0 e4 bf
       -0.19555975496768951 -0.6446097493171692
0005b0 00 00 00 40 7a 14 b5 3f 00 00 00 00 1d 32 d5 3f
       0.08234371244907379 0.33118367195129395
0005c0 00 00 00 40 ee 9e b5 3f 00 00 00 c0 d8 69 ce bf
       0.08445633947849274 -0.23760518431663513
0005d0 00 00 00 20 37 c9 cf 3f 00 00 00 e0 92 99 b1 bf
       0.2483281046152115 -0.06874959915876389
0005e0 00 00 00 00 3c f3 c7 3f 00 00 00 80 78 c1 b0 3f
       0.18711042404174805 0.06545212864875793
0005f0 00 00 00 40 c4 fc c3 bf 00 00 00 80 9b 59 93 bf
       -0.15615132451057434 -0.01889651268720627
000600 00 00 00 40 57 38 be 3f 00 00 00 20 4d 45 d2 3f
       0.11804719269275665 0.2854798138141632
000610 00 00 00 80 31 ad c0 bf 00 00 00 a0 d5 89 bd bf
       -0.13028544187545776 -0.11538443714380264
000620 00 00 00 00 c5 7d c2 3f 00 00 00 80 ea eb d2 3f
       0.1444631814956665 0.2956491708755493
000630 00 00 00 00 62 f9 b3 bf 00 00 00 e0 2f ef e2 bf
       -0.07802402973175049 -0.591697633266449
000640 00 00 00 20 78 d5 cc bf 00 00 00 80 7d ad c7 bf
       -0.2252645641565323 -0.18498200178146362
000650 00 00 00 00 35 0f c8 bf 00 00 00 80 54 ef c3 bf
       -0.1879640817642212 -0.15574127435684204
000660 00 00 00 a0 c6 80 f4 bf 00 00 00 e0 14 43 eb 3f
       -1.2814394235610962 0.8519386649131775
000670 00 00 00 80 2e 13 e9 bf 00 00 00 a0 c8 ea e0 3f
       -0.7835915088653564 0.5286601185798645
000680 00 00 00 20 8b 9e f9 3f 00 00 00 c0 a2 9f f0 3f
       1.60120689868927 1.0389735698699951
000690 00 00 00 60 fe 6f f4 3f 00 00 00 00 55 9b f4 3f
       1.2773422002792358 1.2879228591918945
0006a0 00 00 00 40 b1 dc f2 bf 00 00 00 a0 e5 40 b4 bf
       -1.178879976272583 -0.07911524921655655
0006b0 00 00 00 c0 3f 48 b0 bf 00 00 00 40 20 0b b8 bf
       -0.06360243260860443 -0.0939197689294815
0006c0 00 00 00 e0 f5 33 a5 3f 00 00 00 c0 e2 29 93 3f
       0.041412051767110825 0.01871446892619133
0006d0 00 00 00 e0 8e 98 b1 bf 00 00 00 e0 8c 88 b1 bf
       -0.06873410195112228 -0.06848984211683273
0006e0 00 00 00 60 e4 c2 c2 bf 00 00 00 c0 65 89 9e 3f
       -0.14657263457775116 0.0298210047185421
0006f0 00 00 00 00 c6 0c aa 3f 00 00 00 80 17 e1 c6 3f
       0.050878703594207764 0.17874425649642944
000700 00 00 00 20 79 02 aa 3f 00 00 00 80 a9 75 97 3f
       0.05080011859536171 0.022909782826900482
000710 00 00 00 60 18 08 b7 3f 00 00 00 00 f7 7b 8f bf
       0.0899672731757164 -0.015373162925243378
000720 00 00 00 60 0b b7 92 bf 00 00 00 e0 46 f2 c9 3f
       -0.018276384100317955 0.2027062028646469
000730 00 00 00 60 53 ae b5 3f 00 00 00 60 38 79 da bf
       0.08469124883413315 -0.41364869475364685
000740 00 00 00 20 1a 25 b3 3f 00 00 00 60 1d d4 bd 3f
       0.07478488236665726 0.11651786416769028
000750 00 00 00 a0 16 a8 e4 3f 00 00 00 00 1e d8 ae bf
       0.6455186009407043 -0.06024259328842163
000760 00 00 00 e0 23 0e d5 3f 00 00 00 c0 54 7f bd bf
       0.32898804545402527 -0.11522416770458221
000770 00 00 00 e0 0f d1 dc bf 00 00 00 00 4b 66 c4 bf
       -0.45026013255119324 -0.1593717336654663
000780 00 00 00 e0 60 61 d6 3f 00 00 00 c0 58 c7 a8 bf
       0.34969350695610046 -0.04839589446783066
000790 00 00 00 00 d6 4f d1 bf 00 00 00 00 1e 40 d6 3f
       -0.27049779891967773 0.34766340255737305
0007a0 00 00 00 80 c2 a6 a9 3f 00 00 00 a0 31 aa d2 bf
       0.05010040104389191 -0.2916378080844879
0007b0 00 00 00 e0 12 58 d7 bf 00 00 00 00 0e e2 90 3f
       -0.36475059390068054 0.016487330198287964
0007c0 00 00 00 40 6e e7 b7 bf 00 00 00 40 f7 94 bd 3f
       -0.09337510168552399 0.11555428802967072
0007d0 00 00 00 c0 29 87 dc bf 00 00 00 40 15 f2 df 3f
       -0.4457497000694275 0.4991505742073059
0007e0 00 00 00 40 40 4e df bf 00 00 00 80 8a df c2 bf
       -0.4891510605812073 -0.14744693040847778
0007f0 00 00 00 80 c5 bd d0 3f 00 00 00 40 ad b5 b0 bf
       0.26158273220062256 -0.06527216732501984

betas f8 [5, 41]
000000 00 00 00 20 89 09 c9 3f 00 00 00 60 cc 46 ea 3f
       0.19560350477695465 0.8211423754692078
000010 00 00 00 a0 f1 a7 f1 bf 00 00 00 40 ec 5d fb bf
       -1.1035019159317017 -1.710430383682251
000020 00 00 00 00 5e 0e f4 bf 00 00 00 c0 8a 4f f3 3f
       -1.2535076141357422 1.2069194316864014
000030 00 00 00 c0 46 e8 f7 bf 00 00 00 a0 8f fc d6 3f
       -1.4942080974578857 0.35916510224342346
000040 00 00 00 40 77 68 f7 3f 00 00 00 e0 ea 94 00 40
       1.4630043506622314 2.072713613510132
000050 00 00 00 40 f1 0a f7 3f 00 00 00 40 63 62 fa bf
       1.440171480178833 -1.6490204334259033
000060 00 00 00 c0 2c c5 fe 3f 00 00 00 80 bc a0 79 3f
       1.9231383800506592 0.00625680573284626
000070 00 00 00 a0 41 04 98 bf 00 00 00 00 43 c9 fa 3f
       -0.023453736677765846 1.6741361618041992
000080 00 00 00 60 57 f3 d7 bf 00 00 00 00 8b 60 fc bf
       -0.374227374792099 -1.7735700607299805
000090 00 00 00 e0 2d 5c f1 3f 00 00 00 a0 f6 50 fb 3f
       1.0850046873092651 1.7072664499282837
0000a0 00 00 00 20 20 f7 5f bf 00 00 00 00 a4 c0 52 bf
       -0.0019510091515257955 -0.001144561916589737
0000b0 00 00 00 80 fc b7 63 3f 00 00 00 20 91 12 41 3f
       0.0024070674553513527 0.0005210121744312346
0000c0 00 00 00 00 36 d3 63 bf 00 00 00 e0 16 2f 60 3f
       -0.002420049160718918 0.0019755789544433355
0000d0 00 00 00 60 89 29 61 bf 00 00 00 60 03 b0 5f bf
       -0.0020950015168637037 -0.0019340546568855643
0000e0 00 00 00 e0 6c 88 53 3f 00 00 00 40 3d 84 41 3f
       0.0011921942932531238 0.0005345629760995507
0000f0 00 00 00 00 f3 1e 67 bf 00 00 00 e0 36 82 49 3f
       -0.002822374925017357 0.0007784622139297426
000100 00 00 00 c0 15 1f 10 bf 00 00 00 a0 d6 59 45 bf
       -6.149835826363415e-05 -0.000651578709948808
000110 00 00 00 60 d2 f3 64 bf 00 00 00 40 fb 42 52 3f
       -0.002557669533416629 0.0011146024335175753
000120 00 00 00 40 32 a0 60 3f 00 00 00 c0 a1 7d 27 bf
       0.002029512543231249 -0.00017922019469551742
000130 00 00 00 40 26 cc 28 3f 00 00 00 00 26 78 3e bf
       0.00018918959540314972 -0.0004649250768125057
000140 00 00 00 a0 54 db 60 3f 00 00 00 40 1c 35 c3 3f
       0.002057709963992238 0.1500582993030548
000150 00 00 00 e0 50 2d ef 3f 00 00 00 00 b6 eb fa bf
       0.9742817282676697 -1.682546615600586
000160 00 00 00 a0 50 af 84 bf 00 00 00 a0 46 ed b8 bf
       -0.010100011713802814 -0.09737054258584976
000170 00 00 00 20 ce 57 06 c0 00 00 00 40 8a fc f8 3f
       -2.7928736209869385 1.5616552829742432
000180 00 00 00 c0 7d 6d e2 bf 00 00 00 20 82 2f f0 bf
       -0.575865626335144 -1.0115987062454224
000190 00 00 00 a0 24 a1 90 bf 00 00 00 60 c3 77 be bf
       -0.01623971201479435 -0.11901494115591049
0001a0 00 00 00 c0 49 af ca 3f 00 00 00 40 b7 26 06 40
       0.20847436785697937 2.768904209136963
0001b0 00 00 00 20 8c be b6 3f 00 00 00 a0 48 9e f0 3f
       0.08884502202272415 1.038643479347229
0001c0 00 00 00 e0 94 73 da 3f 00 00 00 e0 11 fb d1 bf
       0.41330453753471375 -0.28094908595085144
0001d0 00 00 00 c0 2f 85 11 c0 00 00 00 80 52 5b e0 3f
       -4.380064964294434 0.5111477375030518
0001e0 00 00 00 80 e9 5a e1 3f 00 00 00 c0 89 6e 5e bf
       0.5423476696014404 -0.0018574090208858252
0001f0 00 00 00 c0 e4 66 51 bf 00 00 00 80 08 ff 63 3f
       -0.0010621293913573027 0.0024409452453255653
000200 00 00 00 00 45 44 3f 3f 00 00 00 80 2d ce 5e bf
       0.0004770916420966387 -0.0018802112899720669
000210 00 00 00 80 fb b4 60 3f 00 00 00 c0 b1 80 5e bf
       0.002039424143731594 -0.001861737808212638
000220 00 00 00 e0 57 ad 5d bf 00 00 00 20 07 b4 51 3f
       -0.0018113477854058146 0.0010805196361616254
000230 00 00 00 a0 3c 36 38 3f 00 00 00 20 c5 52 64 bf
       0.0003694437036756426 -0.0024808740708976984
000240 00 00 00 20 9a 2e 42 3f 00 00 00 e0 39 0f 23 3f
       0.0005548718036152422 0.00014541226846631616
000250 00 00 00 00 d2 7d dd be 00 00 00 20 74 5a 66 bf
       -7.0313180913217366e-06 -0.0027286785189062357
000260 00 00 00 c0 3a 7f 54 3f 00 00 00 c0 ec da 57 3f
       0.001251036999747157 0.0014560043346136808
000270 00 00 00 c0 b4 78 f8 3e 00 00 00 40 58 5e 42 3f
       2.3337848688242957e-05 0.0005605631740763783
000280 00 00 00 40 03 08 44 bf 00 00 00 60 12 3c 60 3f
       -0.00061130675021559 0.0019817694555968046
000290 00 00 00 80 3d 52 e3 bf 00 00 00 c0 fb 6a e2 3f
       -0.6037890911102295 0.5755594968795776
0002a0 00 00 00 a0 b2 11 b8 3f 00 00 00 40 02 08 f2 bf
       0.0940200462937355 -1.126955270767212
0002b0 00 00 00 60 39 4a 87 bf 00 00 00 00 69 cb f1 bf
       -0.011372040025889874 -1.1121606826782227
0002c0 00 00 00 c0 58 91 b6 bf 00 00 00 40 9f e6 f5 3f
       -0.08815531432628632 1.3688042163848877
0002d0 00 00 00 40 32 81 e1 3f 00 00 00 60 d2 9a b4 bf
       0.5470210313796997 -0.08048739284276962
0002e0 00 00 00 00 e6 8d ed 3f 00 00 00 e0 10 bb e5 3f
       0.9235715866088867 0.6790851950645447
0002f0 00 00 00 00 c4 ee c0 bf 00 00 00 e0 ab e5 c2 bf
       -0.13228654861450195 -0.14763401448726654
000300 00 00 00 e0 68 a6 f6 3f 00 00 00 c0 64 f7 e4 3f
       1.415627360343933 0.655199408531189
000310 00 00 00 a0 6c be da bf 00 00 00 60 80 e6 f7 bf
       -0.4178725779056549 -1.4937747716903687
000320 00 00 00 e0 d4 60 de 3f 00 00 00 80 9c e5 e8 3f
       0.47466012835502625 0.7780287265777588
000330 00 00 00 c0 15 bb 5e bf 00 00 00 a0 f3 11 53 bf
       -0.00187565921805799 -0.0011639479780569673
000340 00 00 00 a0 c9 23 65 3f 00 00 00 80 be 45 3e 3f
       0.002580541418865323 0.000461920746602118
000350 00 00 00 60 71 91 61 bf 00 00 00 40 46 19 5f 3f
       -0.002144547877833247 0.0018981157336384058
000360 00 00 00 80 b1 a1 60 bf 00 00 00 a0 31 46 63 bf
       -0.0020302264019846916 -0.0023528069723397493
000370 00 00 00 60 ee 1c 4e 3f 00 00 00 80 2e 8b 38 3f
       0.0009189762058667839 0.0003745068097487092
000380 00 00 00 80 61 d2 65 bf 00 00 00 00 66 de 52 3f
       -0.0026637939736247063 0.0011516567319631577
000390 00 00 00 c0 4c 98 18 3f 00 00 00 40 32 d2 3f bf
       9.382217831443995e-05 -0.00048555113608017564
0003a0 00 00 00 40 cf dd 66 bf 00 00 00 00 d2 d9 53 3f
       -0.0027913139201700687 0.0012116003781557083
0003b0 00 00 00 a0 15 7d 5f 3f 00 00 00 40 56 74 30 3f
       0.0019219123059883714 0.00025107484543696046
0003c0 00 00 00 00 41 a8 40 3f 00 00 00 80 d0 f1 46 bf
       0.0005083386786282063 -0.0007002132479101419
0003d0 00 00 00 80 7f 9f 60 3f 00 00 00 60 c1 58 c0 bf
       0.002029179595410824 -0.12770859897136688
0003e0 00 00 00 e0 98 41 a4 3f 00 00 00 60 ba 70 fa bf
       0.03956296667456627 -1.6525214910507202
0003f0 00 00 00 60 1e 68 c4 3f 00 00 00 a0 51 ca e7 bf
       0.1594274491071701 -0.7434471249580383
000400 00 00 00 60 79 38 bd bf 00 00 00 60 a5 5a 97 3f
       -0.11414297670125961 0.022806724533438683
000410 00 00 00 00 58 1a e2 3f 00 00 00 00 c1 7f a1 bf
       0.5657157897949219 -0.034177809953689575
000420 00 00 00 00 73 05 fe 3f 00 00 00 20 9b 11 eb 3f
       1.8763303756713867 0.8458991646766663
000430 00 00 00 80 8a 7e ea bf 00 00 00 80 01 57 f6 3f
       -0.8279469013214111 1.3962416648864746
000440 00 00 00 00 89 79 d8 3f 00 00 00 a0 df 44 d5 3f
       0.3824179172515869 0.3323287069797516
000450 00 00 00 80 a1 df f6 3f 00 00 00 60 f1 ac d2 bf
       1.4295973777770996 -0.29180559515953064
000460 00 00 00 60 ff ac 05 c0 00 00 00 40 34 55 e3 3f
       -2.7094714641571045 0.6041508913040161
000470 00 00 00 20 6a ba f5 3f 00 00 00 80 c5 5a 58 bf
       1.3580113649368286 -0.0014864853583276272
000480 00 00 00 00 7f 8b 53 bf 00 00 00 e0 4c 2f 64 3f
       -0.0011929264292120934 0.002463960787281394
000490 00 00 00 c0 17 db 44 3f 00 00 00 a0 5e 9d 61 bf
       0.0006364694563671947 -0.0021502349991351366
0004a0 00 00 00 e0 42 54 5b 3f 00 00 00 c0 26 6f 5e bf
       0.0016680386615917087 -0.0018575552385300398
0004b0 00 00 00 40 0f bb 5e bf 00 00 00 40 a6 e2 50 3f
       -0.001875653164461255 0.001030599931254983
0004c0 00 00 00 e0 5b 8e 44 3f 00 00 00 e0 60 ad 67 bf
       0.0006273220642469823 -0.0028902904596179724
0004d0 00 00 00 00 27 4a 40 3f 00 00 00 60 8d 37 23 3f
       0.0004971208982169628 0.00014661408204119653
0004e0 00 00 00 00 d4 f5 2b bf 00 00 00 80 06 94 64 bf
       -0.00021331990137696266 -0.0025119902566075325
0004f0 00 00 00 00 db ac 53 3f 00 00 00 60 f1 c5 5e 3f
       0.0012008799239993095 0.0018782479455694556
000500 00 00 00 80 4b 3c 2e 3f 00 00 00 e0 ab 26 3e 3f
       0.00023067876463755965 0.00046006866614334285
000510 00 00 00 20 9d ec 41 bf 00 00 00 80 d6 3d 60 3f
       -0.0005470053874887526 0.0019826116040349007
000520 00 00 00 e0 0f e6 c1 bf 00 00 00 20 7e fb d8 3f
       -0.13983343541622162 0.3903498947620392
000530 00 00 00 60 00 dd da bf 00 00 00 80 8c b0 cf bf
       -0.41973885893821716 -0.24757534265518188
000540 00 00 00 00 fb 78 c8 3f 00 00 00 c0 04 b8 e7 bf
       0.19119203090667725 -0.7412132024765015
000550 00 00 00 60 cd 69 bf 3f 00 00 00 c0 85 f2 ed 3f
       0.12270816415548325 0.9358547925949097
000560 00 00 00 60 e4 d2 f0 bf 00 00 00 20 d9 66 db 3f
       -1.0514873266220093 0.4281523525714874
000570 00 00 00 80 29 6e a8 bf 00 00 00 e0 6f aa ec bf
       -0.04771547019481659 -0.895805299282074
000580 00 00 00 80 ac 09 e0 3f 00 00 00 a0 1b 1b ef 3f
       0.50118088722229 0.9720590710639954
000590 00 00 00 40 84 8b b7 3f 00 00 00 c0 84 78 c0 bf
       0.09197260439395905 -0.12867793440818787
0005a0 00 00 00 40 16 1f f5 bf 00 00 00 40 eb ae f5 bf
       -1.32008957862854 -1.3552048206329346
0005b0 00 00 00 40 31 5d da 3f 00 00 00 20 3f 09 f0 3f
       0.41193801164627075 1.0022574663162231
0005c0 00 00 00 e0 36 f4 60 bf 00 00 00 80 c5 13 53 bf
       -0.0020695754792541265 -0.0011643818579614162
0005d0 00 00 00 e0 eb c8 62 3f 00 00 00 20 09 4f 4e 3f
       0.0022930724080652 0.0009249491267837584
0005e0 00 00 00 00 44 d4 62 bf 00 00 00 a0 62 20 62 3f
       -0.00229848176240921 0.002212708117440343
0005f0 00 00 00 a0 9f a2 5b bf 00 00 00 60 a7 4f 62 bf
       -0.0016867216909304261 -0.0022352475207298994
000600 00 00 00 a0 4c e4 4b 3f 00 00 00 a0 7a 50 38 3f
       0.0008511900086887181 0.0003710078599397093
000610 00 00 00 40 4e d2 64 bf 00 00 00 80 ab a5 4a 3f
       -0.0025416878052055836 0.0008132064249366522
000620 00 00 00 c0 82 da 1a 3f 00 00 00 00 dc c7 3a bf
       0.00010243819269817322 -0.0004086410626769066
000630 00 00 00 20 41 f4 67 bf 00 00 00 40 c7 f7 50 3f
       -0.002924086758866906 0.001035637455061078
000640 00 00 00 a0 07 1d 5e 3f 00 00 00 c0 e3 6c 33 3f
       0.0018379759276285768 0.00029640732100233436
000650 00 00 00 00 2b c5 41 3f 00 00 00 00 3f 7e 32 bf
       0.0005423030816018581 -0.0002821830566972494
000660 00 00 00 20 7e b1 5e 3f
       0.0018733722390607

camera f8 [5, 3]
000000 00 00 00 60 82 e2 08 c0 00 00 00 00 00 00 5c 40
       -3.110600233078003 112.0
000010 00 00 00 00 00 00 5c 40 00 00 00 a0 f4 e4 09 c0
       112.0 -3.2367947101593018
000020 00 00 00 00 00 00 5c 40 00 00 00 00 00 00 5c 40
       112.0 112.0
000030 00 00 00 e0 77 4a 08 c0 00 00 00 00 00 00 5c 40
       -3.0363614559173584 112.0
000040 00 00 00 00 00 00 5c 40 00 00 00 20 e4 fa 07 c0
       112.0 -2.9975054264068604
000050 00 00 00 00 00 00 5c 40 00 00 00 00 00 00 5c 40
       112.0 112.0
000060 00 00 00 c0 55 c8 09 c0 00 00 00 00 00 00 5c 40
       -3.2228198051452637 112.0
000070 00 00 00 00 00 00 5c 40
       112.0

joints3d f8 [5, 26, 3]
000000 00 00 00 80 2f 7e d2 bf 00 00 00 a0 5c c5 d7 bf
       -0.2889517545700073 -0.3714210093021393
000010 00 00 00 80 be e1 12 40 00 00 00 80 95 61 d9 bf
       4.720453262329102 -0.3965810537338257
000020 00 00 00 e0 71 8f d7 bf 00 00 00 e0 b6 d6 12 40
       -0.3681301772594452 4.709681987762451
000030 00 00 00 c0 85 f9 d4 bf 00 00 00 80 3d 77 d2 bf
       -0.32772964239120483 -0.28852784633636475
000040 00 00 00 80 1e 79 12 40 00 00 00 c0 b7 bc d1 bf
       4.618280410766602 -0.2771434187889099
000050 00 00 00 40 2a d4 e0 3f 00 00 00 00 c2 30 14 40
       0.5258990526199341 5.047615051269531
000060 00 00 00 c0 a0 52 cc bf 00 00 00 40 c2 af db 3f
       -0.2212716042995453 0.4326024651527405
000070 00 00 00 c0 f2 c9 14 40 00 00 00 20 b5 3f d3 3f
       5.1972150802612305 0.30076339840888977
000080 00 00 00 80 70 c7 db 3f 00 00 00 00 06 20 17 40
       0.4340478181838989 5.781272888183594
000090 00 00 00 00 e4 4e c8 3f 00 00 00 60 8c bf d9 3f
       0.18990755081176758 0.4023161828517914
0000a0 00 00 00 00 f0 bc 18 40 00 00 00 c0 7d a3 d0 3f
       6.18450927734375 0.259978711605072
0000b0 00 00 00 c0 d7 d6 cb bf 00 00 00 40 85 58 17 40
       -0.21749398112297058 5.8364458084106445
0000c0 00 00 00 60 02 7f ca bf 00 00 00 c0 fd d6 b2 3f
       -0.20700101554393768 0.07359300553798676
0000d0 00 00 00 00 dd 69 14 40 00 00 00 a0 df e1 d4 bf
       5.103382110595703 -0.3262862265110016
0000e0 00 00 00 c0 9b d4 a9 3f 00 00 00 80 fa e2 14 40
       0.050450198352336884 5.221658706665039
0000f0 00 00 00 20 61 e5 d1 3f 00 00 00 00 5f 58 b9 3f
       0.27962520718574524 0.09900468587875366
000100 00 00 00 e0 58 d5 16 40 00 00 00 00 fe df c0 3f
       5.708346843719482 0.1318356990814209
000110 00 00 00 80 88 8c b1 3f 00 00 00 80 93 d2 17 40
       0.06855061650276184 5.95564079284668
000120 00 00 00 40 ab 86 c5 bf 00 00 00 20 f2 5b c4 bf
       -0.16817227005958557 -0.15905596315860748
000130 00 00 00 80 f4 02 14 40 00 00 00 c0 07 59 d6 bf
       5.002885818481445 -0.34918397665023804
000140 00 00 00 80 70 27 c8 bf 00 00 00 40 cd 6f 14 40
       -0.18870359659194946 5.1091814041137695
000150 00 00 00 a0 9e 89 cd bf 00 00 00 40 a0 f9 da 3f
       -0.23076231777668 0.421485960483551
000160 00 00 00 00 b2 9b 14 40 00 00 00 80 2b d1 d1 bf
       5.152046203613281 -0.2783917188644409
000170 00 00 00 40 2d bb d9 3f 00 00 00 20 9c 20 15 40
       0.40204936265945435 5.281845569610596
000180 00 00 00 c0 03 3e d3 3f 00 00 00 20 c4 1f d3 3f
       0.30066007375717163 0.2988138496875763
000190 00 00 00 40 3e ab 17 40 00 00 00 80 86 45 d0 3f
       5.917229652404785 0.25424349308013916
0001a0 00 00 00 40 ff d3 cf 3f 00 00 00 00 93 7f 18 40
       0.24865713715553284 6.124584197998047
0001b0 00 00 00 80 1d 2a d6 bf 00 00 00 00 8e f5 d1 bf
       -0.3463205099105835 -0.2806124687194824
0001c0 00 00 00 c0 16 7d 13 40 00 00 00 40 1a d4 ed 3f
       4.872157096862793 0.9321414232254028
0001d0 00 00 00 40 9d 2f d1 bf 00 00 00 e0 9b a5 1a 40
       -0.2685311436653137 6.661727428436279
0001e0 00 00 00 40 8a 1c d1 bf 00 00 00 00 6e ce d9 bf
       -0.2673669457435608 -0.40322446823120117
0001f0 00 00 00 80 58 42 13 40 00 00 00 c0 34 68 db bf
       4.814790725708008 -0.4282352328300476
000200 00 00 00 00 9e d3 d9 bf 00 00 00 e0 c5 3d 13 40
       -0.40354108810424805 4.8103251457214355
000210 00 00 00 c0 7d c1 d4 bf 00 00 00 a0 e9 c4 d0 bf
       -0.324309766292572 -0.2620185911655426
000220 00 00 00 e0 ea cb 12 40 00 00 00 e0 e2 e2 d8 bf
       4.699138164520264 -0.38884803652763367
000230 00 00 00 40 53 df d0 bf 00 00 00 00 34 cc 12 40
       -0.2636306881904602 4.6994171142578125
000240 00 00 00 60 73 35 d5 bf 00 00 00 60 a6 1c d5 bf
       -0.33138737082481384 -0.329873651266098
000250 00 00 00 c0 7d 7a 12 40 00 00 00 60 b5 b0 e1 3f
       4.619620323181152 0.5528208613395691
000260 00 00 00 a0 e5 e3 c0 bf 00 00 00 e0 42 0b 19 40
       -0.1319548636674881 6.260997295379639
000270 00 00 00 60 bf 8a d2 3f 00 00 00 00 4d bd ca bf
       0.28971847891807556 -0.2089020013809204
000280 00 00 00 40 1b 72 13 40 00 00 00 c0 7f 82 c4 3f
       4.861432075500488 0.1602325141429901
000290 00 00 00 40 06 0e c9 bf 00 00 00 e0 9b 2a 13 40
       -0.1957404911518097 4.791610240936279
0002a0 00 00 00 80 ce 86 d1 3f 00 00 00 c0 e1 02 aa bf
       0.2738529443740845 -0.05080323666334152
0002b0 00 00 00 40 75 cd 12 40 00 00 00 a0 e4 45 e4 3f
       4.7006425857543945 0.6335318684577942
0002c0 00 00 00 60 37 a5 e2 3f 00 00 00 00 36 6a 15 40
       0.5826680064201355 5.353721618652344
0002d0 00 00 00 c0 86 20 df 3f 00 00 00 60 5d 6a e2 3f
       0.48636025190353394 0.5754839777946472
0002e0 00 00 00 20 f4 ea 15 40 00 00 00 00 5e 6e 80 bf
       5.479446887969971 -0.008023008704185486
0002f0 00 00 00 a0 48 4a d8 3f 00 00 00 80 43 ae 18 40
       0.37953391671180725 6.17017936706543
000300 00 00 00 c0 9d ab c6 bf 00 00 00 80 b2 2e dc 3f
       -0.17711231112480164 0.44035017490386963
000310 00 00 00 c0 f0 c4 17 40 00 00 00 00 2e 67 d4 bf
       5.942324638366699 -0.31879758834838867
000320 00 00 00 20 18 0c b7 bf 00 00 00 20 75 70 17 40
       -0.0900282934308052 5.859821796417236
000330 00 00 00 e0 7d e9 cc 3f 00 00 00 a0 e2 19 c4 3f
       0.2258756011724472 0.15703995525836945
000340 00 00 00 c0 1c 8f 15 40 00 00 00 c0 74 52 99 3f
       5.389758110046387 0.02472860738635063
000350 00 00 00 00 e0 cc cf 3f 00 00 00 20 dd 10 15 40
       0.24843978881835938 5.266468524932861
000360 00 00 00 80 36 1d b1 bf 00 00 00 60 bb 84 bc 3f
       -0.06685200333595276 0.11140032857656479
000370 00 00 00 80 92 18 18 40 00 00 00 00 fa 53 d3 bf
       6.023996353149414 -0.3020005226135254
000380 00 00 00 40 ee 53 cd 3f 00 00 00 c0 22 3c 17 40
       0.22912386059761047 5.8087263107299805
000390 00 00 00 40 80 51 c5 3f 00 00 00 60 7a 24 b3 bf
       0.1665497124195099 -0.07477536052465439
0003a0 00 00 00 a0 18 f6 14 40 00 00 00 a0 8f 73 b4 bf
       5.240328311920166 -0.07988832145929337
0003b0 00 00 00 00 3c 07 8b 3f 00 00 00 00 58 83 14 40
       0.013197392225265503 5.128265380859375
0003c0 00 00 00 20 b5 6e e0 3f 00 00 00 80 ed 22 df 3f
       0.5135141015052795 0.4865068197250366
0003d0 00 00 00 80 a8 be 15 40 00 00 00 00 d4 9f d6 3f
       5.436189651489258 0.35350513458251953
0003e0 00 00 00 60 83 0a e1 3f 00 00 00 20 06 e5 15 40
       0.5325333476066589 5.473656177520752
0003f0 00 00 00 a0 b9 5b c6 bf 00 00 00 c0 aa 97 ce 3f
       -0.17467422783374786 0.2390035092830658
000400 00 00 00 60 76 e4 18 40 00 00 00 c0 0f e9 d4 bf
       6.223107814788818 -0.32672494649887085
000410 00 00 00 80 a4 a1 d1 3f 00 00 00 60 cc 3b 18 40
       0.2754908800125122 6.058396816253662
000420 00 00 00 60 a7 5d c3 3f 00 00 00 80 82 f4 b9 bf
       0.15129558742046356 -0.10138717293739319
000430 00 00 00 80 8f d7 13 40 00 00 00 80 fe 2e e2 bf
       4.960508346557617 -0.5682365894317627
000440 00 00 00 e0 2c 6f d7 3f 00 00 00 60 79 5c 19 40
       0.3661606013774872 6.340306758880615
000450 00 00 00 60 a5 a9 d0 3f 00 00 00 c0 42 86 d1 bf
       0.2603543698787689 -0.27381962537765503
000460 00 00 00 60 59 d8 13 40 00 00 00 00 b4 b4 bb 3f
       4.961278438568115 0.10822606086730957
000470 00 00 00 c0 a4 33 d0 bf 00 00 00 00 66 82 13 40
       -0.253152072429657 4.877342224121094
000480 00 00 00 a0 7e b2 d1 3f 00 00 00 60 1f 3b a4 bf
       0.27651944756507874 -0.039513569325208664
000490 00 00 00 80 6f 56 13 40 00 00 00 80 0d 7d cb 3f
       4.834409713745117 0.21475380659103394
0004a0 00 00 00 80 02 4b a1 bf 00 00 00 c0 55 33 13 40
       -0.03377540409564972 4.800131797790527
0004b0 00 00 00 a0 a5 7e d3 3f 00 00 00 80 59 97 ba bf
       0.3046049177646637 -0.1038719117641449
0004c0 00 00 00 e0 fc c3 12 40 00 00 00 c0 25 c1 db bf
       4.691394329071045 -0.4336637854576111
0004d0 00 00 00 a0 29 5e c5 3f 00 00 00 60 4b 60 18 40
       0.16693611443042755 6.0940375328063965
0004e0 00 00 00 c0 fa 0f a7 3f 00 00 00 60 b0 73 c7 bf
       0.045043788850307465 -0.18321804702281952
0004f0 00 00 00 c0 0a 14 05 40 00 00 00 00 d8 1f ac bf
       2.6347861289978027 -0.05493044853210449
000500 00 00 00 a0 2a 39 c6 bf 00 00 00 e0 2b af 04 40
       -0.1736195832490921 2.5855329036712646
000510 00 00 00 00 fd b1 a4 3f 00 00 00 c0 bc a1 b8 bf
       0.04042044281959534 -0.09621791541576385
000520 00 00 00 a0 1f 20 04 40 00 00 00 c0 2b 8b a7 3f
       2.5156853199005127 0.04598366469144821
000530 00 00 00 00 00 e0 df 3f 00 00 00 40 b0 82 08 40
       0.498046875 3.063812732696533
000540 00 00 00 e0 10 9b c1 bf 00 00 00 e0 df 04 e0 3f
       -0.13754473626613617 0.5005950331687927
000550 00 00 00 e0 44 6d 08 40 00 00 00 a0 df 96 b0 3f
       3.053354024887085 0.0648021474480629
000560 00 00 00 e0 9e 05 db 3f 00 00 00 00 07 ed 0c 40
       0.42221805453300476 3.6157360076904297
000570 00 00 00 80 9f 0b b8 bf 00 00 00 00 9e 60 db 3f
       -0.09392735362052917 0.42777204513549805
000580 00 00 00 80 d1 04 0d 40 00 00 00 00 fb 50 91 bf
       3.627352714538574 -0.016910478472709656
000590 00 00 00 80 ef 0e c4 bf 00 00 00 40 2b 8d 0d 40
       -0.1567057967185974 3.693930149078369
0005a0 00 00 00 60 1d 9e 7a bf 00 00 00 00 84 6f be 3f
       -0.006498446222394705 0.11888909339904785
0005b0 00 00 00 e0 1e 56 08 40 00 00 00 60 92 cd c8 bf
       3.042051076889038 -0.193773552775383
0005c0 00 00 00 60 2e df bd 3f 00 00 00 e0 56 5e 08 40
       0.11668672412633896 3.0460641384124756
0005d0 00 00 00 00 f0 c8 b9 3f 00 00 00 60 e3 6c c0 3f
       0.1007223129272461 0.1283230036497116
0005e0 00 00 00 a0 74 0f 0d 40 00 00 00 00 d9 e5 c1 bf
       3.6325466632843018 -0.13982689380645752
0005f0 00 00 00 60 9a bf c0 3f 00 00 00 a0 47 69 0d 40
       0.1308472603559494 3.676406145095825
000600 00 00 00 00 af a6 8c 3f 00 00 00 80 95 d9 af bf
       0.013989798724651337 -0.06220690906047821
000610 00 00 00 a0 b7 9b 07 40 00 00 00 40 e9 80 ca bf
       2.9510338306427 -0.20705905556678772
000620 00 00 00 c0 db fd b1 bf 00 00 00 60 df 8b 07 40
       -0.07027982175350189 2.9432971477508545
000630 00 00 00 00 97 de 9f 3f 00 00 00 00 01 b5 da 3f
       0.03112255036830902 0.4172976016998291
000640 00 00 00 40 a2 28 09 40 00 00 00 80 b8 de c4 bf
       3.144840717315674 -0.16304689645767212
000650 00 00 00 00 73 73 db 3f 00 00 00 e0 4f 17 09 40
       0.4289214611053467 3.136382818222046
000660 00 00 00 80 40 61 ac 3f 00 00 00 a0 a7 27 d1 3f
       0.055429473519325256 0.2680453360080719
000670 00 00 00 c0 14 ee 0d 40 00 00 00 c0 be 16 b3 bf
       3.741250514984131 -0.0745658129453659
000680 00 00 00 00 99 28 d1 3f 00 00 00 00 d2 2e 0e 40
       0.26810288429260254 3.7728614807128906
000690 00 00 00 c0 74 09 b1 bf 00 00 00 80 00 f2 ba bf
       -0.06655053794384003 -0.10525515675544739
0006a0 00 00 00 c0 65 15 06 40 00 00 00 a0 7a c9 bc 3f
       2.7604479789733887 0.11244932562112808
0006b0 00 00 00 00 0a 00 ce bf 00 00 00 60 3b dd 10 40
       -0.2343761920928955 4.2160468101501465
0006c0 00 00 00 c0 de 19 9c 3f 00 00 00 00 f7 3f cc bf
       0.027442436665296555 -0.22070205211639404
0006d0 00 00 00 60 a7 cc 05 40 00 00 00 60 51 66 bd bf
       2.724928617477417 -0.1148424968123436
0006e0 00 00 00 40 b6 b5 ca bf 00 00 00 40 1e 43 05 40
       -0.20867040753364563 2.6577725410461426
0006f0 00 00 00 c0 f1 9f a4 3f 00 00 00 00 d1 4a ae bf
       0.040282778441905975 -0.05916455388069153
000700 00 00 00 e0 be e5 04 40 00 00 00 00 8a f6 a1 bf
       2.612180471420288 -0.035084068775177
000710 00 00 00 a0 fe 31 ac bf 00 00 00 40 60 a4 04 40
       -0.05506892874836922 2.580261707305908
000720 00 00 00 00 4a 33 a9 3f 00 00 00 a0 bd 2e c3 bf
       0.04921942949295044 -0.14986391365528107
000730 00 00 00 a0 b8 0c 04 40 00 00 00 40 1c b5 a3 3f
       2.506211519241333 0.0384911373257637
000740 00 00 00 00 82 db c1 bf 00 00 00 c0 0b ca 0f 40
       -0.1395113468170166 3.9736552238464355
000750 00 00 00 00 6c 42 d8 3f 00 00 00 c0 f3 6b d5 bf
       0.37905406951904297 -0.334713876247406
000760 00 00 00 40 3b 3b 12 40 00 00 00 80 df 57 d2 3f
       4.557843208312988 0.2866133451461792
000770 00 00 00 00 b6 b1 d5 bf 00 00 00 00 a0 07 12 40
       -0.3389716148376465 4.5074462890625
000780 00 00 00 80 ae 62 d7 3f 00 00 00 00 90 1b d0 bf
       0.3653980493545532 -0.2516822814941406
000790 00 00 00 20 05 c1 11 40 00 00 00 a0 0a 66 ca 3f
       4.438496112823486 0.20623905956745148
0007a0 00 00 00 00 eb 88 de 3f 00 00 00 80 86 ae 13 40
       0.47710680961608887 4.920434951782227
0007b0 00 00 00 00 c1 f2 c1 3f 00 00 00 e0 01 57 e1 3f
       0.1402207612991333 0.5418710112571716
0007c0 00 00 00 20 d3 15 13 40 00 00 00 80 91 13 bb bf
       4.771313190460205 -0.10576733946800232
0007d0 00 00 00 40 a6 6c dd 3f 00 00 00 a0 f6 fa 16 40
       0.45975643396377563 5.745081424713135
0007e0 00 00 00 a0 64 e4 d5 bf 00 00 00 a0 29 2f de 3f
       -0.3420650064945221 0.4716285765171051
0007f0 00 00 00 40 b1 ce 15 40 00 00 00 c0 e4 5e c9 bf
       5.451848030090332 -0.19820842146873474
